scripts/learning/models/[128,256,128]_best-double_prob.pth (torch_old, 339950 bytes, 10 tensors)

layers.0.0.weight f4 [128, 12]
00000000: 04eb ab3e e98f 983e 0a77 f1bd fe0a 833e
00000010: ecd6 6ebe 78ce 983f f784 bdbf 7563 463e
00000020: e9c0 9dbc 9f50 64bd 4c6e f8be 54eb 77be
00000030: c634 2ebd 9ed9 3f3f ac0e 00be deb9 c9bd
00000040: 8bc6 a93e 1d3f 4fbd 26ba 7bbe 1f64 823e
00000050: f697 19be 354c 49be d2fd 7abf 899b e23e
00000060: 0292 82be 6082 8a3e 46f6 dcbd a135 9dbe
00000070: f01b e63d 90f6 1c3f 4303 a7bf 36a3 663e
00000080: 9f73 55be 501b 83be c7cf 22be 1dfc bdbe
00000090: 2830 cdbe 6e6e 01be e409 e4bd 80b4 523d
000000a0: 31a9 3bbc 1d07 773d 0f02 86bf d585 f93a
000000b0: 77ee afbd 12de 103c 22a9 053e 6f4f 0d3e
000000c0: 2e7d aa3f 635b a4be 8582 0dbe ded8 013c
000000d0: e8d0 3bbb fbe2 723b 8bd0 f3bc 78dd ff3d
000000e0: a749 65bc a1a3 c9bc cc91 593d 6deb 8dbe
000000f0: c2cb c4be ce25 dd3e c05a 56bc 2a5c 3a3c
00000100: 0ae6 153a dfbb 173f 55c8 d3bb f021 943e
00000110: 8abc ce3b 896d 1ebd 804f d9be 243e 86bd
00000120: 517f d33d 5032 063f edcf 443e 5c1f 56bc
00000130: 06ac c1bd 84a4 dc3c 5003 12be 67a1 7b3e
00000140: 0ee9 d6bd 1823 ddbd a9be 1dbf ae1f 0fbf
00000150: 08c4 663f f152 e53d fae9 e6bd 0100 ff3d
00000160: 38f5 8e3e 2a97 d7be 9aa8 83bf b5e2 88be
00000170: 2afe 903e eabd edbd 3fe7 d0be da9d 983e
00000180: d63c babe e8cf ba3e 4996 02bf eaf3 b63e
00000190: 4f40 1ebe e8d2 62bf 372d 0c3f cdcd d8be
000001a0: d5f0 babd e50b fabd 5d42 653f b567 eabe
000001b0: 0133 503f 8b33 c2be 6dbc d9be 7640 973e
000001c0: 3269 c9bc 4034 56bf 101c 033f cd3e cfbe
000001d0: 4ce3 78bd 428d 9f3d ae9c 33bf aa13 b03e
000001e0: a6b5 0bbe d27c 4cbf edc0 babe 0043 dc3d
000001f0: 8600 1e3e 474a 93bc 914d 6bbf 88fa a4be
00000200: 2cc2 a93e d197 4f3d 4434 25bd a7d0 5fbb
00000210: 3e29 d23e 13bd afbe 25fc ae3e 284f d5bb
00000220: 6912 94bd daa6 8a3f 29dd 463f 2639 763e
00000230: a0af dabd c162 0a3e 2cb1 bebe b302 4bbe
00000240: f4b0 0cbf b4ae 5bbd 751c 803d 0b74 273e
00000250: 3b28 d7be aa1f 60bf 81f7 643f 39db 26be
00000260: c28a cebb 4092 4f3e f230 463f a740 44bb
00000270: dfb9 8dbe 89bf 0b3f dd6a d23e 6445 efbc
00000280: 0662 28be cc9d d63e e19c 233f a15b 023f
00000290: 5f8a 92be 985a af3e 8a59 333e f21c 1ebe
000002a0: 8e16 10bf c1d4 183e 8c8b 193e 0afc 62be
000002b0: 3845 1d3d 81bb 9f3f c8eb 49bf 399f 1abe
000002c0: a709 773d 66db 84be a52b 883f db51 c4be
000002d0: 4f94 fdbe 2a10 483e 2a42 22bf b119 1e3e
000002e0: 120d c5be 5cb1 ebbe ff96 ddbc f59b 01bf
000002f0: 556b 5cbc f60d 1e3e 2ace 02bf a9a7 3f3f
00000300: 43c5 44be 569d 513f 23f4 d5bd d13c bb3c
00000310: 2644 dd3c ee1d 9bbe 2949 1ebf fe18 293e
00000320: 26ec 4abc 2802 2cbe 48fc b43e 74f1 833f
00000330: 7ee1 f23e ada1 bb3d 2a18 87bd aad4 323c
00000340: 94c0 bf3d 461a 15bf 9751 a9be 5a9d 83be
00000350: 4d90 a7bc 2cfe b13e 0949 4d3f 46c9 4bbf
00000360: 2264 1e3e 5619 e63d fc96 89be f0a6 b13e
00000370: 296e 7a3e 4868 20bf 2a72 65bf a5de a53e
00000380: f59c 8dbe 30d8 fbbe e6f8 523e 1b7e d63e
00000390: 665d 46be b562 45be 8c95 813d 1bcf 1a3e
000003a0: 15e5 86be 60dd debf 12a4 f13f ec70 153d
000003b0: 370f 933c 6ea5 35bd f160 1fbe 7db0 ac3d
000003c0: 5665 54be 2a4c 8cbe fe56 d6bd d0a7 bc3d
000003d0: 29fa f73c de93 f03e de46 8c3f c287 26bd
000003e0: baf8 923e 9b25 503e ce18 433e e4af a73e
000003f0: d7b7 873c 6e18 b0be 5a26 c1bd e9fa 2abb
0.3357774 0.29797295 -0.11790283 0.25594324 -0.23324174 1.1938009 -1.4806203 0.19373877
-0.019257026 -0.05574095 -0.4852165 -0.24210864 -0.042530797 0.7494143 -0.12505597 -0.098499045
0.3315929 -0.0505973 -0.24582729 0.2546701 -0.14999375 -0.19657977 -0.9804355 0.4425929
-0.2550202 0.27052593 -0.107891604 -0.30704978 0.112357974 0.61313725 -1.304787 0.22523198
-0.20844887 -0.25606775 -0.15899573 -0.3710641 -0.40075803 -0.12639782 -0.11134699 0.05144167
-0.011453913 0.060309518 -1.0469378 0.0019037077 -0.085904054 0.008842008 0.130528 0.13799833
1.3319452 -0.32100973 -0.1381932 0.00792524 -0.0028658453 0.003706156 -0.029762527 0.12493414
-0.013994611 -0.024614157 0.05311756 -0.27718678 -0.38436705 0.43192905 -0.01308316 0.011374513
0.00057181774 0.59271044 -0.0064630904 0.28932142 0.0063090967 -0.03867868 -0.42443466 -0.06554821
0.10327018 0.5242052 0.19219942 -0.013069 -0.09456639 0.026933916 -0.14259076 0.24573289
-0.104936704 -0.10797709 -0.6161905 -0.55907714 0.9014287 0.111974604 -0.11275096 0.124511726
0.27921462 -0.42107517 -1.0285828 -0.26735464 0.28318912 -0.11608489 -0.40801427 0.2980793
-0.3637454 0.36486745 -0.51010567 0.35732967 -0.1545422 -0.8860307 0.5475649 -0.42344514
-0.09127966 -0.122093 0.8955439 -0.45782247 0.81327826 -0.3792995 -0.4252657 0.29541367
-0.024586294 -0.8367348 0.51214695 -0.404776 -0.060763642 0.07790615 -0.7016095 0.34390002
-0.13643512 -0.7987796 -0.36475316 0.10754967 0.15429887 -0.017979754 -0.9191523 -0.3222239
0.33155954 0.050681893 -0.040333048 -0.0034151466 0.4104709 -0.3432394 0.34176746 -0.0065096803
-0.07230074 1.0832169 0.77681214 0.24045238 -0.10678029 0.13514234 -0.37244546 -0.19825248
-0.5495751 -0.053633407 0.06255428 0.1635286 -0.4202288 -0.87548316 0.8944016 -0.16294564
-0.0063031623 0.20270634 0.77418435 -0.0029945762 -0.2768087 0.54589134 0.41097155 -0.029207893
-0.16443643 0.41917264 0.63911253 0.50921065 -0.28621194 0.34248805 0.17514625 -0.1544073
-0.56284416 0.14924909 0.14994639 -0.22166458 0.03839609 1.2479097 -0.788754 -0.15099801
0.06031194 -0.25948638 1.0638319 -0.383437 -0.49527213 0.19537416 -0.6338221 0.15439488
-0.38486534 -0.46033752 -0.02704954 -0.50628597 -0.013453324 0.15435013 -0.5109583 0.74865204
-0.19215874 0.818807 -0.10446956 0.022856148 0.027010035 -0.30296272 -0.61830384 0.1651344
-0.012385404 -0.16797698 0.35348725 1.0308061 0.47437662 0.091616966 -0.06596406 0.010914961
0.09362903 -0.58243215 -0.3307006 -0.25705987 -0.02045455 0.3476423 0.8018957 -0.79603994
0.15467885 0.11235301 -0.26873004 0.34697676 0.24456085 -0.6265912 -0.89627326 0.32396427
-0.2765881 -0.49188375 0.2060276 0.41893086 -0.19371566 -0.19275935 0.06327352 0.15118067
-0.2634665 -1.7411308 1.8878195 0.036484644 0.017951591 -0.04434722 -0.15564324 0.084321
-0.20741782 -0.2740186 -0.10465811 0.09211695 0.030270653 0.46987814 1.0959127 -0.040656812
0.28705388 0.20326845 0.19052431 0.3275138 0.016567154 -0.34393638 -0.09431143 -0.0026089496

layers.0.0.bias f4 [128]
00000000: 4603 d83d 05d2 88be eb91 92be 7133 1e3e
00000010: e636 a43e c130 a03d 26d9 a93e 68a7 05be
00000020: 8a42 9dbe 0efa 14be 9810 acbd 56df 593d
00000030: 536f 61bd f9d7 31be af6a 9ebd c958 84be
00000040: 1f7c e2bd e48d e3bd 4948 68be e656 9c3c
00000050: f487 d5be f3eb 6b3e 2b68 e9bd 1e7d 03be
00000060: 7ca6 cc3d f65d 333b 00d8 ee3d 83f7 bbbe
00000070: ada2 afbe bc1e 0b3e e581 693e 1cf6 aabb
00000080: 0280 08bf f9ed 07bc 6a5d 433e a2c4 eabb
00000090: e10e dabd 5ed2 633e 9097 833e db17 063e
000000a0: f51f 513d 7612 3fbe 8a6b a13d cdb8 ba3d
000000b0: 96b0 68be 8f27 56bd e61d b0be 2947 c1be
000000c0: 7f2c dabd 518c 5a3c b881 b4bd 3a0b 97bc
000000d0: e72c 113e 3175 08be 5253 fabd 796f 6fbd
000000e0: c9ed 76bc be4d a5be 9502 e43e 386d 573d
000000f0: a333 78be 3e4e c3be 1568 8d3d 2e26 893d
00000100: 21b4 803b e035 b9be 0c5d f03c 4be8 6f3e
00000110: c63d 7c3e 8eec ff3d 1aeb 37bd 99ed 923d
00000120: cb23 c43d 2055 e0be 107d 3539 428c 3f3d
00000130: 8fc2 6d3e 35cf 763e fa8e 4d3e 9900 ca3e
00000140: cc3b e93d a1af 18bd a917 373e d054 35bd
00000150: bf6d 963e fc02 3a3e fc80 08be 9a20 483d
00000160: 1168 253e 0f1c a93d 49ab b9bc 2980 213e
00000170: 6143 513e 7144 42be 915f e1be 048e 4a3e
00000180: 3f05 8b3e 31c6 453e 9f7e 74be ed4d bdbb
00000190: 6f37 9f3e 5d59 9f3e 7c84 c5be a03a 61be
000001a0: 4846 9cbe 9a8b 683e 233d 423d d877 16bf
000001b0: 0051 b7bd 26f6 cdbd eaa1 c73b 3b8d 90be
000001c0: 1f26 ce3d b3cb 223e 859e 243e 4689 223e
000001d0: da74 33be 145e b83d 7117 76be 3256 1f3e
000001e0: 120f 44be 3ece 8e3e 0820 f83c d04a 89be
000001f0: e200 89be d6c4 4abe 2b06 f7bd d68d 833e
0.10547499 -0.26722732 -0.28626952 0.15449311 0.32073134 0.07821799 0.33173484 -0.13052142
-0.30714828 -0.14548513 -0.084016025 0.053191505 -0.055037808 -0.17367543 -0.07735192 -0.25848988
-0.110588305 -0.11111048 -0.22683825 0.019084405 -0.41705287 0.23039226 -0.113968216 -0.12840697
0.09992692 0.0027369238 0.116622925 -0.36712274 -0.343038 0.13585943 0.22803457 -0.005217327
-0.53320324 -0.008296483 0.19078603 -0.0071645537 -0.10647369 0.22248217 0.2570157 0.13095038
0.051055867 -0.18659386 0.078818396 0.09117279 -0.22723612 -0.05228382 -0.3439781 -0.37749603
-0.10653018 0.013339118 -0.088138044 -0.01843797 0.14177285 -0.13325955 -0.12222923 -0.058455918
-0.015071341 -0.32285875 0.4453322 0.052594393 -0.24238448 -0.38145632 0.06904618 0.06696735
0.003927723 -0.36173916 0.029341243 0.23428456 0.2463294 0.12496291 -0.044901945 0.071742244
0.095771395 -0.43814945 0.00017308095 0.04676462 0.2321875 0.2410248 0.20074072 0.3945358
0.113883585 -0.037276868 0.1788012 -0.044270337 0.29380605 0.18165201 -0.13330454 0.048859216
0.1615298 0.08257305 -0.022664683 0.15771545 0.2043586 -0.18971421 -0.44018224 0.19780737
0.2715244 0.19313885 -0.23876427 -0.0057771117 0.3109698 0.31122866 -0.3857764 -0.2199502
-0.3052237 0.22709504 0.047421586 -0.5877662 -0.089509964 -0.10056715 0.0060922997 -0.2823275
0.10065865 0.15898018 0.16076095 0.15872678 -0.17525044 0.09002319 -0.2403238 0.15560225
-0.19146374 0.27891725 0.030288711 -0.2681489 -0.26758486 -0.1980165 -0.12061723 0.2569415

layers.1.0.weight f4 [256, 128]
00000000: 9f9d 253f cce4 183d 4661 70be aa11 d4bd
00000010: 07c6 fa3c 8b47 d13c e1b3 1f3e 36dc aabe
00000020: 192b f6be 545a d3bf b2a4 94be bd4e 343b
00000030: ea36 923d 7c03 13be 529f 813d c39c 7c3e
00000040: 803f 943d 1b1a 393d ef75 b73e 3500 01bf
00000050: fd46 273e f4c7 80bd 7a3f 8c3c 178b 9a3e
00000060: cd94 1cbc 7666 0c3e 172b 70bd ea89 063e
00000070: 31f9 7b3f c100 5dbd 4674 4b3d a74c 9cbe
00000080: 9e23 c8bd cd57 86bd 836e 61be ffc1 33bb
00000090: 118a aebe 89a8 31be f718 563e 6e32 993d
000000a0: ad48 083e 9bff 5bbd 2bdb e83d 0a5a 0fbd
000000b0: 1329 49bd 7fec ee3c e5c4 00bd ce01 95bf
000000c0: 810d a73d 5ec1 a4bd f935 b83d 4707 c8bd
000000d0: a3bc 453d 8f55 e03d 38f6 fb3e 5a42 28bd
000000e0: a22b fdbc 8d0d 893c bff0 f33c bff4 243e
000000f0: 935d 343d fab2 8cbd 034d ad3d f8a3 42be
00000100: f989 50be 282b 923e 36f9 e73d d563 8ebe
00000110: d74a 903e 4b1a 3c3e 9fa4 50bc 8783 24be
00000120: 0ee0 9bbd a1d9 813e d7fa f13d 5544 1fbe
00000130: 72b8 6f3d f6c1 a53b b058 a5bb 6b25 9b3d
00000140: c92d e0bc 6571 71be 75df ae3d 9ae3 a5bc
00000150: 9f23 163e 60ad a8bc 4057 89be e4bc 61bc
00000160: da08 373d 02cf 8cbd 3e41 39bc a69a e5bb
00000170: 5b8e bf3d e71e b73e 1c8b aabd 9726 31bd
00000180: eb51 11bd fc7d 71be 56d7 edbe 6b8c 62bd
00000190: f262 fb3d 36c6 253d 35f5 cebf 1233 7a3d
000001a0: caac c03d 13da 593d 126d c5bc 940c fc3d
000001b0: bd18 24bd 23f5 05bd eaa5 aa3d a910 ea3e
000001c0: 33eb adbd 0a19 1fbc 1cac 843b 9ed3 733d
000001d0: 2072 78be 42c0 d2bd b696 173d 217b 5a3d
000001e0: 7f1a 0a3d 01ff 28be 0d11 1abe b0ac a0bc
000001f0: a8b0 f5bd 9208 45be 38ec 8ebd 511e 3d3c
00000200: 63ec 4e3e cf75 a73e fd14 12be bec4 03be
00000210: b258 503d 80fd 8f3b dc2e 833d 21f3 433e
00000220: 65cf c2bd be66 3c3e 93e8 603d 5fd8 843d
00000230: 93c6 0fbe d9b1 24bd a446 7e3d ddc6 babd
00000240: c2b1 06be d10c 193e 94f7 973d 1cca a03c
00000250: bc8f e63c 38a6 573d 887a 9fbd 9c9d 333e
00000260: f5ee 8cbd 54fd e43d 099a b93c 6954 503d
00000270: 3172 573e 0d66 bd3c c221 21be 179d 69be
00000280: 3303 c1be 7685 c23a 7928 033e f33d 05be
00000290: 5fb3 09be a302 02bd 4f68 4f3d 25b7 52be
000002a0: 20ff 353e d85d 0b3d 2c2c 053c b4b3 833e
000002b0: 57cb 8a3e 3f7d a4bd f5c8 b73d d6b5 033f
000002c0: 14f9 99be f5e7 413d 1ddb e4bd da92 063e
000002d0: 59da 303d e9d7 b4bc f28f 873e 554b fb3c
000002e0: 6612 5ebe a34a 88be 237b 4dbd f3ee d6bd
000002f0: ea54 cbbe df21 013e b7a3 20bd c7d9 2b3d
00000300: e137 8e3c c9b0 62bd 8713 e73d 1cc1 1c3d
00000310: 67ab 993d 809f 0abe 2de4 c33c aea5 27bd
00000320: 97e6 bdbb c677 573d 6f3b d7bd bc00 92bd
00000330: cadc 68bd 95af bf3d 2b15 2c3d 0910 523d
00000340: 388b 1dbe 88ab 5abd febc c33d 2de9 fb3d
00000350: 5292 adbe 2aa3 16be 46cc 713e fe52 efbd
00000360: 9a7d 883e 2473 f23d 4067 b9bd adbf f43d
00000370: 11f9 c9bd a37f 4fbe e415 54be 4fa6 f93d
00000380: c7c4 0bbb 7fef 263d 902a 2ebe 450a 9fbc
00000390: 2195 083b c4be 033d 1705 fe3d 0e0b 733d
000003a0: 457f 2e3e 3c55 463d a6f6 94bc 4977 20bf
000003b0: aa03 d6bd 276a 62be 2144 41be b832 c93d
000003c0: 427f 93bd 3444 ae3d 1fce b7bd b694 b43d
000003d0: d492 54be 46d9 7a3d be12 19bd 9e53 06bd
000003e0: c48c a13d c4ea 0abd 72a3 23bd 803e c4bc
000003f0: 0386 a03e f367 48be 8b14 983d eb40 f8bd
0.64693636 0.037327573 -0.23474607 -0.10354932 0.030612005 0.02554681 0.15595962 -0.33371133
-0.48079756 -1.6511941 -0.29031903 0.0027512752 0.0713938 -0.14356798 0.06329216 0.24669175
0.07238674 0.04519091 0.35832164 -0.5039094 0.16335674 -0.06288138 0.017120112 0.30184242
-0.009556961 0.13710961 -0.058634844 0.13138548 0.9842711 -0.053955797 0.049671434 -0.3052723
-0.097724184 -0.065597154 -0.22014813 -0.0027428863 -0.3408971 -0.17349447 0.20907961 0.07480322
0.13308974 -0.05371056 0.11369928 -0.034997977 -0.049111437 0.029165505 -0.031437773 -1.1641176
0.081568725 -0.08044694 0.089946695 -0.09767013 0.0482756 0.10953819 0.49211287 -0.041078903
-0.030904595 0.016730094 0.029777883 0.16108988 0.04403455 -0.068700746 0.084619544 -0.19007862
-0.20365132 0.2854855 0.1132683 -0.2781054 0.28182098 0.18369405 -0.012734561 -0.16065799
-0.076110944 0.2536135 0.11815422 -0.1555341 0.05852551 0.0050585223 -0.0050459728 0.07575496
-0.027365582 -0.23578413 0.08538715 -0.02025013 0.14662026 -0.020590484 -0.2682438 -0.013777945
0.044686176 -0.06875421 -0.011307059 -0.007006961 0.09353324 0.35765764 -0.08327314 -0.043249693
-0.035478514 -0.23583215 -0.4645335 -0.055309694 0.12274732 0.04047223 -1.6168581 0.06108386
0.09407957 0.053186487 -0.02409986 0.123070866 -0.040062655 -0.032704484 0.08332427 0.45715836
-0.08492126 -0.00971056 0.0040488373 0.059527986 -0.24262285 -0.102905765 0.037008964 0.05334008
0.033716675 -0.16503526 -0.15045567 -0.019613594 -0.11996585 -0.1924155 -0.06978649 0.0115428725
0.20207362 0.32707068 -0.14265819 -0.1286802 0.050865836 0.004394233 0.06405422 0.19135715
-0.095122136 0.18398568 0.0549093 0.06486582 -0.14040594 -0.04020867 0.062079087 -0.091199614
-0.13153747 0.14946295 0.07420269 0.019627623 0.02814471 0.052648753 -0.07787043 0.17540592
-0.06881515 0.11181131 0.022656457 0.05086175 0.21039654 0.02311995 -0.15735534 -0.22813831
-0.37697753 0.00148408 0.12808408 -0.13011913 -0.13447331 -0.031740796 0.050636586 -0.20577677
0.17773104 0.034025043 0.008128207 0.2572304 0.2710826 -0.08031701 0.089738764 0.51449335
-0.30072844 0.047340352 -0.11174605 0.13141957 0.043176983 -0.02207561 0.2647701 0.03067557
-0.21686706 -0.26619443 -0.05016626 -0.10494795 -0.39713222 0.12610577 -0.03921863 0.041955736
0.01736063 -0.055344377 0.112830214 0.0382701 0.075033955 -0.13537407 0.023912514 -0.04092949
-0.0057953107 0.05260446 -0.10509383 -0.07129046 -0.056851186 0.093596615 0.042012375 0.051284824
-0.15385139 -0.05338624 0.09557532 0.12300334 -0.33900696 -0.1471068 0.2361308 -0.116857514
0.26658326 0.118383676 -0.090528965 0.11950622 -0.09861959 -0.20263533 -0.20711476 0.12189924
-0.0021327005 0.040755745 -0.17008424 -0.019414077 0.002084084 0.03216435 0.124033146 0.059336714
0.17040737 0.04842113 -0.018184017 -0.62682015 -0.104499176 -0.22110806 -0.18873645 0.09824127
-0.07202007 0.085091025 -0.08974861 0.08817427 -0.20759135 0.061242364 -0.03737139 -0.032794587
0.07888177 -0.033915296 -0.039950795 -0.023955584 0.31352243 -0.19570903 0.07425793 -0.12121757

layers.1.0.bias f4 [256]
00000000: 90f5 f13c 3f62 e73d 66ab 763c 8eda 00bd
00000010: 3c49 83bd 8e39 253b 9a81 b63b 34e0 e63d
00000020: 0f85 aabd 952d 46bd 2bde 3bbd 7ee8 a9bd
00000030: 4316 b7bc f8b3 b0bd 291c e93c 2b75 c1bd
00000040: 9242 4dbd 96d0 88ba 8765 a9bd 110f e5bd
00000050: f618 6e3d d41e dd3d 6ffe b23d 28cb 093d
00000060: 2d4a b2bd 392e cfbd cbe8 1abe efb1 0a3c
00000070: d225 31bd bb30 6f3d c172 8f3d 1629 6d3c
00000080: 52cb 5c3d 381d 1f3d 161b 713d 1e2f 0cbd
00000090: ab86 133e 2292 193d 19ac 35bc 134e 83bd
000000a0: 61e6 babd 50a5 1bbe d3db 79bd c47c c63d
000000b0: 06a1 3c3c ae58 203d a4ed 8d3c e450 c5bd
000000c0: 0103 17bd 6835 bd3c 1ef5 673c 26d0 00b9
000000d0: 63ba fc3d 19bc e2bd a4ae f6bc 48af c53c
000000e0: 21d9 6abd 8120 ba3b d2ee 033e c91c 703d
000000f0: c237 013e e9f1 b1bc 07d3 56bd f588 a0bd
00000100: 2463 7fbb 427a 56be 6b2a 07be cc77 ab3c
00000110: 7e5d a3bd 6bd7 24bd c89b 0cbd 8c7a 0a3d
00000120: a67f ba3c 852d 01bd 783e 1ebd 4eea 7c3c
00000130: 870b 623d 7ed5 b1bd 3b22 60be b7c2 a93d
00000140: 399e dabd 6b23 97bd 22ad 95bd 3718 29bd
00000150: bb06 3f3c 13d7 9f3d dcc1 963d d369 c53a
00000160: 26dd bbbd 132b 283d 9e2a 8f3d 3b5c 523d
00000170: 40f2 16bc fc64 15bc 2e78 23bd e1a6 333d
00000180: 49e6 77bd 62ff 793d dda3 29be 48e0 3dbd
00000190: 4c03 e3bc ef1c 8dbc 5ba3 e0bd c35d 3ebd
000001a0: a547 7cbc 62e1 d43d 1d0d 923d 7ed2 133e
000001b0: 2ad8 8a3d b591 b03d 3f43 ac3d b509 d03d
000001c0: 228b 003e 96fc 9e3d 7edb c3bd e561 7b3c
000001d0: 7a3c 5cbe a050 08bd 68de 6a3d 2c44 6dbe
000001e0: 916c d83b 5aec e4bd b2dd acbc 8eca fd3c
000001f0: 1d01 c3bd 14a7 e93c d8f3 6a3c bc26 39bd
00000200: 5b1a 0d3c ca9f f3bd 0bca c3bc a048 f5bd
00000210: d23a 973d 7d6c 61bd bc93 27bd d0ea 813d
00000220: c2d9 183d 9524 bbbd 21fc 8abc 2b1a b93d
00000230: f45e 68bd 5c4a 1dbe 5c93 233d 464c 2a3c
00000240: 0f1e a43c 3d0a 7d3d a7aa 913d fc4e 243d
00000250: bfe2 2e3d 42b1 dfbd 7d71 52bd e729 08be
00000260: 5f1e b43d bef0 c83b 45d1 7e3d 6276 513c
00000270: 8f93 5e3d 0586 37bd 4073 babc d096 8abd
00000280: eea3 ffbc d409 50bd ef54 81bc dea8 e53d
00000290: 14be 9f3d 28f5 11bc ad89 ac3d 104e 9ebd
000002a0: b162 973d 5814 9b3d 3242 a2bd 4135 863d
000002b0: b28d 01be 4c28 05bd 34f0 a63d 2cad 65bd
000002c0: 3519 ce3d db78 653b de27 b13c 25b9 163e
000002d0: e968 d8bd 3524 2b3d c8b2 8dbc 5500 cc3d
000002e0: 2d49 743d 01e0 f9bc 7328 f53c fb8b 96bd
000002f0: d28e 3dbd b3c6 19bd 7bfc 14be 9504 04be
00000300: cb08 b93c 016c 773d 28df ffbc aa98 0dbe
00000310: 1ad2 983d 6ef9 01bd 9686 94bc 866c 293d
00000320: db4f 15bd b5f4 e3bd 5c2d 99bc a484 9d3d
00000330: 6c8c ba3c 722d 633d 31f7 4abd 237c 4ebd
00000340: 7141 97bc ab62 8d3b 6b70 a53d 65fa c83c
00000350: 77ff 943d d11d f23c caf0 98bd e632 433d
00000360: 8abf debc 249a 913d a359 74bd 906c c5bd
00000370: e3c7 293d d599 873d 9825 8d3c b44b 943d
00000380: 1efa 0fbd 80ea 09be cad2 babd bd34 b43c
00000390: 3693 cfbd f11a 7dbc c062 443d f44c 56bc
000003a0: f8ba 05bd 72ec 4bbd 7006 93bd 2edf 883d
000003b0: 554f 863a f006 80bc 025d 37bc 87a7 cbbd
000003c0: b5fe bfbc cd13 5b3d 22bd 7ebd 039d 633d
000003d0: e02f fa3d f07e bebd e7ed 2dbe 5a6a bfbc
000003e0: 1cd5 3abd 2938 7ebc f5ae 1b3d bba0 85bc
000003f0: b553 75bd b2d9 e0bd 997e 14be 0899 2bbd
0.029536039 0.11298036 0.015055513 -0.03145843 -0.06410453 0.0025211307 0.005569649 0.11273232
-0.0832616 -0.048383314 -0.045866173 -0.082962975 -0.022349482 -0.08628076 0.02845581 -0.09446176
-0.050112315 -0.001043814 -0.08271318 -0.11184514 0.058129273 0.107968956 0.087399356 0.03364101
-0.08705554 -0.10116238 -0.15127866 0.008465274 -0.04324896 0.058396082 0.070043094 0.014475128
0.05390484 0.038846225 0.05886372 -0.034224622 0.1440684 0.03749288 -0.011088395 -0.06411376
-0.091259725 -0.1519978 -0.061000656 0.09691766 0.011513 0.03914707 0.01732523 -0.09634569
-0.0368681 0.023096755 0.014157562 -0.00012284573 0.12340238 -0.11071033 -0.030112572 0.024131432
-0.057335977 0.0056801443 0.12884071 0.0586212 0.12618926 -0.021721797 -0.052447345 -0.078386225
-0.0038969005 -0.20945075 -0.13199775 0.020931147 -0.079768166 -0.0402445 -0.034328252 0.033808276
0.022765946 -0.03153755 -0.038633794 0.015436722 0.055186775 -0.086832985 -0.21888058 0.08289092
-0.1067471 -0.07379802 -0.07308413 -0.04128286 0.0116593195 0.07804694 0.073611945 0.0015061445
-0.0917304 0.041056704 0.069905505 0.05135749 -0.00921303 -0.009118315 -0.039909534 0.04386032
-0.06052235 0.061034568 -0.16566415 -0.04635647 -0.027711533 -0.01722571 -0.109686576 -0.046476137
-0.015397941 0.10394551 0.071314074 0.14435765 0.06779511 0.086215414 0.08411264 0.101581015
0.12553075 0.07763021 -0.09563349 0.015343164 -0.21507445 -0.033280015 0.05734101 -0.23170537
0.006604739 -0.11177893 -0.021101806 0.030980375 -0.09521697 0.028522052 0.014340363 -0.045202956
0.008612241 -0.11895712 -0.023900053 -0.11976743 0.07384266 -0.055035103 -0.040912375 0.06343615
0.037317045 -0.09137837 -0.016965928 0.09038194 -0.05673118 -0.15360397 0.039935455 0.010394162
0.020033864 0.061777342 0.071126275 0.040114388 0.04269671 -0.10922481 -0.051377762 -0.13297234
0.08794855 0.0061322143 0.062211294 0.012784572 0.05433994 -0.044805545 -0.022760034 -0.067670465
-0.031206097 -0.050790623 -0.01578757 0.112138495 0.077999264 -0.008908547 0.08424697 -0.07729733
0.07391871 0.0757224 -0.07922782 0.06553126 -0.12651709 -0.032509133 0.08151284 -0.056073353
0.100634016 0.0035014662 0.021625455 0.14719065 -0.10566885 0.041782577 -0.017297164 0.09961001
0.0596401 -0.030502321 0.029926514 -0.07350918 -0.046278782 -0.03754301 -0.14549439 -0.12892373
0.0225872 0.060405735 -0.031234339 -0.13827768 0.07461949 -0.031732015 -0.018130582 0.04136326
-0.03645311 -0.111306585 -0.018698387 0.07691315 0.022772036 0.055463262 -0.049552146 -0.050411355
-0.018463822 0.0043147407 0.08078083 0.02453346 0.072752886 0.029555233 -0.07467802 0.047655962
-0.027190942 0.07109478 -0.059655797 -0.09639847 0.041450392 0.06621138 0.01722984 0.07241002
-0.03515064 -0.13468361 -0.09122236 0.021997804 -0.101355 -0.015448318 0.047945738 -0.0130798705
-0.03264901 -0.04978604 -0.07178962 0.06683193 0.0010247031 -0.015628308 -0.011191608 -0.09944063
-0.023436883 0.05348568 -0.06219209 0.05556966 0.12216163 -0.09301555 -0.16985284 -0.023366142
-0.045613393 -0.015516319 0.03800865 -0.016311994 -0.059894282 -0.10979022 -0.14501418 -0.04189399

layers.2.0.weight f4 [128, 256]
00000000: 0b4a aabd 1490 52bc 1cb1 733d 270a 543e
00000010: 75c3 94be 0c14 b2bc 5b20 de3d ca32 0ebe
00000020: b300 f4be 07ad a03d fcc8 23be 44c8 c9bd
00000030: 4462 8d3d 3f40 e5bc 4f7b 65be 9211 57bd
00000040: abf6 c4bd bb3a 27be cc05 ddbd f696 e1be
00000050: 72b1 983d 4ec6 72bd c1b0 d73e 19c6 743e
00000060: a639 8dbb 8155 f9be ad40 8bbd d962 fdbd
00000070: 5fdb 1c3e c82e 033c 4372 acbd 35d6 fb3d
00000080: d551 733e fe2e 453e 76d5 02bf 3371 963d
00000090: 245c 483d e64a 1e3e 7db1 9dbd 0acb 02be
000000a0: 8f35 973e 513d 95be e9c3 91be 4c5d 063e
000000b0: f647 2f3f 8cb6 dcbd 016c bd3d f89d 293d
000000c0: bedd 8dbe 80c3 703c 7559 1bbf 7f54 7ebd
000000d0: 3295 04bd 454f d6bc 4e25 f43c f05f 1bbe
000000e0: 12b8 d93d 1e4c 6e3d f375 9bbd e200 723d
000000f0: aace 53be 6c1c 323e 2da7 d83d 4379 3e3d
00000100: 0b84 71bd 9cca 043e e361 03bd ac89 a2bd
00000110: c8be 943e 381e c73d ccb8 77bd cc1d dfbd
00000120: e4c6 f83d 0d06 823e 5592 a4bc 7a97 5a3d
00000130: 43c3 9cbb 3997 503d bf17 bfbe 169c 783d
00000140: 28ac b8bc 3b31 a3bd 844a 86bf ba94 8cbd
00000150: 3bab d1bd 5928 893e 91c4 b4bd e181 2b3e
00000160: 16d4 0bbd 56b1 573d 9b39 f6bc 5900 4bbe
00000170: 51fe 69bd ba03 423e 8af2 8cbe d0e0 04bd
00000180: bf48 1b3d e950 863e 393a 75be 91e5 24be
00000190: 7a4c 6ebd f143 563e 6d95 18bf 0e93 e2bc
000001a0: 04bf 08bb b75c 60be 25a0 7fbd fd60 f33d
000001b0: 715f 973d 9b03 ef3c a24b 893d 8338 163b
000001c0: 74b9 233d 65c9 40be 587f adbb 573c a2bc
000001d0: 5e45 c6bf 9a85 45be d6bb f9bc fcd4 1cbe
000001e0: 20b2 c3bd 027d 4b3d bd84 a7bd f954 4ebd
000001f0: 2aab fc3e 85f1 18bd 1b8a d43d 5d73 303e
00000200: 90b0 153e 332d 26bf 5fc1 1dbe bb28 d7be
00000210: 27c5 98bb eab3 15be 827c 62bc 6815 fe3d
00000220: 64ea 3a3d 2705 5abc d7b4 e53b 3b5b cdbd
00000230: 384a 5a3c 7266 84bf 9597 8dbd b5c8 6bbe
00000240: ce4d c139 57b4 97bd 8f19 4e3d 750a 9fbd
00000250: d54f 903c 7a57 1cbd 4fc5 05be df18 bfbe
00000260: a058 50be 5d8d a3bd 3527 8abb 5300 013e
00000270: 4103 8b3d cd7e abbe add0 e93d dd96 043e
00000280: cc87 31be 55a0 923e 37d0 f4bb 209b 37bd
00000290: b9e0 5cbd d3a8 23bd 6f69 8dbe 70d0 993c
000002a0: d560 953d 1b09 b2bd bc34 bcbc 92e5 073e
000002b0: 78b3 5f3e ff64 073e 41cd 5dbd 6820 90bd
000002c0: 713c 8f3e 3d8f 023c 51e5 9cbd e956 2b3d
000002d0: c669 093f b13b 3ebe 501c a3bb d3cb 7c3d
000002e0: 7ace d63d 15d7 cfbb 3acd 2cbd 2807 3d3d
000002f0: e8e9 7abb a581 d0bd 6823 123e 9edc c53e
00000300: fcfa efbc 6135 823d 5009 933d 3136 3dbe
00000310: 47cc 4f3e 45e5 14be be66 823e 7ac5 a83d
00000320: 4fe4 e8be 4096 93bc a1f2 2abe 4749 973e
00000330: 5f0f 753d 2931 11be a46f 08be 6eeb aebd
00000340: 82c0 6d3d 4e2f 15bd 012c 2f3c c283 a5bd
00000350: 5cd4 593e 8fba fc3b 7359 2a3e 5d4a 3c3e
00000360: 75f7 48bd 9430 3f3e fd5a cc3c 3154 0a3e
00000370: 28d2 733e f3a2 82bb e59e 323d 25bb 563e
00000380: f973 acbb 902d a4bd c366 36be c1bc 27be
00000390: 632d d0be 20aa bb3d b15b 80bd 12bd 47bd
000003a0: ed92 a43d 8b53 0ebd 05d5 c9be 55b3 103e
000003b0: 7e3c a2bc 0180 25bc 20f6 fe3d 5adf 24bc
000003c0: ffd2 123b 3c28 333e 239f 00bd 2f00 5d3d
000003d0: 05a4 623d 1ff9 4ebe c271 52bf 948b 143e
000003e0: 2a58 f43c 10d0 71bd 817b 7a3d 80da 61be
000003f0: a82a 0b3d 2776 febe 4c2f ef3e 524c 57bd
-0.08314904 -0.012851734 0.059495077 0.20706998 -0.29055372 -0.021738075 0.10846015 -0.13886562
-0.47656783 0.07845502 -0.15994638 -0.09852651 0.06903508 -0.027984736 -0.2241032 -0.05250699
-0.09617361 -0.16330998 -0.10792121 -0.44060487 0.0745572 -0.05927115 0.4212704 0.23903693
-0.0043098507 -0.48698047 -0.06799445 -0.12372369 0.15318058 0.008006759 -0.08420231 0.12296716
0.23761685 0.19256207 -0.51106966 0.0734581 0.048915997 0.15458259 -0.07699869 -0.12772766
0.2953305 -0.29148343 -0.2846978 0.13121527 0.6846918 -0.107770056 0.09249116 0.041410416
-0.27708238 0.014695048 -0.60683376 -0.0620923 -0.032368846 -0.026160846 0.029802945 -0.15173316
0.10630812 0.05817806 -0.075908564 0.059082873 -0.20684305 0.17393655 0.10578761 0.046502363
-0.058963817 0.12967914 -0.032075774 -0.07936415 0.29051805 0.09722561 -0.06047897 -0.10894355
0.121473104 0.2539524 -0.020089308 0.053367116 -0.004784019 0.050925467 -0.37322804 0.06069573
-0.022543028 -0.07968374 -1.049149 -0.06864305 -0.10237738 0.26788595 -0.088265546 0.16748764
-0.034137808 0.052659355 -0.030056765 -0.19824351 -0.0571273 0.18946734 -0.27528793 -0.03244096
0.037911173 0.26233605 -0.23947991 -0.16103198 -0.058178402 0.20924355 -0.59603006 -0.027658012
-0.0020865807 -0.21910368 -0.062408585 0.118837334 0.07391251 0.029176524 0.06703879 0.0022921867
0.039971784 -0.18826826 -0.0052947216 -0.019804163 -1.5489919 -0.19289246 -0.030485075 -0.15315622
-0.09555459 0.049679764 -0.08179615 -0.050374005 0.49349338 -0.037339706 0.10377904 0.17231508
0.14618134 -0.6491272 -0.15405796 -0.42023262 -0.0046621743 -0.14619413 -0.01382363 0.12406427
0.04563369 -0.0133068925 0.007010083 -0.100271665 0.013323359 -1.0343764 -0.069136776 -0.23025782
0.00036869798 -0.07407444 0.050317343 -0.077656664 0.017616192 -0.03816936 -0.13063549 -0.37323663
-0.20346308 -0.07985947 -0.0042160996 0.1259778 0.0678773 -0.3349518 0.11416755 0.12948175
-0.17336959 0.2863795 -0.00747111 -0.044825673 -0.05392525 -0.039955925 -0.27619502 0.018776149
0.0729386 -0.08693143 -0.022974364 0.13271168 0.21845806 0.1322212 -0.054150824 -0.07037431
0.279758 0.007968721 -0.07660926 0.04183093 0.5367702 -0.18577458 -0.0049777403 0.06171782
0.10488601 -0.0063427784 -0.042187907 0.046149403 -0.0038286392 -0.10180978 0.14271319 0.3864488
-0.029294483 0.063578375 0.071795106 -0.18477704 0.2029277 -0.14540584 0.2546901 0.08240791
-0.45486686 -0.01801598 -0.16694118 0.29548094 0.059829112 -0.1417891 -0.13323838 -0.085409984
0.058044918 -0.036422066 0.010691644 -0.080817714 0.21272415 0.007712669 0.16635685 0.18387742
-0.04906412 0.18670875 0.02494573 0.13508679 0.23810637 -0.00398671 0.043608565 0.20969827
-0.0052628485 -0.08016503 -0.17812638 -0.16380598 -0.40659627 0.09163308 -0.06267489 -0.048764296
0.08035836 -0.03474764 -0.39420334 0.1413091 -0.019804236 -0.010101319 0.12449288 -0.010063017
0.0022403596 0.17495817 -0.031401765 0.053955253 0.055332202 -0.2021222 -0.8220483 0.1450637
0.029827196 -0.059036314 0.06115294 -0.22056007 0.033976227 -0.49699518 0.46715772 -0.05256302

layers.2.0.bias f4 [128]
00000000: 07cd 2a3e c654 013e 1279 bbbd 81f5 f83b
00000010: edda cb3d 4983 a53c c4d7 32bd 067c 94bd
00000020: 49cf b03c bc0a fa3c 58a4 1e3e 94b4 a0bc
00000030: 2c00 2d3e dd7d 6dbd 0cdf 983d 5377 9a3d
00000040: 9c90 0dbc 2977 13bc ed35 813d fea6 57bc
00000050: dfb4 e2bb 6a05 00be 39c8 b1bd 8b8f 93bd
00000060: ba51 84bc da61 92bd 61e5 bcbd 8206 6abd
00000070: bc8c e13d 2f6f 01bd d2c2 5f3c 6af5 9b3d
00000080: 925e 77bc c23c efbc 8ebd 1a3d dbaf 85bd
00000090: ef3b b8bd a8db 81bd 008e 6a3d ee26 573d
000000a0: 5035 d9bc cac5 133d 4e63 0e3e 1a1e 173e
000000b0: 9bc4 bfbd a95d 953d 917a 0c3e 18ea a53c
000000c0: 4d2d 97bc 5abc aabd 1d63 223e f40b f5bc
000000d0: f851 39bc ec86 383d a0d6 323b a110 c1bc
000000e0: c0e3 723d 299b b43b d036 f83c 67b1 93bd
000000f0: b18f ddbd 63e8 9d3d de3f 943b 8c44 e03d
00000100: 785f ecbd f95b 8dbc bec5 6fbd c472 3bbc
00000110: ba44 3abe 69ce 06bc 85ee cbbd 8918 ccbd
00000120: 449a 853d 691f 81bd 2ff1 debc cbb4 8dbc
00000130: fed1 b63d c803 753d 93cc bb3d 53dd 8cbd
00000140: cc2d f63c 1ad8 4dbb caa3 a6bd 3362 9e3d
00000150: 91e8 b43d 86f8 7a3b 1df2 bbbd 2efb 9a3d
00000160: 70bc 4f3d 55ba 983c 90e3 753d e246 09be
00000170: cd02 b9bd 0205 883d 5a5b 1bbd bacc 8c3d
00000180: 8406 abbd 5b4b 283e 9e7e c73c 8397 56bd
00000190: 6de6 e83c b085 013d 3744 af3c c385 7ebd
000001a0: fe98 ecbd 6e13 de3d 306c d53c 42d8 f3bc
000001b0: 43ef a73d 23f4 84bd bbae f6bd 6b68 33bd
000001c0: ffce 18bc 044b 613c ffbe 473d 332a 72bd
000001d0: c44e 1dbd b703 f6bd ca26 19bc 4024 ddbb
000001e0: a9a9 9e3b 7538 893c 34d9 a2bc a0be a6ba
000001f0: 587a 26bd eb37 a33d c644 9f3d ff8c 81bd
0.16679774 0.12629995 -0.09153952 0.0075976257 0.09953866 0.020204203 -0.0436628 -0.07250218
0.021583216 0.030522697 0.1549238 -0.019617356 0.16894597 -0.05798136 0.07464418 0.075422905
-0.008640435 -0.009000578 0.06309114 -0.013162373 -0.006918534 -0.12502065 -0.086807676 -0.07205113
-0.016152252 -0.0714757 -0.09223438 -0.057135113 0.11013171 -0.031600174 0.013657289 0.076151684
-0.015098231 -0.029203776 0.03777843 -0.065276824 -0.089958064 -0.06340724 0.057264328 0.05252736
-0.02651468 0.0360773 0.13905069 0.14757577 -0.093636714 0.07293255 0.1371863 0.020253226
-0.018454218 -0.083367065 0.15858121 -0.029912926 -0.011311047 0.045050547 0.002728857 -0.0235675
0.05929923 0.0055116606 0.030299574 -0.07211571 -0.108184226 0.0771034 0.004524215 0.10950574
-0.11541647 -0.01725577 -0.05853819 -0.0114409365 -0.1819028 -0.008227923 -0.09957603 -0.09965617
0.065235645 -0.06304819 -0.027214615 -0.017298123 0.089267716 0.05981806 0.09169879 -0.06878152
0.030051135 -0.0031409324 -0.08136709 0.07733574 0.08833421 0.0038295104 -0.09177039 0.0756744
0.050716817 0.018643538 0.060031474 -0.13405946 -0.09033737 0.0664158 -0.037928917 0.06874986
-0.08350852 0.16434996 0.024352368 -0.052390587 0.028430188 0.031621635 0.021394832 -0.062139284
-0.115526184 0.1084355 0.026052564 -0.029766206 0.081999324 -0.06491878 -0.12045046 -0.043800753
-0.009326695 0.013750795 0.048766132 -0.059122276 -0.038405195 -0.12012427 -0.009347627 -0.006748706
0.0048420024 0.016750554 -0.019878961 -0.0012721606 -0.04064402 0.0796965 0.07776789 -0.06325721

ik_task.weight f4 [1, 128]
00000000: 6f3c ad3e 5367 0c3f e5e4 0abe 593f e03c
00000010: f496 12bc d0eb 8fbe 3fdf 9f3d 4a64 863d
00000020: 4f4d 38bf 1b82 c4be 84c4 adbe 8af6 92bd
00000030: 5155 893d e7e8 843d 423a 05bf db16 4e3e
00000040: f9c7 783e 23b0 153d 4ff8 20be 69bb 203f
00000050: bda7 0dbe 6df9 29bf 2f43 233e cd9b 9e3d
00000060: 2100 74bf cef0 633e 372f d93d 1de2 47bf
00000070: 48f9 9d3a c107 913c 33d2 cc3d d4cd 463e
00000080: eb17 a9be 2a96 2a3f 63c9 8a3d 99c6 203d
00000090: ec76 0abd 9ff0 e3bc a11c 4ebf f062 27bd
000000a0: ca46 c7bb 0136 2f3f b80e 3cbf 42b7 ec3e
000000b0: 0032 203d ccce 1c3f d62e 9e3e 8664 5f3e
000000c0: d106 c43e 3053 7a3d b856 6e3e 28e2 e43c
000000d0: 71b6 58be 7256 543d 30f9 d0bf 76cd 5c3d
000000e0: e1e9 673f 1b2b f93d ad0f 1a3f b552 913d
000000f0: a7fb 57be d66d 613f 54c1 993d b60f 6c3c
00000100: 7c14 5c3f bc12 2cbf 7121 47bc c42f d1bf
00000110: 6249 273e b007 3f3d 1aad 21be feca e1bc
00000120: cf12 64be f090 cf3b b0f5 8a3f b9c1 aabd
00000130: 223a b4bf 92fd 22be 257e 353f 31ec d5bd
00000140: 08a6 233d c9ff 17be 2cb5 9fbe 3ec5 183e
00000150: 4dee 533e e373 bebc 6d49 37be 534c d03e
00000160: 93e6 36bf 0796 bdbe 54a6 babe 4d08 94be
00000170: 9809 c0be f328 06bd 7926 5ebe bec0 3cbe
00000180: 8cd4 b9bc 42c9 943f e771 aebb 838d 463d
00000190: 9719 b4be ea7d 263f 66ac 58bf 64cf 12bf
000001a0: ecce 97bd da40 223f 3ac6 0fbf 4a6e e63c
000001b0: 5bff 4ebe d544 623d b7c7 d73e 19d4 6e3e
000001c0: ea29 173f 87ca 1fbf 5236 693d f557 033e
000001d0: a802 a83d 715a a9bf d1cb 823d 5480 203f
000001e0: 31f2 783e 921f 6c3f 5592 a2be 38a9 ae3d
000001f0: 95b6 b8bb e648 ff3e 1663 a33e ea40 2ebc
0.3383517 0.5484516 -0.13563879 0.027373957 -0.008947123 -0.28109598 0.07806253 0.06562097
-0.71992964 -0.38380513 -0.33938992 -0.0717593 0.06705726 0.06489735 -0.5204202 0.20125906
0.24295034 0.03654493 -0.15719722 0.62785965 -0.13833518 -0.6639622 0.15943597 0.077445604
-0.95312697 0.22259828 0.10604709 -0.78079396 0.0012052441 0.017703893 0.1000103 0.19414455
-0.3302606 0.6663538 0.06776693 0.039251897 -0.03380482 -0.027824698 -0.80512434 -0.04086584
-0.0060814368 0.6844178 -0.7345996 0.46233565 0.039110184 0.61253047 0.30895108 0.2181569
0.3828645 0.06111449 0.23275268 0.027939871 -0.21163346 0.051840253 -1.6326046 0.05390688
0.90591246 0.12166425 0.6018017 0.07095853 -0.21092092 0.8805822 0.075075775 0.014408043
0.85968757 -0.67216086 -0.012153969 -1.6342702 0.16336587 0.04663819 -0.1578869 -0.027562615
-0.222728 0.0063344166 1.0856228 -0.08337731 -1.4080241 -0.15917042 0.70895606 -0.104454406
0.03995326 -0.14843668 -0.3119291 0.14918992 0.20696373 -0.023248618 -0.17899103 0.4068323
-0.7144558 -0.37028524 -0.36455023 -0.28912583 -0.3750732 -0.032753896 -0.21694364 -0.184329
-0.022684358 1.1623919 -0.005323637 0.0484748 -0.35175774 0.6503588 -0.8463806 -0.573477
-0.07412514 0.63380206 -0.56161845 0.028128762 -0.20214598 0.055241425 0.42144558 0.23323096
0.5904833 -0.6241841 0.05693657 0.12826522 0.08203632 -1.3230726 0.06386531 0.62695813
0.24311139 0.9223567 -0.31752267 0.0852837 -0.005637 0.49860305 0.31911534 -0.010635594

dist_task.0.weight f4 [128, 129]
00000000: 4b3d c73d aad9 673a 3acd 91bd 0155 4dbc
00000010: be78 6fbd 1e4a f7bc 0ef7 14bd cb8b 31bd
00000020: 72a5 013e d399 bebc 165e 3dbe 08b4 943d
00000030: f3a4 8bbe 24eb cd3c 2af3 563d 9c24 b8bd
00000040: d600 4b3e 1be4 6a3d ab89 41be a35c 35be
00000050: 130a f83e e046 d7bd 6178 9c3c a6cb 46bd
00000060: ced4 843e cc6b a13c 7656 65bd 9e74 473e
00000070: a35a 073e db75 c3bd 9525 78be 26e8 8b3d
00000080: d30e d93d 8385 53be fd7a 11be 4710 26be
00000090: 46a9 9abd c541 c1be 9300 8ebd 3a96 e4bd
000000a0: 1de9 81bd f788 bdbd 8fda 963c c7db e93d
000000b0: 88a1 ad3d a273 26be a472 3b3d 35ee ad3d
000000c0: 99bf 42be e85f b1bd 3ddf 353e ceb4 2cbb
000000d0: 385e 12be 50c0 92bc 829b cfbe d32d 85bc
000000e0: ee6f 553e 0ff6 4dbe 53dd 8ebc 2216 773d
000000f0: 3eae 9d3d 976b 86bd 0465 1a3d 2e72 253e
00000100: 3918 a03d e4d7 733d a966 12bd 938d a8be
00000110: cfd9 903e d9aa a13d d49d 063d b8e2 86be
00000120: 8810 f23d 6e2b a8bd 0fe8 f8bd 26cc 973c
00000130: b3dd eabd 8439 24bd dcbc f63d 4be6 e0bd
00000140: 6641 ad3e 94cf 9abe d7e5 b33d 341e 2e3d
00000150: 8051 153e b2f5 623d 84d6 273e 809c f5bd
00000160: 1167 503f 1a05 bcbd 571d 74be 0c5a 38be
00000170: 5134 bf3c ac76 10be a908 623d 4067 513e
00000180: 98f9 df3d 8214 363e fdfc c6be 0937 823d
00000190: 34ae 063e 2437 163e 36cb 9d3e e101 b43e
000001a0: 1803 233e dfb3 e53d 84e3 84be 51ac e7bd
000001b0: b832 273e ac9d 1d3d 1ce2 293d 07f0 cabd
000001c0: 35c1 e6bd f899 133e e953 a13e ae6c 193e
000001d0: 91f8 96bd 2712 f3bd b0c7 3ebd be80 88be
000001e0: 4e99 00be 18bc cc3c aec4 5bbd f8f1 8fbd
000001f0: fa37 0b3d 4ea8 5fbd f7f2 59be 9670 443d
00000200: 481e 0940 0f6d 69bc 19c7 f6bd 99b2 c83e
00000210: 199d 6c3c 5c86 52be 63e0 9c3d cc8a 283c
00000220: aa96 b13d a1f4 4d3e e87f 10be b7e4 3cbe
00000230: beb1 a2bd 82b6 77be ba92 8a3b 0016 a03d
00000240: de6d 173e 4f5e 0d3e e2b1 7e3d a22f abbd
00000250: ab46 f73c b835 aa3e e20c 1c3b 89ec 63bd
00000260: 8fe7 e9bc 8192 7f3e cecd 20bd d557 ac3e
00000270: 3605 1ebf 24e0 26bc 6c45 073e eb86 303e
00000280: 0cab 993c 8448 b73d a5d8 753e 8078 86be
00000290: 029c ab3e 6af7 cc3e fecf c3be 3c7c a5bd
000002a0: c0dd 3a3f e1f3 17bb 77d3 253e 57d4 17be
000002b0: 03e6 aa3e 4da7 153e b700 273e 143c 90bd
000002c0: 4f4c 843e 00e6 54bd 0012 1dba cc66 c1bd
000002d0: 6cc3 36bd e2f9 873d 9140 9c3d 9cea 46be
000002e0: 2aa1 1bbc 959b ab3d ade5 7d3e 82db 803e
000002f0: 6a92 4f3d d426 17bf 6e6b 05be 60ad 6b3c
00000300: 3a33 2a3e 0b8b 79bd 5d98 11be c432 793e
00000310: 5ed3 58be 103b 00be af8c 0abc 553d d6bd
00000320: a0ff 453c dbcf 0cbe d274 f53c d68a 923c
00000330: ba63 8b3d 2e4f 583e 8c9d ed3d 79f9 293e
00000340: 9ccc 273e 493b 45be d34a 7d3d 316a b2be
00000350: 455d b43e 9426 a0bd b1e4 89bd ca8c f83d
00000360: 7f31 34be 2eb7 7fbe 9c4e 0a3e b733 903e
00000370: 93a3 4b3b 432b 9dbe 648e e33d 8213 263e
00000380: 7fba be3c 65a1 04bf 4ed7 28be e593 1bbe
00000390: bce6 fb3b 7585 34be 1338 353e 55c2 e53e
000003a0: 8f8d f3bd 9963 01bd f3fe 963e d7f3 43bf
000003b0: 2ffb 93bc 12c1 d5bd 5263 a4bd 5c3e 1ebe
000003c0: ddff 503d 753d 22be a728 9f3e 82cc 5e3e
000003d0: c095 b6bd 088b 54bd 99f4 aabe 9573 c1bc
000003e0: 9045 343e 674d b83e c2ac 4bbe 64ca 663c
000003f0: b2e2 3abf de9d cb3b f394 f6bc 70c5 e2bd
0.097284876 0.0008844385 -0.07119222 -0.012532474 -0.058464758 -0.030186709 -0.036368422 -0.043346208
0.12660769 -0.023266708 -0.18492922 0.07260901 -0.27274284 0.025136538 0.052477993 -0.08991358
0.19824538 0.057346445 -0.18900172 -0.1771112 0.48445186 -0.10511565 0.01910037 -0.048534058
0.25943607 0.019704722 -0.05599066 0.1947808 0.13218169 -0.095439635 -0.24233086 0.06831388
0.105985306 -0.206564 -0.14207073 -0.16217147 -0.075518176 -0.3774549 -0.06933703 -0.11161466
-0.06343291 -0.092546396 0.018414764 0.11418872 0.08478075 -0.16255048 0.045763627 0.084927
-0.19018401 -0.08660871 0.1776094 -0.0026352885 -0.14293754 -0.017913967 -0.4054833 -0.016257202
0.20843479 -0.20113395 -0.01743952 0.060323842 0.0769925 -0.0656349 0.037693992 0.16156837
0.0781712 0.05953206 -0.035742436 -0.32920513 0.28291175 0.07893915 0.03286536 -0.26344848
0.11819559 -0.082114086 -0.12153637 0.018529963 -0.11468067 -0.040093914 0.12047741 -0.10981425
0.33838958 -0.30236495 0.08784073 0.042509273 0.14581871 0.055410095 0.16390425 -0.11992741
0.81407267 -0.091806605 -0.23839317 -0.180031 0.023340376 -0.1410777 0.05518404 0.20449543
0.10936278 0.1778126 -0.3886489 0.063581534 0.1315239 0.14669472 0.308191 0.35157683
0.15919149 0.11215948 -0.2595483 -0.113121636 0.16327941 0.038480446 0.0414754 -0.09909063
-0.1126732 0.14414203 0.3150933 0.14982864 -0.07371629 -0.11868697 -0.046577156 -0.26660722
-0.12558481 0.024992034 -0.053654365 -0.07028574 0.03398893 -0.054603867 -0.2128409 0.047958933
2.1424732 -0.014247193 -0.120496936 0.3919876 0.014441752 -0.20559067 0.07659986 0.010286998
0.08671315 0.2011285 -0.14111292 -0.18446623 -0.07944058 -0.24190715 0.004228917 0.07816696
0.14788005 0.13805507 0.06218136 -0.083586946 0.030185064 0.3324411 0.002381139 -0.0556455
-0.028552799 0.2495823 -0.03925877 0.3366076 -0.617267 -0.010185275 0.13210076 0.17238967
0.01875832 0.08949378 0.24008425 -0.2626381 0.33517462 0.40032512 -0.38244623 -0.080803365
0.72994614 -0.0023186135 0.16193949 -0.14827095 0.3337861 0.14614601 0.16308866 -0.07042709
0.2583947 -0.051977158 -0.0005991757 -0.09443435 -0.044619963 0.06639458 0.076295026 -0.19425434
-0.009498874 0.08379284 0.24794646 0.2516747 0.05067674 -0.5904362 -0.13029262 0.014384598
0.16621104 -0.060923617 -0.14218278 0.24335772 -0.2117438 -0.1252253 -0.008456393 -0.10460917
0.0120848715 -0.13751166 0.02996293 0.017888468 0.06806131 0.21123955 0.11602315 0.16599073
0.16386646 -0.19260897 0.061838936 -0.34846643 0.3522741 -0.07819858 -0.067330725 0.121362284
-0.17597006 -0.24972221 0.1350655 0.28164455 0.003107284 -0.3069707 0.11111143 0.16218379
0.023282288 -0.5180877 -0.16488382 -0.15193136 0.007687418 -0.17629035 0.17697172 0.44874826
-0.118922345 -0.031589124 0.29491386 -0.76543945 -0.01806411 -0.10437216 -0.08026756 -0.15453476
0.05102526 -0.15843756 0.31085703 0.21757701 -0.08915281 -0.051890403 -0.33389738 -0.023614684
0.17604661 0.35996553 -0.1989012 0.01408634 -0.7300216 0.0062138876 -0.030100321 -0.110728145

dist_task.0.bias f4 [128]
00000000: 449c 4c3d e0e9 9d3d e137 b2bc 6a95 66bb
00000010: f264 40bc c115 1abd acd6 9cbb 0c89 8a3d
00000020: 37e0 fabc db4a 5cbc 6183 99bd 6853 87bd
00000030: aa07 b4bc 28ee ab3d b5e7 b5bc d29c af3a
00000040: b82e 5c3d 101c 243d 76b3 ecbc 6d61 bd3c
00000050: 0a77 713d b407 22be cf32 333d c457 b93d
00000060: cd5e 293d f669 2a3e c4bd 73bd eb62 983d
00000070: 46ff c2bc 0501 fd3d 4be2 6f3d 9759 5cbb
00000080: 8c55 a73c 6b44 3dbd 8079 c93d 3bb2 963d
00000090: 6402 19bd bf66 fc3d 2cd0 9b3c 5e11 ba3c
000000a0: f98e 4bbd 5786 5f3d e5fb 663c f9a0 bdbd
000000b0: a906 21bc 3645 b3bd 637d 86bc 9f02 bfbd
000000c0: 7321 8bbd ac39 65bd 3aa7 6abd 929a 633d
000000d0: 6e3f c0bd 0733 4b3d 2787 57bd badc 073d
000000e0: 3465 f93d 97e8 afba e866 b4bc 034a a0bd
000000f0: 4d8f bbbd e932 e33d 4d78 3abb 7cd1 79ba
00000100: 0e7a a5bd 902c 5b3b 5474 ad3d dddd 1c3d
00000110: 6fd2 12be ad57 a7bd 706c c13b f817 80bd
00000120: cf41 bbbc 9167 02be 2a33 2cbc fdcd 46ba
00000130: e013 933d 692b a5bd c40e 493d 1f9d 8bbd
00000140: a1b7 1c3e 0928 6dbc 72e2 82bd f518 d63d
00000150: eb8f 94bd 01c8 5bbc ff8b c33d d2aa 603d
00000160: 4462 c03b 5360 323b 12af d33c 8923 d63d
00000170: 335f 0cbc 63ef ec3c bdc5 94bc 8bd3 63bd
00000180: 4ae7 2bbd b757 b93d 6129 803d 3588 a5bb
00000190: f546 20bd e444 1b3c 74c4 36bb 0dca b03d
000001a0: 69b6 4fbd 7af3 2dbd f0f4 dbbc 507b ca3d
000001b0: 307d a83d 780f 3bbd 5601 c1bd 3242 66bd
000001c0: 0594 6dbd 3e27 84bd 96ca d3bd 0914 843b
000001d0: 7574 8dbd 963d 973d 50c7 37bd 265e 1e3c
000001e0: 9701 edbd b61b d43d 224e ef3c 48c6 953d
000001f0: abde 43bd 7f13 e33d 782f e23d 6a71 8b3c
0.049953714 0.07710624 -0.02175516 -0.0035184273 -0.011742817 -0.037618402 -0.004786333 0.06764421
-0.030624492 -0.013445581 -0.07495762 -0.06607705 -0.02197631 0.08395034 -0.022205213 0.0013398177
0.053755492 0.040065825 -0.028894167 0.023117745 0.058951415 -0.15823251 0.043749627 0.09049943
0.041350175 0.16641983 -0.059507146 0.07440742 -0.023803364 0.1235371 0.05856542 -0.0033622736
0.020426534 -0.046207827 0.098376274 0.073582135 -0.037355796 0.12324285 0.019020163 0.02271336
-0.049696896 0.054571476 0.014098142 -0.09259219 -0.009828248 -0.08753435 -0.01641721 -0.09326672
-0.06793489 -0.055963203 -0.057288386 0.05556733 -0.09387098 0.04960921 -0.052619126 0.033169486
0.12177506 -0.0013420758 -0.022021726 -0.078266166 -0.09158192 0.11093695 -0.0028453053 -0.0009529812
-0.08079921 0.003344331 0.084694535 0.038297523 -0.14338087 -0.0817102 0.0059028193 -0.06254572
-0.022858528 -0.1273482 -0.010510245 -0.0007583795 0.07181525 -0.080649205 0.049086347 -0.06817078
0.15304424 -0.014474877 -0.06390847 0.10453979 -0.07254013 -0.013414384 0.095481865 0.054850407
0.005871089 0.0027218058 0.025840316 0.104559965 -0.008567619 0.028922742 -0.018160695 -0.055621665
-0.04196862 0.090499334 0.062578924 -0.0050516375 -0.03913017 0.009476874 -0.0027888091 0.08632288
-0.05071107 -0.042468525 -0.026850194 0.09886801 0.082270026 -0.04566905 -0.09424083 -0.056215473
-0.05800249 -0.06452797 -0.103413746 0.0040307087 -0.06906978 0.073847935 -0.044867814 0.009666001
-0.11572569 0.10356848 0.029212061 0.0731321 -0.047819775 0.11087703 0.1104421 0.017021853

dist_task.2.weight f4 [1, 128]
00000000: 7eb5 2a40 cb64 833f 3c9e 7bc0 b77a 92bd
00000010: 302d 563f e1f8 8f40 4e3f 4bc0 278f 38c0
00000020: 04c5 1abf 7aa3 25bf 8be6 093c fd02 febf
00000030: 64db 2fbf 7f2d 393e 2cd8 c23e 892e 0bc1
00000040: 4830 34bf c34d d93e 58c9 f13e 4754 0d3f
00000050: c234 67bc 1ea3 89c0 4fb2 5dc0 bd83 233f
00000060: 8ec7 3e40 3d2a 3640 5f8c 8dc0 004e f63e
00000070: 5ef6 6d40 c5c2 2f40 555e 8bbf 1c49 653f
00000080: 5c83 903f 3c54 3ebf 6f8b 39bf 4b18 30c0
00000090: 1f90 4ac0 bf85 f9bf 0d58 3cbd 20e3 823f
000000a0: 7302 0b3d 5cdd 56bf 0ad7 893e 64af 0ebc
000000b0: 7d1e 0b40 921f 48bf 7e34 0c40 7bc3 82ba
000000c0: 6938 9041 6635 5cc0 2d26 d53a a6ad 19bf
000000d0: 21db 26bb 37f6 5dbf b6b6 063f f39c cbbb
000000e0: 850e 9740 0cb9 523f d5d2 273e 093b b9bf
000000f0: 9aa2 0041 44a8 4ac0 3677 9e3e 9821 12bd
00000100: 8496 b7bf 2183 eb3e 6280 d23e 2682 30c0
00000110: efe2 2e40 9add 8c3d a486 6740 a7b1 19bf
00000120: ba6c 42c0 d5d1 843f 4e7d 093f 6edc 413f
00000130: 77c7 27bf af98 67bc 0e30 11c0 8db0 36bf
00000140: 9edb 1940 e075 4abf 17c4 1e40 4824 18bf
00000150: 5dd9 a73f 34a8 3dc1 d709 16bf 975d a83e
00000160: 368a 3341 3fdc 46c0 7d9e 633f 162b 13c0
00000170: e05b 5abf dd08 2fbf dc0c cd3f abb1 13bd
00000180: 8010 643f 3146 3abf 764c 28bf 626b 4e40
00000190: 6b2f 5c3f 5b29 8cc0 f50f e2bc 9691 883f
000001a0: c6be 1540 c928 2f40 49d0 0540 47ef 2e3f
000001b0: 3984 22bf 39d3 983e 9d45 ca40 a0ed 2dbf
000001c0: 91d0 45bc 289f 81c0 33cd 6740 fabc 98c0
000001d0: 1cfe 22c0 8b18 9c40 fd65 023f 65b6 cf3e
000001e0: 6c50 aa3c 1b17 2bbf 84c9 27bf 1321 e0be
000001f0: 35bd 173d d5da 42c0 6c8d 453f 57e0 003f
2.6673274 1.0265135 -3.9315329 -0.07152312 0.836627 4.4991307 -3.1757388 -2.8837373
-0.6045687 -0.6470257 0.008416782 -1.9844662 -0.6869414 0.18083762 0.3805555 -8.698861
-0.7038617 0.4244214 0.47223926 0.5520672 -0.0141117 -4.301162 -3.464008 0.6387289
2.9809299 2.846328 -4.423385 0.48106384 3.718162 2.7462628 -1.0888163 0.8956468
1.1290088 -0.7434728 -0.72478384 -2.7514827 -3.1650465 -1.9493941 -0.04598241 1.0225563
0.033937883 -0.8393152 0.26921874 -0.008708809 2.1737359 -0.7817317 2.1907039 -0.0009976471
18.027544 -3.4407592 0.0016261988 -0.6003059 -0.00254602 -0.8670382 0.52622545 -0.006213778
4.7205224 0.8231361 0.1638902 -1.4471141 8.039698 -3.16652 0.30950326 -0.03567657
-1.4342809 0.4599848 0.41113573 -2.7579436 2.732601 0.06878205 3.6175928 -0.600367
-3.0378861 1.0376536 0.53706825 0.75726974 -0.65538734 -0.014135524 -2.268558 -0.71363145
2.4040294 -0.7908611 2.4807184 -0.5943036 1.3113209 -11.853565 -0.58608764 0.32883903
11.221243 -3.1071928 0.8891371 -2.2995048 -0.8529644 -0.683729 1.6019549 -0.03605811
0.89087677 -0.72763354 -0.6574167 3.2253041 0.86009854 -4.3800483 -0.0275955 1.0669429
2.339769 2.7368643 2.0908377 0.6833386 -0.63483006 0.2984865 6.3209977 -0.6794071
-0.012073652 -4.0506783 3.6218994 -4.7730684 -2.5467596 4.877996 0.5093687 0.40568843
0.020790301 -0.6683213 -0.65541863 -0.43775234 0.037045676 -3.0446064 0.7716892 0.50342315
