scripts/learning/models/[128,256,128]_end-double_prob.pth (torch_old, 339950 bytes, 10 tensors)

layers.0.0.weight f4 [128, 12]
0	0x3ebd2eac	0.3694967
1	0x3e9438be	0.2894954
2	0xbdedbbcc	-0.11608085
3	0x3e8808de	0.26569265
4	0xbe766314	-0.24061233
5	0x3f9ac894	1.2092462
6	0xbfc60808	-1.5471201
7	0x3e427551	0.18990065
8	0xbcb84b02	-0.022496704
9	0xbd6debaa	-0.058086075
10	0xbf0427d4	-0.5162327
11	0xbe803899	-0.2504318
12	0xbd4ec6ab	-0.050482433
13	0x3f47e018	0.78076315
14	0xbe2046cc	-0.15652007
15	0xbddacc2b	-0.10683473
16	0x3eb4bc37	0.35299847
17	0xbccf4612	-0.025301967
18	0xbe7847cc	-0.24246138
19	0x3e81c7d8	0.2534778
20	0xbe20e2ab	-0.15711467
21	0xbe535de5	-0.20641287
22	0xbf84fa40	-1.038887
23	0x3ef0ee0a	0.4705661
24	0xbe906260	-0.28200054
25	0x3e8e4c7a	0.27792722
26	0xbdfa1b5f	-0.12212252
27	0xbea7f0a0	-0.3280077
28	0x3df82fd3	0.12118497
29	0x3f140531	0.5782042
30	0xbfaf3384	-1.3687596
31	0x3e7c8790	0.24661088
32	0xbe5e245a	-0.21693555
33	0xbe87c40f	-0.26516768
34	0xbe26df53	-0.16296129
35	0xbec52556	-0.38505048
36	0xbed909c9	-0.42390278
37	0xbe0d053f	-0.13771532
38	0xbdbe591d	-0.09294341
39	0x3d52fc80	0.051510334
40	0xbc74ffc0	-0.014953554
41	0x3db4f159	0.08835096
42	0xbf951814	-1.1647973
43	0xba9388ef	-0.0011256019
44	0xbdb7877f	-0.08961391
45	0x3c20faea	0.009825448
46	0x3df357be	0.1188197
47	0x3e173ebc	0.14770025
48	0x3fb50c5c	1.4144397
49	0xbeb1f18b	-0.34754595
50	0xbe08d126	-0.13361034
51	0x3c172d67	0.009227133
52	0xbaf8ef11	-0.0018992146
53	0xbccb522b	-0.024819454
54	0x3ca3377b	0.019923916
55	0x3e0307fa	0.12796012
56	0xbc560cb1	-0.013064549
57	0xbcd7d301	-0.026345732
58	0x3d393840	0.04521966
59	0xbe9bd044	-0.30432332
60	0xbec3ca79	-0.38240412
61	0x3ed1cb1e	0.4097528
62	0x3b3f5e13	0.002920036
63	0x3c383f69	0.011245587
64	0x3b0ce05a	0.0021496029
65	0x3f26de13	0.6518261
66	0xbcc12935	-0.02357922
67	0x3e9be645	0.3044912
68	0x3aba17bf	0.0014197751
69	0xbd0cfc73	-0.03442044
70	0xbed2ad85	-0.4114801
71	0xbd63235c	-0.055453643
72	0x3dc5211b	0.09625455
73	0x3f0e4f20	0.55589485
74	0x3e45f534	0.19331819
75	0xbc8557b2	-0.016277168
76	0xbdc53a2a	-0.096302345
77	0x3d5bc69a	0.053656198
78	0xbe02136b	-0.1270272
79	0x3e75b996	0.23996577
80	0xbded117d	-0.11575601
81	0xbde58d14	-0.11208549
82	0xbf24d71a	-0.6439072
83	0xbf13d2f7	-0.5774378
84	0x3f717633	0.9432098
85	0x3e08be88	0.13353932
86	0xbe18f672	-0.14937761
87	0x3e030612	0.12795284
88	0x3e925cfe	0.28586572
89	0xbed1d061	-0.40979293
90	0xbf8b8a2b	-1.090154
91	0xbe91ceed	-0.28478184
92	0x3e94a951	0.29035428
93	0xbdffc2f8	-0.12488359
94	0xbed3d0c3	-0.4137021
95	0x3e9f6e51	0.31138852
96	0xbeb9baa1	-0.362752
97	0x3ec9d3f9	0.39419535
98	0xbf0160d3	-0.5053837
99	0x3ec1e9c0	0.3787365
100	0xbe289091	-0.16461398
101	0xbf724713	-0.946397
102	0x3f0767b0	0.5289259
103	0xbed311b3	-0.4122444
104	0xbdc24bce	-0.09487115
105	0xbe031b38	-0.12803352
106	0x3f773d09	0.9657751
107	0xbf00c47d	-0.5029982
108	0x3f681f08	0.9067235
109	0xbecfb4f4	-0.40567744
110	0xbee6c0bd	-0.45068923
111	0x3ea0d460	0.3141203
112	0xbcf0cda0	-0.029394925
113	0xbf6083b3	-0.8770096
114	0x3efff28a	0.4998973
115	0xbed29de9	-0.411361
116	0xbd5d1f3b	-0.05398486
117	0x3d9eb8c2	0.077500835
118	0xbf407e3a	-0.75192606
119	0x3eba57d9	0.36395147
120	0xbe00c625	-0.12575586
121	0xbf55ff86	-0.8359302
122	0xbecced50	-0.40024805
123	0x3ddf08b8	0.10890335
124	0x3e2184bf	0.15773295
125	0xbd0ca9f4	-0.034341767
126	0xbf73a0af	-0.9516706
127	0xbeabe85d	-0.33575717
128	0x3eac52a7	0.3365681
129	0x3d586b49	0.05283669
130	0xbd522d56	-0.051312767
131	0x39b182ef	0.00033857624
132	0x3ed464a6	0.4148304
133	0xbeabda7b	-0.33565125
134	0x3eae6625	0.34062305
135	0xbbe6c156	-0.0070420904
136	0xbd940221	-0.072269686
137	0x3f95de99	1.1708556
138	0x3f5042b6	0.8135179
139	0x3e760ebf	0.24029063
140	0xbddfb5cf	-0.10923349
141	0x3e0a32eb	0.13495986
142	0xbebc7e74	-0.36815226
143	0xbe52df89	-0.20593084
144	0xbf140872	-0.57825387
145	0xbd45a54d	-0.048253346
146	0x3d8a0a53	0.067402504
147	0x3e33c7dc	0.17556709
148	0xbee869e3	-0.45393285
149	0xbf6873fb	-0.9080197
150	0x3f6f7ffd	0.9355467
151	0xbe2e9e0e	-0.1705248
152	0xbb989be6	-0.0046572564
153	0x3e5ddc9b	0.21666186
154	0x3f56b4a4	0.83869386
155	0x39bac498	0.00035623158
156	0xbe93ebd4	-0.2889086
157	0x3f113c15	0.567323
158	0x3eec24ba	0.4612177
159	0xbcfde52e	-0.03099307
160	0xbe363cdf	-0.17796658
161	0x3ee5ef58	0.44909167
162	0x3f1d55a8	0.61458826
163	0x3f0f1555	0.55891925
164	0xbe99c033	-0.3002945
165	0x3eb9977b	0.36248383
166	0x3e3c4069	0.18383946
167	0xbe1956b1	-0.14974476
168	0xbf1caa43	-0.611973
169	0x3e2b3a30	0.16721416
170	0x3e188f0f	0.14898323
171	0xbe6f46dd	-0.23366876
172	0x3d15fc5f	0.036617633
173	0x3fabff7e	1.3437345
174	0xbf599678	-0.8499522
175	0xbe281fbc	-0.16418356
176	0x3d81799d	0.06322024
177	0xbe8b3819	-0.27191237
178	0x3f905015	1.1274439
179	0xbed14ec1	-0.40880397
180	0xbf06567e	-0.52475727
181	0x3e496f86	0.19671449
182	0xbf2deb24	-0.6793692
183	0x3e27c9aa	0.16385522
184	0xbed10fe3	-0.40832433
185	0xbf020b46	-0.5079845
186	0xbd3e9baa	-0.04653517
187	0xbf0c0c3b	-0.5470616
188	0xbc416a19	-0.011805081
189	0x3e293dbf	0.1652746
190	0xbf0b092f	-0.5431089
191	0x3f4d733a	0.80253947
192	0xbe4c9552	-0.19978836
193	0x3f5fc5d8	0.8741126
194	0xbd9e80ec	-0.07739434
195	0x3cbb291a	0.022846747
196	0x3cfffb31	0.031247707
197	0xbe954bf2	-0.29159504
198	0xbf23c676	-0.639747
199	0x3e3225b7	0.173972
200	0xbc86acb0	-0.016439766
201	0xbe35f8dc	-0.17770714
202	0x3ec2bceb	0.38034758
203	0x3f8c7c4f	1.0975436
204	0x3ef9fc78	0.4882543
205	0x3dc1ae6c	0.094570965
206	0xbd837d8b	-0.0642043
207	0x3c43b59e	0.011945156
208	0x3dc21582	0.094767585
209	0xbf1b65f9	-0.6070247
210	0xbeacd904	-0.3375932
211	0xbe811a4f	-0.25215384
212	0xbcd12aac	-0.025533043
213	0x3eba42e5	0.3637916
214	0x3f5ca1b4	0.8618424
215	0xbf59ae34	-0.8503144
216	0x3e3114ae	0.17293045
217	0x3dd44468	0.1036461
218	0xbe8e1313	-0.27748927
219	0x3eba925b	0.36439785
220	0x3e83bee7	0.25731584
221	0xbf33cd3e	-0.7023505
222	0xbf7f94be	-0.9983634
223	0x3eb66346	0.35622615
224	0xbe94d138	-0.2906587
225	0xbf050549	-0.5196119
226	0x3e56e6fe	0.20986554
227	0x3ee4745f	0.44620034
228	0xbe5dd033	-0.21661453
229	0xbe55b157	-0.20868431
230	0x3dac9657	0.084271125
231	0x3e1ee7b8	0.15518081
232	0xbe8a02fb	-0.269554
233	0xbff11fd4	-1.8837838
234	0x3ffeefc5	1.9916922
235	0x3d32262a	0.043493427
236	0x3c9949a6	0.018711876
237	0xbd220f39	-0.0395653
238	0xbe0f053b	-0.13966839
239	0x3da135cb	0.07871588
240	0xbe614ec9	-0.2200271
241	0xbe8da68c	-0.27666128
242	0xbdfbd6c7	-0.12296825
243	0x3dc00fed	0.093780376
244	0x3d0d247f	0.034458634
245	0x3eff32fb	0.49843583
246	0x3f9810ce	1.1880128
247	0xbd5a4721	-0.05329049
248	0x3e979f4a	0.29613715
249	0x3e5c355b	0.21504728
250	0x3e3ee4fa	0.18642035
251	0x3eae9ccc	0.34104002
252	0x3cb09f6c	0.021560393
253	0xbea9e9ab	-0.33186087
254	0xbdecf124	-0.115694314
255	0xbaeeca58	-0.0018218262

layers.0.0.bias f4 [128]
0	0x3def01a6	0.11670236
1	0xbe8f025e	-0.27931494
2	0xbe9e65d8	-0.30937076
3	0x3e1bd713	0.15218763
4	0x3ea97064	0.3309356
5	0x3d8b2c9b	0.06795617
6	0x3eb0abc5	0.3450605
7	0xbdfa121f	-0.122104876
8	0xbea464b6	-0.32108086
9	0xbe165482	-0.14680675
10	0xbdb1e5bf	-0.08686399
11	0x3d3fa4ed	0.046788145
12	0xbd63052d	-0.055424858
13	0xbe443a10	-0.19162774
14	0xbda9d096	-0.08291738
15	0xbe8c05a3	-0.2734805
16	0xbdfb327e	-0.1226549
17	0xbdf0cc62	-0.11757733
18	0xbe6edf20	-0.23327303
19	0x3c58c49b	0.013230468
20	0xbee1a129	-0.44068268
21	0x3e714a0f	0.23563407
22	0xbe00e6c2	-0.12588027
23	0xbe0b36af	-0.13595079
24	0x3dd98145	0.10620359
25	0x3bbaa78a	0.0056962417
26	0x3df77c44	0.12084249
27	0xbec303b9	-0.38088778
28	0xbebd8f88	-0.37023568
29	0x3e09b05c	0.13446182
30	0x3e61a7a5	0.22036608
31	0xbc1dda1e	-0.009634523
32	0xbf0e1e4a	-0.5551497
33	0xbc4888b7	-0.012239627
34	0x3e450f8e	0.19244215
35	0xbbe3fccb	-0.0069576255
36	0xbde5bc67	-0.112175755
37	0x3e650823	0.22366385
38	0x3e878217	0.26466438
39	0x3e0bf22e	0.13666603
40	0x3d739106	0.059464477
41	0xbe3f1276	-0.18659386
42	0x3d902618	0.07038516
43	0x3dc046d8	0.093885124
44	0xbe804071	-0.25049165
45	0xbd745f0e	-0.059660964
46	0xbeba0438	-0.36331344
47	0xbed216c6	-0.41033
48	0xbde9eed0	-0.11422503
49	0x3c800877	0.015629036
50	0xbdb01892	-0.085984364
51	0xbcde5aa5	-0.027142832
52	0x3e0757df	0.13217114
53	0xbe0c0432	-0.13673475
54	0xbdf267b6	-0.118361875
55	0xbd940504	-0.07227519
56	0xbcb2aadb	-0.021809986
57	0xbea98193	-0.3310667
58	0x3ef04826	0.46930045
59	0x3d466e84	0.04844524
60	0xbe83897d	-0.25690833
61	0xbecaf023	-0.39636335
62	0x3d8ab569	0.067728825
63	0x3d84c725	0.06483296
64	0xba21e41a	-0.00061756524
65	0xbebeecda	-0.37290078
66	0x3cda2721	0.026629986
67	0x3e75fb3f	0.24021624
68	0x3e83f8da	0.25775796
69	0x3df96222	0.121769205
70	0xbd4cf92a	-0.05004231
71	0x3dae96f4	0.08524886
72	0x3dbf8b6a	0.09352763
73	0xbeeb8da8	-0.46006513
74	0x3a586359	0.000825455
75	0x3d1e6ee1	0.03867996
76	0x3e5ef67e	0.21773717
77	0x3e7bf257	0.24604164
78	0x3e54a430	0.20765758
79	0x3eceee40	0.40416145
80	0x3dfb6f3b	0.12277075
81	0xbd420e9a	-0.047377206
82	0x3e40570e	0.18783209
83	0xbd33ec19	-0.043926332
84	0x3e9f25d8	0.3108356
85	0x3e3cdc03	0.18443303
86	0xbe18b58d	-0.14913006
87	0x3d8435fd	0.0645561
88	0x3e315075	0.17315848
89	0x3da13aef	0.07872569
90	0xbcd6655f	-0.026171384
91	0x3e2247ec	0.15847749
92	0x3e4dd02c	0.20098943
93	0xbe57cff7	-0.21075426
94	0xbeed99a5	-0.46406284
95	0x3e496eca	0.19671169
96	0x3e9521c2	0.29127318
97	0x3e4028dc	0.18765587
98	0xbe7fd1be	-0.24982354
99	0xbaa9dda8	-0.0012959735
100	0x3ea334ba	0.31876165
101	0x3ea9b255	0.3314387
102	0xbed64058	-0.41845965
103	0xbe73c7f4	-0.23806745
104	0xbe9d18be	-0.3068294
105	0x3e6239e8	0.22092402
106	0x3d3cc781	0.0460887
107	0xbf1e8091	-0.61914927
108	0xbdc3826a	-0.09546359
109	0xbde8e1f8	-0.11371225
110	0xbbbddb20	-0.005793944
111	0xbe9a3767	-0.30120394
112	0x3dccab39	0.09993596
113	0x3e27283b	0.1632394
114	0x3e2a1c5a	0.16612378
115	0x3e282a52	0.16422394
116	0xbe4350c6	-0.19073781
117	0x3dbc5a25	0.09196881
118	0xbe761771	-0.2403238
119	0x3e24c836	0.16092
120	0xbe4cdf1f	-0.20006989
121	0x3e9137df	0.2836294
122	0x3cd8ce55	0.026465574
123	0xbe894ad0	-0.2681489
124	0xbe93270f	-0.28740737
125	0xbe4f3b9c	-0.20237583
126	0xbdfdf7ac	-0.12400755
127	0x3e84d71f	0.25945374

layers.1.0.weight f4 [256, 128]
0	0x3f3c63c8	0.73589754
1	0x3d1c3a30	0.03814143
2	0xbe8036da	-0.25041848
3	0xbdb9487f	-0.09047031
4	0x3cea0a49	0.028569357
5	0x3cfed2c7	0.031106366
6	0x3e3506d5	0.17678387
7	0xbeb2a556	-0.34891766
8	0xbefeee9a	-0.49791414
9	0xbfe7b5af	-1.810232
10	0xbea75864	-0.32684624
11	0x3c5a6bd4	0.013331372
12	0x3d5fe49c	0.05466138
13	0xbe25d3b2	-0.16194037
14	0x3d5e159b	0.054219823
15	0x3e8b58f1	0.27216294
16	0x3da34b1d	0.07973311
17	0x3d47522d	0.048662353
18	0x3eb8a0da	0.3606022
19	0xbf03e08f	-0.51514524
20	0x3e281070	0.1641252
21	0xbda1ae86	-0.07894616
22	0x3c778ffc	0.015110012
23	0x3e9e086a	0.30865794
24	0xbc83f1ae	-0.016106453
25	0x3e1dffe4	0.15429646
26	0xbd628c29	-0.05530945
27	0x3e2823ca	0.16419902
28	0x3f8aad23	1.0834087
29	0xbd829912	-0.06376852
30	0x3d8ba482	0.06818487
31	0xbeaad7f0	-0.33367872
32	0xbdd0706a	-0.10177691
33	0xbdc6d5db	-0.097087584
34	0xbe84ba75	-0.25923505
35	0xbc6707ab	-0.014100949
36	0xbeaef17b	-0.3416861
37	0xbe3b1522	-0.1826978
38	0x3e746f51	0.23870589
39	0x3d8e770e	0.06956302
40	0x3e2e4486	0.17018327
41	0xbd5bff9b	-0.05371056
42	0x3dfd7f52	0.123778
43	0xbd295255	-0.041338284
44	0xbc91fa3d	-0.017819518
45	0x3cf28038	0.029602155
46	0xbc89a853	-0.016803896
47	0xbf989b1c	-1.1922336
48	0x3d793eb9	0.060850833
49	0xbdbe10a1	-0.092805155
50	0x3dd78bc0	0.10524702
51	0xbdc715eb	-0.097209774
52	0x3ce4371b	0.027858308
53	0x3df2a94c	0.11848697
54	0x3efd5411	0.494782
55	0xbcf4b552	-0.029871617
56	0xbd163c9f	-0.036678907
57	0x3c254762	0.01008782
58	0xbbf478f2	-0.007460707
59	0x3e5a86c4	0.21340472
60	0x3d6ffc37	0.05859014
61	0xbdb03814	-0.08604446
62	0x3db686d9	0.08912439
63	0xbe5d8c90	-0.21635652
64	0xbe62ca00	-0.2214737
65	0x3e8eda22	0.27900797
66	0x3df4fbb9	0.11962075
67	0xbe9af870	-0.30267668
68	0x3e9e842e	0.3096022
69	0x3e41d966	0.18930587
70	0x3c817a39	0.01580535
71	0xbe04ab50	-0.12955976
72	0xbd9f6599	-0.0778305
73	0x3e88fcfb	0.2675551
74	0x3dfb62e7	0.122747235
75	0xbe3a5d63	-0.18199687
76	0x3d89a129	0.06720192
77	0x3c3af517	0.011410973
78	0x3bf79ef4	0.0075567905
79	0x3dc8678e	0.097853765
80	0xbc823a1d	-0.015896851
81	0xbe7c3bde	-0.24632213
82	0x3d838365	0.06421546
83	0xbccfb5c4	-0.025355227
84	0x3e27bbd5	0.16380246
85	0xbce22650	-0.02760616
86	0xbe9ca1ea	-0.3059228
87	0xbc847915	-0.016171018
88	0x3d91e67c	0.071240395
89	0xbd95eba7	-0.07320338
90	0xbb5aaf2e	-0.0033368575
91	0xbc57ef67	-0.013179637
92	0x3dc88d96	0.097926304
93	0x3eb6f5a4	0.35734284
94	0xbd7f824f	-0.06238013
95	0xbd22c35a	-0.039737083
96	0xbd3b54ac	-0.045735046
97	0xbe8930e6	-0.2679512
98	0xbef16545	-0.47147575
99	0xbd22835d	-0.03967606
100	0x3df5641d	0.11981986
101	0x3cf8583d	0.030315513
102	0xbfdec41a	-1.7403595
103	0x3d303fb1	0.04302949
104	0x3dee9fff	0.116516106
105	0x3d86abc8	0.065757334
106	0xbcf45510	-0.029825717
107	0x3dfcb724	0.12339619
108	0xbd1fe30a	-0.03903488
109	0xbd67f3fc	-0.056629166
110	0x3d9b2d26	0.07576971
111	0x3efb8e96	0.49132222
112	0xbdd213a0	-0.102576494
113	0x3b0840fe	0.0020790691
114	0x3c04f0b1	0.008114026
115	0x3d81caa3	0.06337478
116	0xbe6fee03	-0.23430638
117	0xbdd63361	-0.104590185
118	0x3d1796b6	0.037008964
119	0x3d4a4bfb	0.049388867
120	0x3d55fefc	0.052245125
121	0xbe27cf62	-0.16387704
122	0xbe3328ea	-0.17496076
123	0xbca0acb0	-0.019613594
124	0xbe0e0958	-0.13870752
125	0xbe334e63	-0.17510371
126	0xbd9f9add	-0.0779321
127	0x3b9be76d	0.0047578127
128	0x3e5d2d35	0.21599276
129	0x3ea3b1f2	0.319717
130	0xbe0978d0	-0.13424993
131	0xbe182396	-0.14857325
132	0x3d7b2e73	0.061323594
133	0xbbdb2ee0	-0.0066889375
134	0x3db2c987	0.087298445
135	0x3e44335f	0.19160222
136	0xbdc45894	-0.095872074
137	0x3e522653	0.20522432
138	0x3cb9d039	0.022682296
139	0x3d7586ce	0.059943013
140	0xbe102c79	-0.14079465
141	0xbddddbe1	-0.10832954
142	0x3d97f71f	0.074201815
143	0xbd787d72	-0.06066651
144	0xbe0cf5e3	-0.13765673
145	0x3e28d82e	0.16488716
146	0x3d81a050	0.06329405
147	0x3cc739b8	0.024319515
148	0x3d5ce82f	0.053932365
149	0x3d7a65b0	0.061132133
150	0xbdbc8330	-0.092047095
151	0x3e47b3bd	0.19502158
152	0xbdb5a1a5	-0.08868722
153	0x3e02fe6e	0.1279237
154	0x3cd6b90b	0.026211282
155	0x3d8178a0	0.063218355
156	0x3e29ea40	0.16593266
157	0x3ce99cd0	0.028517157
158	0xbe35bb6a	-0.17747274
159	0xbe891c14	-0.26779234
160	0xbece6fad	-0.40319577
161	0x3d1de3ef	0.038547453
162	0x3e141650	0.14461637
163	0xbe03d4ab	-0.12874095
164	0xbe17c3f3	-0.14820842
165	0xbcebf972	-0.028805468
166	0x3da09f83	0.078429244
167	0xbe5e3529	-0.21699966
168	0x3e2d31cf	0.16913532
169	0x3d0b5dd8	0.034025043
170	0x3cc95e09	0.024580972
171	0x3e80734c	0.25087965
172	0x3e985bc0	0.297575
173	0xbda1388b	-0.07872113
174	0x3e0970c6	0.13421926
175	0x3f16c3c3	0.5889246
176	0xbeb4c753	-0.35308322
177	0x3d45b647	0.048269536
178	0xbdaf61b6	-0.08563559
179	0x3e1321cd	0.14368363
180	0x3d8f7a09	0.07005698
181	0xbd2b3c1b	-0.041805368
182	0x3e714993	0.23563223
183	0x3cf85671	0.030314656
184	0xbe8429a8	-0.2581303
185	0xbe610e5c	-0.21978134
186	0xbd6d6b09	-0.057963405
187	0xbdc64723	-0.09681537
188	0xbed827c3	-0.42217836
189	0x3e03f0d3	0.12884836
190	0xbd93008b	-0.07177838
191	0x3c841ab0	0.016126007
192	0xbbd503d6	-0.0065007014
193	0xbd58956b	-0.05287687
194	0x3e0438a2	0.12912229
195	0x3cf8eea8	0.030387238
196	0x3d959e2d	0.0730556
197	0xbe20ec08	-0.15715039
198	0x3cd86e53	0.026419794
199	0xbcc9634c	-0.024583481
200	0x385d5d44	5.2777366e-05
201	0x3d471126	0.04860034
202	0xbde4fb54	-0.111807495
203	0xbda7b760	-0.08189273
204	0xbd79b76d	-0.060965944
205	0x3dc1d436	0.09464304
206	0x3d461ba9	0.048366223
207	0x3d790ad4	0.060801342
208	0xbe2ba9c2	-0.16763976
209	0xbd047e5a	-0.03234706
210	0x3df049c2	0.11732818
211	0x3dec3e5f	0.11535334
212	0xbeb77f2b	-0.3583921
213	0xbe20645e	-0.15663287
214	0x3e840d38	0.25791335
215	0xbdf64fd4	-0.12026945
216	0x3e8933d8	0.26797366
217	0x3e0786aa	0.13234964
218	0xbdad95fb	-0.08475872
219	0x3e142655	0.14467748
220	0xbdc0b98a	-0.09410389
221	0xbe8447b2	-0.2583595
222	0xbe491aac	-0.19639081
223	0x3dcb4253	0.0992476
224	0xbc5467f0	-0.012964234
225	0x3d35a809	0.044349704
226	0xbe25b960	-0.16183996
227	0xbcdccb20	-0.026952326
228	0x3cf99570	0.030466765
229	0x3d0009fb	0.031259518
230	0x3df3d6c7	0.119062
231	0x3d77b623	0.060476433
232	0x3e2e9c49	0.17051806
233	0x3d2adf32	0.041716762
234	0xbda4b76e	-0.08042799
235	0xbf3887d7	-0.72082275
236	0xbde72dcb	-0.11288031
237	0xbe7b68a4	-0.24551636
238	0xbe5534ba	-0.20820895
239	0x3dfe0342	0.12402965
240	0xbd91fee6	-0.07128696
241	0x3dbc1d4f	0.09185278
242	0xbdf7e587	-0.12104326
243	0x3def92e1	0.11697937
244	0xbe6a053d	-0.22853561
245	0x3de89a16	0.113575146
246	0xbd1912be	-0.03737139
247	0xbd60741a	-0.054798223
248	0x3dc2a01d	0.095031954
249	0xbc8363d2	-0.016038809
250	0xbd37aeef	-0.044844564
251	0xbcc43e80	-0.023955584
252	0x3eb89914	0.3605429
253	0xbe639f69	-0.22228779
254	0x3ded17fc	0.1157684
255	0xbde97bad	-0.114005424

layers.1.0.bias f4 [256]
0	0x3cd9243e	0.02650654
1	0x3dfe27c3	0.12409928
2	0x3c6855f9	0.014180654
3	0xbca973b5	-0.020685056
4	0xbd802d24	-0.0625861
5	0x39491fcc	0.00019180699
6	0x3ba4627d	0.0050166235
7	0x3df4b5c5	0.11948732
8	0xbdc4205b	-0.09576484
9	0xbd7355bb	-0.05940793
10	0xbd2927da	-0.04129777
11	0xbdb49b54	-0.08818689
12	0xbcf93dee	-0.030425038
13	0xbdc260b8	-0.09491104
14	0x3cbd8fec	0.023139916
15	0xbdc40cdb	-0.095727645
16	0xbd8c4a7d	-0.06850145
17	0xbc1a1434	-0.009404231
18	0xbdb8b6fe	-0.09019278
19	0xbde8e8d8	-0.113725364
20	0x3d807b06	0.06273465
21	0x3ddbf292	0.10739626
22	0x3dbadd32	0.09124221
23	0x3cef4587	0.029207958
24	0xbdb24a2d	-0.08705554
25	0xbdf7d5f2	-0.12101354
26	0xbe31eadc	-0.17374748
27	0x3c225876	0.009908786
28	0xbd452a51	-0.04813606
29	0x3d87cc79	0.06630797
30	0x3d8d70c1	0.06906272
31	0x3c8b73ca	0.017022986
32	0x3d5cbb5a	0.05388961
33	0x3d0a9b93	0.033839773
34	0x3d8742e3	0.066045545
35	0xbd08adb7	-0.033368792
36	0x3e1b054c	0.1513874
37	0x3d49d1a6	0.049272202
38	0xbc111147	-0.008854217
39	0xbd8813bb	-0.06644388
40	0xbdd4f198	-0.10397643
41	0xbe2fdb05	-0.17173393
42	0xbd98838d	-0.07446966
43	0x3dcfeaea	0.10152228
44	0x3c719dfe	0.014747141
45	0x3d2465ec	0.040136263
46	0x3c2d9982	0.010595681
47	0xbdee3dc4	-0.116328746
48	0xbd1f2fc8	-0.038863927
49	0x3cb6b87d	0.022304768
50	0x3c8d0cfa	0.017218102
51	0xbbd3f38f	-0.0064682434
52	0x3e09447c	0.13405031
53	0xbdf46b32	-0.119345084
54	0xbcf6aea4	-0.030112572
55	0x3cee4b42	0.02908862
56	0xbd8d6aec	-0.06905159
57	0x3c47db89	0.012198337
58	0x3e0d6e45	0.13811596
59	0x3d89d9b0	0.06730974
60	0x3e0c22fb	0.13685219
61	0xbccbd763	-0.024882978
62	0xbd9123c8	-0.07086903
63	0xbda55732	-0.08073272
64	0x3a3a9e77	0.000711895
65	0xbe65a8e1	-0.22427703
66	0xbe0daaec	-0.13834733
67	0x3cc819da	0.02442639
68	0xbda6f712	-0.08152594
69	0xbd1246bf	-0.035712
70	0xbcf05bf1	-0.029340716
71	0x3d0a0669	0.03369752
72	0x3cb87f46	0.022521626
73	0xbcf2528f	-0.029580383
74	0xbd1e3e78	-0.038633794
75	0x3c86afbd	0.01644122
76	0x3d8167c4	0.0631862
77	0xbdbafa3c	-0.0912976
78	0xbe787e5b	-0.24266951
79	0x3db0e0b4	0.08636609
80	0xbde9c82c	-0.11415133
81	0xbd9a7ed0	-0.07543719
82	0xbdc5b1f1	-0.0965308
83	0xbd0fde84	-0.035124317
84	0x3c3eabce	0.011637641
85	0x3da986ec	0.082776874
86	0x3d9a4050	0.07531798
87	0x3c1b1e8c	0.009467732
88	0xbdbf0653	-0.09327378
89	0x3d282b13	0.041056704
90	0x3da0e39f	0.07855915
91	0x3d624b07	0.055247333
92	0xbc16f240	-0.00921303
93	0xbaa7de33	-0.0012807309
94	0xbd462fc0	-0.04838538
95	0x3d3273d9	0.043567512
96	0xbd7ceb76	-0.06174799
97	0x3d879b03	0.06621363
98	0xbe3a6203	-0.18201451
99	0xbd4cda0a	-0.050012626
100	0xbce3034c	-0.027711533
101	0xbcba117d	-0.022713417
102	0xbe04552c	-0.12923115
103	0xbd644b7a	-0.055736043
104	0xbc9ad5b6	-0.018900733
105	0x3ddf07d9	0.10890169
106	0x3d93bff2	0.07214345
107	0x3e1a6258	0.15076578
108	0x3d97ceea	0.074125126
109	0x3da6bda9	0.081416436
110	0x3dc89bba	0.097953275
111	0x3dcedd66	0.10100822
112	0x3e0080f7	0.12549196
113	0x3da1aa42	0.07893802
114	0xbdd604ae	-0.10450111
115	0x3cdab8d3	0.02669946
116	0xbe670a41	-0.22562505
117	0xbd0dc057	-0.034607258
118	0x3d87ecb0	0.066369414
119	0xbe80cbaa	-0.25155383
120	0xb9b1f6fc	-0.00033944088
121	0xbdf59b29	-0.11992485
122	0xbcb42112	-0.021988425
123	0x3cdbffd6	0.02685539
124	0xbde86675	-0.11347667
125	0x3ccf3ecf	0.025298504
126	0x3c7fdcd4	0.015616614
127	0xbd45763b	-0.048208456
128	0x3c578c58	0.013156019
129	0xbe080dc3	-0.132865
130	0xbd2a5434	-0.04158421
131	0xbe0c44e6	-0.13698158
132	0x3da67fb1	0.08129824
133	0xbd6ef98b	-0.05834345
134	0xbd0ff242	-0.035143144
135	0x3d86a434	0.06574288
136	0x3ce53b30	0.027982324
137	0xbdbbfe11	-0.09179319
138	0xbcbb6ab8	-0.022878036
139	0x3db94ece	0.09048234
140	0xbd685ef4	-0.05673118
141	0xbe2b375e	-0.1672034
142	0x3d3c1926	0.04592242
143	0xbacd5f3f	-0.0015668644
144	0x3c890297	0.016724868
145	0x3d8dd0c9	0.06924588
146	0x3d9313d6	0.07181518
147	0x3d2383e7	0.039920714
148	0x3d596aa8	0.05308023
149	0xbdfb8016	-0.1228029
150	0xbd44b5e1	-0.048025016
151	0xbe19502a	-0.14971986
152	0x3db9a4bc	0.09064624
153	0x3c02b60d	0.007977975
154	0x3d838086	0.06420998
155	0x3cca71a3	0.02471239
156	0x3d7f8bfd	0.062389363
157	0xbd5c1ae6	-0.05373659
158	0xbca9d373	-0.02073071
159	0xbd7d2347	-0.06180122
160	0xbd063583	-0.032765877
161	0xbd4c15fb	-0.04982565
162	0xbccb4afa	-0.024816025
163	0x3dec52e7	0.1153925
164	0x3da9a83c	0.08284041
165	0xbc590c97	-0.013247631
166	0x3dba994e	0.09111272
167	0xbda489bb	-0.080340825
168	0x3daba2c3	0.08380654
169	0x3d969178	0.07351965
170	0xbda24232	-0.07922782
171	0x3d9e0359	0.07715482
172	0xbe0d84c1	-0.13820173
173	0xbd03ac06	-0.032146476
174	0x3daf205c	0.08551094
175	0xbd803204	-0.0625954
176	0x3de12dae	0.10995041
177	0x3b2442ee	0.0025064307
178	0x3c3b822f	0.011444612
179	0x3e1ec515	0.15504868
180	0xbe033aa9	-0.12815346
181	0x3d2c11d3	0.042009186
182	0xbbac9ed0	-0.0052679554
183	0x3dc5fd7e	0.096674904
184	0x3d626a79	0.05527732
185	0xbcf9e001	-0.030502321
186	0x3d02c803	0.031929027
187	0xbdb24ece	-0.08706437
188	0xbd4a749b	-0.04942761
189	0xbd4eac92	-0.050457545
190	0xbe2881a3	-0.16455702
191	0xbe13018a	-0.14356056
192	0x3c9eb69f	0.01937419
193	0x3d84686c	0.064652294
194	0xbd16c8b1	-0.036812488
195	0xbe1f98c1	-0.15585615
196	0x3da923cd	0.082587816
197	0xbd17830f	-0.03699022
198	0xbc809252	-0.015694771
199	0x3d1efc03	0.038814556
200	0xbd028052	-0.031860657
201	0xbddf4934	-0.10902634
202	0xbcac665b	-0.0210449
203	0x3dad50ab	0.08462652
204	0x3cc9b0fb	0.024620524
205	0x3d644962	0.055734046
206	0xbd7c73f5	-0.061634023
207	0xbd915cde	-0.07097791
208	0xbc131150	-0.008976296
209	0x39a4d6c9	0.00031440545
210	0x3db64f1c	0.08901808
211	0x3cddd352	0.027078304
212	0x3da94bc4	0.08266404
213	0x3cf21dd1	0.029555233
214	0xbdb36d11	-0.08761037
215	0x3d3c6c23	0.046001565
216	0xbcef7d66	-0.0292346
217	0x3da3f560	0.08005786
218	0xbd8d1f53	-0.0689074
219	0xbdc55f12	-0.09637274
220	0x3d4beb7a	0.049785115
221	0x3d986bd4	0.074424416
222	0x3c7080b8	0.014679126
223	0x3d9c30a9	0.07626469
224	0xbd0ffa1e	-0.03515064
225	0xbe12e7ca	-0.14346233
226	0xbde4d8df	-0.111741774
227	0x3ccda2fa	0.025102127
228	0xbdeb3ed0	-0.1148659
229	0xbc8be73e	-0.017078038
230	0x3d4a46e6	0.04938402
231	0xbbc45806	-0.0059919385
232	0xbd220786	-0.039557956
233	0xbd4bee43	-0.04978777
234	0xbdac6c53	-0.08419099
235	0x3d8e52f5	0.069494165
236	0x3bc60d9d	0.0060441033
237	0xbc84c25c	-0.016205959
238	0xbba36b5d	-0.004987164
239	0xbdcfbbc8	-0.10143238
240	0xbd1e56be	-0.038656943
241	0x3d6d0e3e	0.05787491
242	0xbd93f235	-0.07223932
243	0x3d6c416d	0.057679582
244	0x3e03087e	0.12796208
245	0xbdc08ee1	-0.09402252
246	0xbe466ade	-0.19376704
247	0xbc88ed95	-0.01671485
248	0xbd536d06	-0.051617645
249	0xbc19ea65	-0.009394263
250	0x3d56fc52	0.052486725
251	0xbc631c49	-0.013861724
252	0xbd7bfcab	-0.06152026
253	0xbdf61a82	-0.12016775
254	0xbe25139a	-0.16120759
255	0xbd31a63f	-0.043371435

layers.2.0.weight f4 [128, 256]
0	0xbd33d5ba	-0.043904997
1	0x3cb0c7a9	0.02157958
2	0x3da98a10	0.082782865
3	0x3e52908f	0.20562957
4	0xbe9ecd26	-0.3101589
5	0xbd056a0f	-0.03257185
6	0x3db4a8f4	0.08821288
7	0xbe21ea27	-0.15811978
8	0xbf195684	-0.5989764
9	0x3da64827	0.08119231
10	0xbe2640b4	-0.1623562
11	0xbdf1a236	-0.117985174
12	0x3e18df95	0.1492904
13	0xbd7c55b8	-0.061605185
14	0xbe58fcfb	-0.21190254
15	0xbd250ab3	-0.040293407
16	0xbde1c198	-0.11023253
17	0xbe3297e6	-0.17440757
18	0xbd9ffc23	-0.07811763
19	0xbef4254b	-0.47684702
20	0x3d982584	0.074290305
21	0xbd688879	-0.056770775
22	0x3ee2394f	0.44184348
23	0x3e932b3f	0.28743932
24	0xbb8d39a6	-0.0043098507
25	0xbf06c873	-0.5264961
26	0xbc1a0ada	-0.009402001
27	0xbe105428	-0.14094603
28	0x3e3ca834	0.1842354
29	0x3b9d281d	0.0047960416
30	0xbd996747	-0.07490402
31	0x3dd17e34	0.102291495
32	0x3e880829	0.26568726
33	0x3e295825	0.1653753
34	0xbf0b65c7	-0.54452175
35	0x3d9bc20d	0.076053716
36	0x3cacbbf1	0.021085711
37	0x3e2e2c88	0.17009175
38	0xbd74825e	-0.05969464
39	0xbe0ebb4d	-0.13938637
40	0x3e8b7591	0.27238134
41	0xbe8910c3	-0.267706
42	0xbe8b8921	-0.2725306
43	0x3e08999a	0.13339844
44	0x3f4dc2c9	0.80375344
45	0xbdf024c2	-0.11725761
46	0x3d94bc7e	0.072625145
47	0x3d7cfd28	0.061764866
48	0xbe8c05dc	-0.2734822
49	0x3c70c380	0.014695048
50	0xbf213d73	-0.6298439
51	0xbd4ad26f	-0.04951709
52	0xbd37b2be	-0.044848196
53	0xbcbc5b5b	-0.02299278
54	0x3cf4254e	0.029802945
55	0xbe1ba04e	-0.1519787
56	0x3ddb3194	0.10702816
57	0x3d16373a	0.036673762
58	0xbd8518a3	-0.0649884
59	0x3d1d86f9	0.038458798
60	0xbe47688f	-0.1947348
61	0x3e05cc96	0.13066325
62	0x3de660be	0.11248921
63	0x3d3e7943	0.046502363
64	0xbdcd5374	-0.10025683
65	0x3dc638b8	0.09678787
66	0xbd637d69	-0.055539522
67	0xbdaee4d5	-0.0853974
68	0x3e88d5ff	0.26725766
69	0x3dbf329a	0.09335823
70	0xbd70ff1a	-0.058837034
71	0xbdde5439	-0.10855908
72	0x3e03191f	0.12802552
73	0x3e868208	0.2627108
74	0xbca49255	-0.020089308
75	0x3d898ede	0.06716703
76	0xbd4230c7	-0.0474098
77	0x3d8870e3	0.066621564
78	0xbec9d839	-0.39422777
79	0x3d2be178	0.04196307
80	0xbd37393f	-0.04473233
81	0xbd9ee7ca	-0.07759054
82	0xbf8d840e	-1.1055925
83	0xbd9d9e2b	-0.07696184
84	0xbdbef211	-0.09323514
85	0x3e86d5cb	0.26334986
86	0xbd97fcb1	-0.07421244
87	0x3e31ace8	0.17351115
88	0xbd0bd416	-0.034137808
89	0x3d57b156	0.052659355
90	0xbcc955e8	-0.024577096
91	0xbe500624	-0.20314842
92	0xbd69fe51	-0.0571273
93	0x3e350ad6	0.17679915
94	0xbe9a0d32	-0.30088192
95	0xbd6fa39c	-0.05850564
96	0x3d0cfcaa	0.034420647
97	0x3e875ba0	0.26437092
98	0xbe95a65c	-0.29228485
99	0xbe4a175e	-0.19735476
100	0xbd6e4c7a	-0.058178402
101	0x3e663053	0.22479372
102	0xbf1644ec	-0.58698916
103	0x3ca1bb4b	0.019742629
104	0x3bf0a328	0.0073436685
105	0xbe70858b	-0.23488443
106	0xbd8cd0a6	-0.06875734
107	0x3de008a0	0.10939145
108	0x3dcc03ee	0.09961687
109	0x3d1b0586	0.037847064
110	0x3d6ce109	0.057831798
111	0xbb94afb3	-0.0045375465
112	0x3d8059ca	0.06267126
113	0xbe5959ea	-0.21225706
114	0x3c25f799	0.010129833
115	0xbbe3c837	-0.0069513577
116	0xbfc352ca	-1.525964
117	0xbe638b9e	-0.22221228
118	0xbc907174	-0.017632224
119	0xbe22174a	-0.15829197
120	0xbd9ed2c5	-0.07755045
121	0x3c88e1de	0.016709264
122	0xbd821cf1	-0.063531764
123	0xbca0d689	-0.019633548
124	0x3f187ac3	0.5956232
125	0xbca44b98	-0.020055577
126	0x3de3ecf5	0.1112918
127	0x3e207417	0.15669285
128	0x3e167255	0.14692052
129	0xbf30f5d0	-0.6912508
130	0xbe3ca2db	-0.184215
131	0xbeae1eb7	-0.3400781
132	0x3cdad93f	0.02671492
133	0xbe179e1b	-0.14806406
134	0xbc1d9645	-0.009618347
135	0x3e132e87	0.14373218
136	0x3d531058	0.05152926
137	0xbc1bf7d7	-0.009519539
138	0x3bc1be12	0.0059125507
139	0xbdb61026	-0.08889799
140	0x3c5a4a38	0.013323359
141	0xbf8bb0d9	-1.0913345
142	0xbd90925b	-0.07059165
143	0xbe662930	-0.2247665
144	0xbce9fb05	-0.028562078
145	0xbd624a97	-0.055246916
146	0x3d69e2b4	0.057100967
147	0xbde7837e	-0.11304377
148	0x3c2cc7fb	0.010545726
149	0xbd08ed55	-0.033429462
150	0xbe1255dd	-0.14290567
151	0xbec3eec0	-0.3826809
152	0xbe4f7e06	-0.20262918
153	0xbdd7106a	-0.105011776
154	0xba8cb276	-0.0010734338
155	0x3dee8646	0.116467044
156	0x3d5098cb	0.050926965
157	0xbeac07f7	-0.33599827
158	0x3e187ef5	0.1489218
159	0x3e0a33e6	0.1349636
160	0xbe1d2bed	-0.15348788
161	0x3eab5499	0.3346298
162	0x3bd7aeda	0.006582123
163	0xbd2890c9	-0.041153703
164	0xbd5f93bd	-0.054584254
165	0xbcab5dc6	-0.020918738
166	0xbe9d6260	-0.30739117
167	0x3c99d070	0.018776149
168	0x3da1fc1a	0.07909413
169	0xbdd64cd4	-0.104638726
170	0xbcbc34bc	-0.022974364
171	0x3e0fa83a	0.14029017
172	0x3e7302bd	0.23731513
173	0x3e155c5e	0.14586017
174	0xbd40bca6	-0.04705491
175	0xbd60d7d6	-0.054893337
176	0x3e9c534a	0.30532295
177	0x3c1596f8	0.009130232
178	0xbdcb7568	-0.09934503
179	0x3d7f9b59	0.06240401
180	0x3f193ec8	0.5986142
181	0xbe4d9fc4	-0.20080477
182	0xbc99175c	-0.018687896
183	0x3d88bca7	0.066766076
184	0x3dbb13b6	0.09134619
185	0xbbcfd715	-0.0063427784
186	0xbd066fa6	-0.03282132
187	0x3ca12106	0.019669067
188	0xbb5c7501	-0.0033639076
189	0xbdcd80a7	-0.10034304
190	0x3e0b8fcf	0.13629077
191	0x3ee279b4	0.44233477
192	0xbcf5dd15	-0.030012647
193	0x3d691a51	0.056909863
194	0x3d8563ed	0.065132
195	0xbe63ca34	-0.22245103
196	0x3e60f9b3	0.21970253
197	0xbe2c6213	-0.16834287
198	0x3e8ebb2c	0.27877176
199	0x3dd9d34b	0.10636004
200	0xbee95ea5	-0.4558002
201	0xbc758fe1	-0.014987917
202	0xbe22064f	-0.15822719
203	0x3eadf55c	0.33976257
204	0x3d52527f	0.051348206
205	0xbe357f88	-0.1772443
206	0xbe2b91cc	-0.16754836
207	0xbdd7adc0	-0.10531187
208	0x3d4f02df	0.050539847
209	0xbc9210a1	-0.017830195
210	0x3cb3b05a	0.021934677
211	0xbdbec469	-0.09314806
212	0x3e820353	0.2539316
213	0x3bfcba8f	0.007712669
214	0x3e42fc3c	0.19041532
215	0x3e4c8283	0.19971661
216	0xbd5561aa	-0.052095093
217	0x3e5cf87c	0.21579164
218	0x3cfcf568	0.030878738
219	0x3e10e047	0.14148055
220	0x3e805207	0.25062582
221	0xbc1fc7ea	-0.009752253
222	0x3d071e39	0.032987807
223	0x3e80c6a0	0.2515154
224	0xbbac73f9	-0.0052628485
225	0xbd63e1e3	-0.055635344
226	0xbde8351b	-0.11338254
227	0xbe2b23a9	-0.16712822
228	0xbed17def	-0.40916392
229	0x3dd8d429	0.10587341
230	0xbdd4d95d	-0.10393021
231	0xbd7d8879	-0.06189773
232	0x3d91beb2	0.0711645
233	0xbd0e538b	-0.03474764
234	0xbec57f16	-0.3857352
235	0x3e216b6a	0.15763631
236	0xbc89ce01	-0.016821863
237	0xbbd5881c	-0.0065164696
238	0x3e0b405a	0.13598767
239	0xbc24df5a	-0.010063017
240	0xbb8add80	-0.0042378306
241	0x3e2d3fcd	0.1691887
242	0xbcff4706	-0.031161796
243	0x3d6a4f76	0.057204686
244	0x3d00e54d	0.03146868
245	0xbe5927b8	-0.21206558
246	0xbf5261d3	-0.8218052
247	0x3e15f41b	0.146439
248	0x3d4146b5	0.047186572
249	0xbd71733d	-0.05894779
250	0x3d99e640	0.0751462
251	0xbe80628e	-0.2507519
252	0x3d0b2aa8	0.033976227
253	0xbf01ad96	-0.50655496
254	0x3f0c1a99	0.54728085
255	0xbd574c52	-0.05256302

layers.2.0.bias f4 [128]
0	0x3e46d27a	0.19416228
1	0x3e0819c8	0.13291085
2	0xbdc86f8b	-0.097869
3	0x3bdb74bd	0.006697266
4	0x3dc73f8e	0.09728919
5	0x3cc2d084	0.023781069
6	0xbd32d7c4	-0.0436628
7	0xbd947c06	-0.07250218
8	0x3cc6dbc9	0.024274724
9	0x3d36c4e8	0.04462138
10	0x3e2bf7aa	0.16793695
11	0xbd090012	-0.033447333
12	0x3e3c62c4	0.18397051
13	0xbd6d7ddd	-0.05798136
14	0x3d91f5f2	0.071269885
15	0x3db3bbc5	0.087760486
16	0xbb97a852	-0.0046282196
17	0xbb942657	-0.004521172
18	0x3d93965e	0.07206415
19	0xbc213167	-0.009838439
20	0xbb24b7ec	-0.002513404
21	0xbe09a91b	-0.13443415
22	0xbdcb1860	-0.099167585
23	0xbd938f8b	-0.07205113
24	0xbceb8cb0	-0.028753608
25	0xbd9d9f22	-0.07696368
26	0xbdba6865	-0.09101943
27	0xbd823581	-0.06357861
28	0x3dfa0f80	0.12209988
29	0xbcc6b4f3	-0.024256205
30	0x3ccc3cfe	0.024931427
31	0x3dc0f830	0.09422338
32	0xbcafaf22	-0.021445815
33	0xbcf1c8ca	-0.029514689
34	0x3d27eeff	0.04099941
35	0xbd82fb9a	-0.063956454
36	0xbddc1c24	-0.10747555
37	0xbd8e96d7	-0.06962364
38	0x3d98ed94	0.074671894
39	0x3d72074b	0.059088986
40	0xbd404504	-0.04694082
41	0x3d0d3741	0.034476522
42	0x3e1cd880	0.15316963
43	0x3e294048	0.16528428
44	0xbdc963e7	-0.09833508
45	0x3d9e4039	0.07727093
46	0x3e28deb8	0.1649121
47	0x3c62da3a	0.013845975
48	0xbd047aa4	-0.03234352
49	0xbdb0ecb8	-0.086389005
50	0x3e2d2977	0.16910349
51	0xbcf50bf4	-0.029912926
52	0xbc0d5dd0	-0.008628324
53	0x3d8dbbf8	0.06920618
54	0x3b9fb1fc	0.0048735123
55	0xbcc110a1	-0.0235675
56	0x3d88f326	0.06687002
57	0x3cb631f8	0.022240624
58	0x3d10c1e0	0.035341144
59	0xbd9629e5	-0.073322095
60	0xbe0451eb	-0.12921874
61	0x3dd78099	0.10522575
62	0x3b943fde	0.004524215
63	0x3df2c516	0.118539974
64	0xbe064554	-0.13112384
65	0xbc7860e9	-0.015159824
66	0xbda5b07f	-0.080903046
67	0xbc959901	-0.018261435
68	0xbe44ccf0	-0.19218802
69	0xbc06ce69	-0.008227923
70	0xbde65c32	-0.112480536
71	0xbe068377	-0.13136087
72	0x3d8a7a54	0.067616135
73	0xbd811f69	-0.06304819
74	0xbcd67f6a	-0.026183803
75	0xbc8db4cb	-0.017298123
76	0x3db63db3	0.08898487
77	0x3d8bde16	0.06829469
78	0x3dbda140	0.092592716
79	0xbd935c4e	-0.0719534
80	0x3d0538a7	0.03252473
81	0xbb3aeb1b	-0.0028521481
82	0xbd9f7780	-0.07786465
83	0x3daf5bd4	0.08562437
84	0x3db52624	0.08845165
85	0xbb9c35a8	-0.0047671385
86	0xbde16cc6	-0.11007075
87	0x3dbeb39d	0.09311602
88	0x3d5c9cc2	0.053860433
89	0x3c29e902	0.010370495
90	0x3d6ba54c	0.057530686
91	0xbe14554f	-0.14485668
92	0xbdcde140	-0.10052729
93	0x3d860325	0.065435685
94	0xbd76614d	-0.060151387
95	0x3d84eaca	0.06490095
96	0xbdc22948	-0.0948053
97	0x3e37b283	0.1793919
98	0x3d19de34	0.037565425
99	0xbd598c40	-0.05311227
100	0x3d0ece3e	0.034864657
101	0x3d096efe	0.033553116
102	0x3c695424	0.014241252
103	0xbd894e27	-0.067043595
104	0xbdfaa1b1	-0.122378714
105	0x3deb0643	0.11475804
106	0x3d02780c	0.031852767
107	0xbcf03135	-0.029320339
108	0x3daa9ee0	0.08331084
109	0xbd84f423	-0.06491878
110	0xbdf83fd4	-0.12121549
111	0xbd3768e1	-0.044777755
112	0xbc9e0cdf	-0.019293247
113	0x3bcb7186	0.0062086014
114	0x3d4c888e	0.049934916
115	0xbd8dc22e	-0.069218025
116	0xbd1d4ec4	-0.038405195
117	0xbe018c52	-0.12651184
118	0xbc5e2c3e	-0.013560353
119	0xbc386b4d	-0.011256051
120	0x3c189553	0.009312945
121	0x3c79bb55	0.015242417
122	0xbc8a2eef	-0.016868083
123	0x3b05da8d	0.0020424456
124	0xbd582295	-0.052767355
125	0x3da357f6	0.079757616
126	0x3dbdbccd	0.092645265
127	0xbd933fcf	-0.07189905

ik_task.weight f4 [1, 128]
0	0x3e994599	0.2993591
1	0x3f020389	0.50786644
2	0xbdf663ae	-0.12030731
3	0x3ce01607	0.027354253
4	0x3cac1e86	0.021010648
5	0xbe8def3b	-0.2772158
6	0x3d9fdf3f	0.07806253
7	0x3d86644a	0.06562097
8	0xbf2f305d	-0.6843317
9	0xbeb52a5f	-0.3538389
10	0xbea80090	-0.3281293
11	0xbd6bd920	-0.057580113
12	0x3ce20804	0.027591713
13	0x3d84e8e7	0.06489735
14	0xbef14bb5	-0.47128072
15	0x3e3799f8	0.17929828
16	0x3e59c03e	0.21264741
17	0x3d47cf50	0.048781693
18	0xbe2db40e	-0.16963217
19	0x3f215569	0.6302095
20	0xbe355371	-0.17707612
21	0xbf291579	-0.6604839
22	0x3e1d0b98	0.15336454
23	0x3d9e9bcd	0.077445604
24	0xbf53237d	-0.82476026
25	0x3e58cd00	0.21171951
26	0x3dc2c874	0.0951089
27	0xbf43259d	-0.7622927
28	0xbcbaac5b	-0.022787264
29	0x3d022603	0.031774532
30	0x3df23c1f	0.118278734
31	0x3e3bca3d	0.18338867
32	0xbea2bca9	-0.3178456
33	0x3f1bac6c	0.6080997
34	0x3d563071	0.05229229
35	0x3da05fd4	0.07830778
36	0xbd2266a2	-0.03964866
37	0xbc99d0a4	-0.018776245
38	0xbf427585	-0.7596057
39	0xbb1d6f03	-0.0024022467
40	0x3da1cd77	0.079005174
41	0x3f202af8	0.62565565
42	0xbf33d48a	-0.70246184
43	0x3ed6931a	0.41909105
44	0x3e044c3d	0.12919708
45	0x3f10348c	0.5633018
46	0x3e7d173a	0.24715891
47	0x3e39a00f	0.18127464
48	0x3ec6084d	0.38678208
49	0x3d7993a4	0.060931817
50	0x3e5ebff9	0.2175292
51	0x3ce4e228	0.027939871
52	0xbe2701c7	-0.16309272
53	0xbd0c8c71	-0.034313623
54	0xbfc1a454	-1.5128274
55	0x3d5ccd76	0.05390688
56	0x3f504fb2	0.81371605
57	0x3e0cf422	0.13765004
58	0x3f0a63ac	0.5405834
59	0x3d9123a8	0.07086879
60	0xbe611889	-0.21982016
61	0x3f5ec58e	0.87020195
62	0x3d99c154	0.075075775
63	0x3bd0a0d1	0.006366827
64	0x3f4c4a5d	0.7980097
65	0xbf1ec725	-0.6202262
66	0xbd0b6ac5	-0.03403737
67	0xbfc1411c	-1.5097995
68	0x3e295114	0.16534835
69	0x3d3f07b0	0.04663819
70	0xbe3744c2	-0.17897323
71	0xbc2c3f9a	-0.010513211
72	0xbe3c7b4b	-0.18406408
73	0x3bcf90f0	0.0063344166
74	0x3f83577c	1.0261073
75	0xbdaac1b9	-0.08337731
76	0xbfafdeff	-1.3739928
77	0xbe5bfc79	-0.2148303
78	0x3f27864a	0.65439284
79	0xbda6f995	-0.08153073
80	0x3d6a41a9	0.057191525
81	0xbdab106f	-0.08352744
82	0xbe933b01	-0.28755954
83	0x3e161169	0.14655079
84	0x3e575f46	0.21032438
85	0xbd1ce07a	-0.038300015
86	0xbe58402c	-0.2111823
87	0x3eca3c22	0.39499003
88	0xbf205739	-0.6263309
89	0xbeaceec2	-0.33775908
90	0xbea970e6	-0.33093947
91	0xbe9f8e8c	-0.31163442
92	0xbe9e6575	-0.3093678
93	0xbcb65d3c	-0.022261254
94	0xbe4ecb29	-0.20194687
95	0xbe28c115	-0.16479905
96	0xbbe4508b	-0.0069676093
97	0x3f8a9446	1.08265
98	0xbcd8e5fb	-0.02647685
99	0x3d4667a9	0.0484387
100	0xbeb92053	-0.36157474
101	0x3f230352	0.6367694
102	0xbf3ddaa1	-0.74161726
103	0xbf06da28	-0.5267663
104	0xbd6bf5e5	-0.05760755
105	0x3f0f2b9e	0.5592593
106	0xbf0d4310	-0.55180454
107	0x3d48e562	0.04904688
108	0xbe6be6d1	-0.23037268
109	0x3d6244d5	0.055241425
110	0x3ece924a	0.40345985
111	0x3e6fded6	0.23424849
112	0x3f16199b	0.5863282
113	0xbf0137f4	-0.50476
114	0x3d5dc050	0.05413848
115	0x3d8f6511	0.07001699
116	0x3da802a8	0.08203632
117	0xbf9aa22b	-1.208074
118	0x3d9e34d8	0.07724923
119	0x3f1b52e5	0.6067336
120	0x3e555161	0.20831825
121	0x3f513616	0.81723154
122	0xbe92b6ce	-0.28655094
123	0x3d23f678	0.040029973
124	0x3ce91d0c	0.028456233
125	0x3ef2679c	0.47344673
126	0x3e897874	0.2684971
127	0xba2b0341	-0.0006523617

dist_task.0.weight f4 [128, 129]
0	0x3e08143b	0.13288967
1	0xbcc60a23	-0.024174755
2	0xbdbc7b15	-0.092031635
3	0xbc4d5501	-0.012532474
4	0xbd952464	-0.072823316
5	0xbd5198f2	-0.05117125
6	0xbd14f70e	-0.036368422
7	0xbd318bcb	-0.043346208
8	0x3e2c4ce1	0.16826202
9	0x3cc6c129	0.024262028
10	0xbe51462e	-0.20436928
11	0x3d1437cc	0.036186025
12	0xbea6e94d	-0.3259987
13	0x3ccdeb24	0.025136538
14	0x3d38271e	0.04495918
15	0xbde5b2d1	-0.11215747
16	0x3e577e04	0.21044165
17	0x3d5c3962	0.053765662
18	0xbe64730c	-0.22309512
19	0xbe2c70f4	-0.16839963
20	0x3f040aaa	0.5157877
21	0xbdd66e9d	-0.104703166
22	0x3bdbdea5	0.006709891
23	0xbd46cba6	-0.048534058
24	0x3e8cd8ba	0.275091
25	0x3d3a285c	0.045448646
26	0xbc8d83a5	-0.017274687
27	0x3e45f40f	0.19331382
28	0x3e290aec	0.16508073
29	0xbd9f992b	-0.07792886
30	0xbe7a4439	-0.24440087
31	0x3dba9f08	0.09112364
32	0x3e161ce8	0.14659464
33	0xbe6507be	-0.22366235
34	0xbe261a2a	-0.16220918
35	0xbe2704c2	-0.16310409
36	0xbdaa119e	-0.083041415
37	0xbed52aa1	-0.41634086
38	0xbe0c801e	-0.13720748
39	0xbdca86dd	-0.098890044
40	0x3d60c3ac	0.054874107
41	0xbd99276c	-0.07478222
42	0xbcd21b44	-0.025647767
43	0x3dfb7ea8	0.12280017
44	0x3daaca02	0.08339311
45	0xbe3b5a0b	-0.18296067
46	0x3d1eaa07	0.03873637
47	0x3de16623	0.11005809
48	0xbe45e39f	-0.19325112
49	0xbdb15fe8	-0.08660871
50	0x3e5f762b	0.21822421
51	0xbb2cb4ce	-0.0026352885
52	0xbe2b5398	-0.16731107
53	0x3a5d037f	0.0008431002
54	0xbef2b46b	-0.47403273
55	0xbc852dd3	-0.016257202
56	0x3e86ca70	0.26326323
57	0xbe828248	-0.25490022
58	0xbcadb84b	-0.021206042
59	0x3d771622	0.060323842
60	0x3dd85065	0.10562209
61	0xbd5bb546	-0.053639673
62	0x3d1a6504	0.037693992
63	0x3e3a562c	0.18196934
64	0x3db686e8	0.0891245
65	0x3df60b92	0.120139256
66	0xbcec7f01	-0.028869154
67	0xbebfbfab	-0.3745092
68	0x3eb9c215	0.36280885
69	0x3da1aad9	0.07893915
70	0xbcb68688	-0.022280946
71	0xbe8aeff8	-0.27136207
72	0x3e17509f	0.14776848
73	0xbda82b6e	-0.082114086
74	0xbdeec302	-0.116582885
75	0x3c97cc26	0.018529963
76	0xbe2bd15a	-0.1677908
77	0xbd320a54	-0.04346688
78	0x3de5974d	0.11210499
79	0xbe1314e7	-0.14363442
80	0x3ebfb617	0.3744361
81	0xbe9a1803	-0.30096444
82	0x3dbf2d7a	0.09334846
83	0x3ce51d1a	0.027967978
84	0x3e4549c6	0.19266424
85	0x3d46ae22	0.04850591
86	0x3e82869c	0.25493324
87	0xbe1185b3	-0.14211158
88	0x3f5bfff3	0.8593742
89	0xbe331f49	-0.17492403
90	0xbe875b63	-0.2643691
91	0xbe418fe0	-0.1890254
92	0x3ca5c0e1	0.020233573
93	0xbe23db67	-0.16001664
94	0x3cd694bd	0.02619397
95	0x3e61affc	0.22039789
96	0x3dbe2415	0.09284226
97	0x3e35ff8a	0.17773262
98	0xbee5ebf0	-0.4490657
99	0x3d823709	0.063581534
100	0x3e108c2d	0.14115973
101	0x3e5d701f	0.21624802
102	0x3ead2824	0.33819687
103	0x3ece3561	0.402751
104	0x3e68fd0c	0.2275278
105	0x3e00a86f	0.12564252
106	0xbe9201e6	-0.28517073
107	0xbda8a022	-0.08233668
108	0x3e58ada3	0.21159987
109	0x3d1d9dac	0.038480446
110	0x3d1f72e6	0.038927935
111	0xbe03ea83	-0.12882428
112	0xbe23b091	-0.15985323
113	0x3e38126e	0.1797578
114	0x3ebdd698	0.37077785
115	0x3e1ddf24	0.15417153
116	0xbd96f891	-0.07371629
117	0xbe10762f	-0.14107583
118	0xbd1e7ad5	-0.03869136
119	0xbe87515b	-0.26429257
120	0xbe161cbe	-0.14659402
121	0x3d41b644	0.047292963
122	0xbb9b69e0	-0.004742846
123	0xbe1e8c2a	-0.15483156
124	0x3d4fb88e	0.050713114
125	0xbdb96283	-0.09051993
126	0xbe41a8bf	-0.18912028
127	0x3d553959	0.052056644
128	0x400fcb81	2.246796
129	0x3ba2efa9	0.0049724174
130	0xbe20beb4	-0.15697747
131	0x3ed5e124	0.4177333
132	0x3c6c9d19	0.014441752
133	0xbe533032	-0.20623854
134	0x3dbd134a	0.09232195
135	0x3c288acc	0.010286998
136	0x3db196aa	0.08671315
137	0x3e592d1c	0.21208614
138	0xbe5d22e3	-0.2159534
139	0xbdece27d	-0.11566637
140	0xbd09fe89	-0.03369001
141	0xbe92dea5	-0.2868549
142	0x3b8a92ba	0.004228917
143	0x3db67e40	0.08910799
144	0x3e37e3fe	0.17958066
145	0x3e61f355	0.2206548
146	0x3db5b5c7	0.08872562
147	0xbdf4c7df	-0.11952185
148	0x3d1fca82	0.039011486
149	0x3ee5ecab	0.44907126
150	0x3c58f83d	0.013242778
151	0xbd7426a3	-0.05960716
152	0xbce9e78f	-0.028552799
153	0x3e54135a	0.20710507
154	0xbc2de771	-0.010614262
155	0x3ebfffad	0.37499753
156	0xbf13f9ae	-0.57802856
157	0x3caf9ba4	0.02143652
158	0x3e15b453	0.1461957
159	0x3e2a1551	0.16609694
160	0x3c3eaa12	0.011637228
161	0x3dd18a06	0.10231404
162	0x3e950c92	0.29111153
163	0xbe95dbdd	-0.29269305
164	0x3eac8067	0.33691713
165	0x3eedd568	0.4645188
166	0xbeed6103	-0.46363077
167	0xbdc564b9	-0.09638352
168	0x3f5c8919	0.86146694
169	0x3d8da02d	0.06915317
170	0x3e55e27f	0.20887183
171	0xbe50af39	-0.20379342
172	0x3eb4c49c	0.3530625
173	0x3e335af9	0.17515172
174	0x3e622cc4	0.22087389
175	0xbd0dbc18	-0.03460321
176	0x3e95539e	0.29165357
177	0xbda0e1aa	-0.07855542
178	0xba1d1200	-0.0005991757
179	0xbe0deb99	-0.13859405
180	0xbd36c36c	-0.044619963
181	0x3d3968a3	0.045265805
182	0x3db02c19	0.08602161
183	0xbe3c1e17	-0.18370853
184	0xbc1ba12a	-0.009498874
185	0x3de3c432	0.11121406
186	0x3e87bd14	0.26511443
187	0x3e8e52a2	0.2779742
188	0x3d4f926a	0.05067674
189	0xbf264b50	-0.6495867
190	0xbdeacaff	-0.114645
191	0x3c6bad60	0.014384598
192	0x3e235d7f	0.15953635
193	0xbcf89fcd	-0.030349636
194	0xbe184cf2	-0.14873102
195	0x3e86bd8b	0.26316485
196	0xbe579b76	-0.21055397
197	0xbe751bd8	-0.23936403
198	0xbc0a8caf	-0.008456393
199	0xbdc4693b	-0.095903836
200	0x3c6eeace	0.014582349
201	0xbe161543	-0.14656548
202	0x3cf574d2	0.02996293
203	0x3cd87b02	0.026425842
204	0x3d8b63ba	0.06806131
205	0x3e439d35	0.19102938
206	0x3d368531	0.044560615
207	0x3e410f38	0.18853462
208	0x3e1e1359	0.15437068
209	0xbe7a4118	-0.24438894
210	0x3cbc1343	0.022958403
211	0xbeb9d473	-0.36294898
212	0x3ebd7071	0.36999848
213	0xbdf05a7f	-0.11736011
214	0xbe07e91f	-0.13272522
215	0x3de4b82c	0.111679405
216	0xbe48a5aa	-0.19594446
217	0xbe992b75	-0.29915968
218	0x3e1e0109	0.15430082
219	0x3e92edab	0.2869695
220	0x3b859ee3	0.0040777787
221	0xbeb9f134	-0.36316836
222	0x3d0f0545	0.034917135
223	0x3e2315d4	0.15926296
224	0x3c985d56	0.018599194
225	0xbf10a69a	-0.56504214
226	0xbe61e4bf	-0.22059916
227	0xbe123cd0	-0.1428101
228	0x3bfbe6bc	0.007687418
229	0xbe4e5dce	-0.20152971
230	0x3e70c329	0.23511948
231	0x3f049051	0.5178271
232	0xbd9efe5b	-0.07763358
233	0x3c1b6b1f	0.009485989
234	0x3e978d8f	0.29600188
235	0xbf44c671	-0.768653
236	0xbd4edc4a	-0.050503053
237	0xbe1ac16f	-0.15112852
238	0xbda46352	-0.08026756
239	0xbe3ea159	-0.18616237
240	0x3ca38eaf	0.019965498
241	0xbe41dd6b	-0.1893212
242	0x3ebd43d6	0.36965817
243	0x3e764e78	0.24053371
244	0xbd914c73	-0.0709466
245	0xbd548b08	-0.051890403
246	0xbeaa28d6	-0.3323428
247	0xbd22e2ed	-0.039767195
248	0x3e45f84c	0.19332999
249	0x3ecf2b68	0.40462804
250	0xbe486dc3	-0.19573121
251	0xbc5c8a93	-0.013460773
252	0xbf5f2806	-0.87170446
253	0x3c5783cd	0.013153982
254	0xbd2b42e6	-0.041811846
255	0xbe0a6dd0	-0.13518453

dist_task.0.bias f4 [128]
0	0x3d79155c	0.060811386
1	0x3dc701eb	0.09717163
2	0xbcfbb2dd	-0.030724937
3	0xbb67d888	-0.0035376865
4	0xbaa51858	-0.0012595756
5	0xbd2751ba	-0.040849425
6	0x3ce45ab1	0.027875276
7	0x3db76b90	0.08956063
8	0xbd1d4eec	-0.038405344
9	0xbc152add	-0.009104458
10	0xbd9d1080	-0.07669163
11	0xbd57512d	-0.05256765
12	0xbc8fc129	-0.01754816
13	0x3dbbda40	0.09172487
14	0xbbefc112	-0.007316717
15	0xbb21afba	-0.0024671392
16	0x3d6e6bfa	0.058208443
17	0x3d610ac7	0.05494192
18	0xbce8f2f7	-0.028436167
19	0x3cd0d9a0	0.025494397
20	0x3d71770a	0.058951415
21	0xbe3498b9	-0.17636384
22	0x3d447f10	0.04797274
23	0x3de14627	0.109997086
24	0x3d894f92	0.0670463
25	0x3e3a92d5	0.18220074
26	0xbd8d8918	-0.06910914
27	0x3da3633f	0.07977914
28	0xbd036cc0	-0.032086134
29	0x3e18d065	0.14923246
30	0x3d60134d	0.054705907
31	0xbc94d4e2	-0.018167917
32	0x3c89d830	0.016826719
33	0xbd395c1f	-0.04525387
34	0x3dd47833	0.10374489
35	0x3da92cc0	0.082604885
36	0xbd419cb6	-0.04726859
37	0x3e0c0bcd	0.13676377
38	0x3c9bd02c	0.019020163
39	0x3c62718b	0.013821016
40	0xbd4b8ef9	-0.049696896
41	0x3d72d193	0.059281897
42	0x3cb718ad	0.022350634
43	0xbdc11a8a	-0.0942889
44	0x3c2c9189	0.010532745
45	0xbdee6ca2	-0.11641814
46	0xbb83145c	-0.0040002298
47	0xbdbdd6d3	-0.0926949
48	0xbda0ef65	-0.07858161
49	0xbd9a9c33	-0.07549324
50	0xbd6aa73a	-0.057288386
51	0x3d74b578	0.059743375
52	0xbdc65770	-0.09684646
53	0x3d5ea585	0.05435707
54	0xbd4e3dee	-0.05035203
55	0x3cf6ab2b	0.030110916
56	0x3e05ec5a	0.13078442
57	0x3d032ff6	0.03202816
58	0xbbee41bc	-0.0072710197
59	0xbd9ff121	-0.078096636
60	0xbdceb826	-0.10093717
61	0x3dfef92b	0.12449869
62	0xbbecb751	-0.0072240015
63	0xba79d17c	-0.0009529812
64	0xbd891d87	-0.06695085
65	0x3c6376e7	0.013883329
66	0x3dc45c58	0.09587926
67	0x3d5cf5a5	0.053945202
68	0xbe381104	-0.17975241
69	0xbda9bce6	-0.08287983
70	0x3b725fdd	0.0036983408
71	0xbd43a2cc	-0.047762677
72	0xbc84f0fb	-0.01622819
73	0xbe0a69c6	-0.13516912
74	0x3b0fb87b	0.0021930027
75	0x3b10df3f	0.0022105721
76	0x3d9584b1	0.073006995
77	0xbda52b69	-0.080649205
78	0x3d661fc8	0.056182653
79	0xbd8eee57	-0.069790535
80	0x3e35bf97	0.17748867
81	0xbc2152bc	-0.009846386
82	0xbd7d43c5	-0.06183221
83	0x3dde9b4d	0.10869465
84	0xbdb1cdaa	-0.086818054
85	0xbc575686	-0.013143187
86	0x3dcc03b1	0.099616416
87	0x3d636706	0.055518173
88	0x3c2c437b	0.0105141355
89	0x3cc15e8d	0.023604656
90	0x3d39a5a5	0.045323987
91	0x3dfa3e3c	0.122189015
92	0xbb7b060c	-0.0038303165
93	0x3cf7c4c4	0.030245192
94	0xbc4fd1ec	-0.012684327
95	0xbd643897	-0.05571803
96	0xbd4cf77f	-0.05004072
97	0x3dc29911	0.09501851
98	0x3d874def	0.066066615
99	0x3c5346eb	0.012895326
100	0xbcc03fa0	-0.023467839
101	0x3d47888f	0.048714217
102	0xbb36c474	-0.0027888091
103	0x3ddc1c49	0.107475825
104	0xbc83ab6f	-0.016072957
105	0xbd2ebfe2	-0.042663462
106	0xbce447fb	-0.027866354
107	0x3ddb5dc3	0.10711243
108	0x3dacbd37	0.08434527
109	0xbd34103e	-0.043960802
110	0xbdcbaa4f	-0.09944593
111	0xbd6b1547	-0.05739334
112	0xbd6d9405	-0.05800249
113	0xbd7da9cd	-0.061929513
114	0xbdeea1d8	-0.11651963
115	0xbc5cf4a4	-0.013486061
116	0xbd916221	-0.07098795
117	0x3d9810dd	0.074250914
118	0xbd64be10	-0.05584532
119	0x3c8eba47	0.017422808
120	0xbdf44fb8	-0.11929268
121	0x3ddcb1c9	0.10776097
122	0x3d097173	0.03355546
123	0x3da1e1e9	0.07904417
124	0xbd459e3a	-0.0482466
125	0x3e00edbb	0.12590687
126	0x3df62d28	0.120203316
127	0x3c9acc77	0.018896325
