scripts/learning/models/[256,256,256]_best.pth (torch_old, 543447 bytes, 8 tensors)

layers.0.0.weight f4 [256, 12]
-0.53605795 0.25141457 -0.048678603 0.0018782611 -0.014159919 0.2854148 0.00013511097 0.26923612
0.010297815 0.1846594 0.85249925 0.06669239 -0.1958483 0.1606192 0.078359365 -0.046971172
-0.04377702 -0.11154905 0.16089472 0.05618176 0.06077513 -0.27563983 -0.23885031 -0.038211793
0.43144724 0.122953765 0.28376365 0.14299603 -0.08864165 0.004975438 0.3540092 0.077366956
-0.1182814 -0.044849668 0.2737702 -0.06284995 -0.19167006 -0.39109397 -0.050099608 0.111306496
0.1339002 -0.4725991 -0.57467777 -0.062162008 0.021178711 0.20757154 -0.4382371 0.07704942
-0.5791366 0.48009944 -0.054349784 -0.0061463113 0.1622126 -0.20462254 -0.24815534 -0.15827768
0.07510173 0.07380957 0.17443019 0.34882244 0.002438994 0.25828433 0.18558984 -0.10567079
-0.14803363 -0.3651878 -0.32241502 -0.103400625 0.075653195 0.060437016 -0.293053 -0.07875443
-0.36679125 -0.29551184 -0.34377325 -0.021019991 0.05546537 -0.35349378 0.16822776 -0.18664473
0.19648802 -0.06887904 0.40047306 -0.01949185 0.29649112 -0.38234115 0.077716164 -0.21114117
0.08836103 0.40258396 0.08285244 -0.11309696 0.01799626 -0.16033293 0.31375256 0.16496733
0.19482471 -0.4644807 0.26529136 0.13827637 -0.19733348 0.36488006 0.23344047 -0.2379324
-0.04579769 -0.12654291 -0.009039444 0.1236225 0.082705006 0.2196505 0.16577187 0.0137184225
-0.03355379 -0.31791967 -0.0803646 0.25619644 0.17289506 0.16151547 0.40082437 -0.5009381
-0.57043636 -0.097979374 0.004815866 -0.014200411 0.25069526 0.5360481 0.32749978 0.034857422
0.1528044 -0.0034985463 0.49984306 0.15833189 0.48078063 -0.08837947 0.26413175 -0.057067893
-0.13694565 -0.3698178 -0.115452856 0.10083477 0.239522 0.017250724 0.2987145 -0.05788333
-0.021897089 0.068085715 -0.30566484 0.15460227 -0.067621075 0.1947746 0.2585303 0.16085516
0.042895716 0.16015089 0.4892578 -0.032978974 0.1487581 0.19896652 -0.057610285 0.0836925
0.13662255 -0.49605355 -0.47998026 0.11577647 0.1165089 -0.18043345 -0.40353015 0.1349701
0.23530185 -0.3306524 -0.07070414 -0.10002201 -0.08795875 0.023223797 -0.06921819 -0.20393041
-0.08031043 0.26287872 0.5237362 0.08177252 0.63426584 0.22796519 0.20475319 -0.00041473386
0.22666404 -0.694162 -0.6529846 0.12984617 -0.022908995 -0.004389873 -0.2950052 -0.07023857
-0.09671626 0.22791147 -0.046212014 -0.06155315 0.004552331 0.14615029 0.11336657 -0.23697117
0.21646196 0.0332665 -0.39493445 0.23089923 -0.02026431 0.35108876 0.08023454 -0.17565763
-0.09216267 0.52626055 0.02976149 0.009854851 0.13852447 -0.12447196 0.14559202 0.011528654
-0.2627193 -0.28727216 0.005138996 0.13114841 0.18197362 -0.28313333 0.09213054 -0.27060178
0.1847794 -0.16605368 0.12674828 -0.78906983 -0.11335646 0.29357934 0.21273969 0.079791695
0.17330158 -0.17132285 -0.24742763 -0.2002178 0.01562939 0.117599964 0.592082 0.2476085
0.28480986 0.104545884 -0.0851349 -0.19104403 0.21248475 -0.16450164 -0.36875144 -0.10741051
0.023639569 -0.14308438 0.48208067 0.14175905 -0.019361995 0.34109855 0.051406015 0.03399462
00000000: 183b 09bf 69b9 803e 3763 47bd fc2f f63a
00000010: 01ff 67bc e321 923e 93ac 0d39 51d9 893e
00000020: 2bb8 283c 5b17 3d3e 643d 5a3f 0596 883d
00000030: 758c 48be 5c79 243e e07a a03d d864 40bd
00000040: 884f 33bd d473 e4bd 96c1 243e d81e 663d
00000050: 58ef 783d aa20 8dbe 2d95 74be f883 1cbd
00000060: a7e6 dc3e 2fcf fb3d 7849 913e 8d6d 123e
00000070: c189 b5bd 0009 a33b b240 b53e 9172 9e3d
00000080: 853d f2bd 49b4 37bd 9c2b 8c3e 79b7 80bd
00000090: 2845 44be 783d c8be 3f35 4dbd a9f4 e33d
000000a0: 221d 093e 82f8 f1be 151e 13bf 979d 7ebd
000000b0: fa7e ad3c a28d 543e 9d60 e0be 16cc 9d3d
000000c0: 4c42 14bf 98cf f53e e19d 5ebd ff66 c9bb
000000d0: 0f1b 263e 9288 51be 6f1c 7ebe 8b13 22be
000000e0: f0ce 993d 7929 973d d49d 323e db98 b23e
000000f0: 87d7 1f3b d83d 843e 430b 3e3e ed69 d8bd
00000100: 2196 17be e5f9 babe 9513 a5be b5c3 d3bd
00000110: 10f0 9a3d ce8c 773d 0b0b 96be 014a a1bd
00000120: 10cc bbbe 544d 97be 0c03 b0be 1e32 acbc
00000130: a82f 633d 23fd b4be e643 2c3e cc1f 3fbe
00000140: 2834 493e 7410 8dbd ce0a cd3e 5fad 9fbc
00000150: afcd 973e 38c2 c3be a729 9f3d 6435 58be
00000160: a1f6 b43d 7c1f ce3e 8aae a93d 619f e7bd
00000170: e56c 933c 512e 24be 2da4 a03e 32ed 283e
00000180: 2180 473e 6ad0 edbe 45d4 873e 5298 0d3e
00000190: ca11 4abe 8fd1 ba3e 050b 6f3e 8da4 73be
000001a0: 5c96 3bbd 7794 01be 2d1a 14bc cb2d fd3d
000001b0: 3e61 a93d 10ec 603e 1ac0 293e 3cc3 603c
000001c0: b36f 09bd 5ec6 a2be 3296 a4bd 2e2c 833e
000001d0: 670b 313e 5064 253e da38 cd3e 7b3d 00bf
000001e0: 1e08 12bf 69a9 c8bd 69ce 9d3b d7a8 68bc
000001f0: 215b 803e 733a 093f 0dae a73e a8c6 0e3d
00000200: c278 1c3e de47 65bb 6eeb ff3e c121 223e
00000210: e128 f63e 4c00 b5bd 473c 873e 06c0 69bd
00000220: 7b3b 0cbe c258 bdbe 8c72 ecbd 7682 ce3d
00000230: 4145 753e 6451 8d3c 1bf1 983e 1217 6dbd
00000240: 8661 b3bc 8670 8b3d 1a80 9cbe 0f50 1e3e
00000250: eb7c 8abd fe72 473e 155e 843e 37b7 243e
00000260: 6bb3 2f3d 98fe 233e 0080 fa3e f614 07bd
00000270: 0b54 183e e1bd 4b3e c3f8 6bbd f966 ab3d
00000280: c8e6 0b3e bbfa fdbe f9bf f5be 371c ed3d
00000290: 389c ee3d 8cc3 38be 819b cebe 9a35 0a3e
000002a0: f8f2 703e 454b a9be 55cd 90bd 57d8 ccbd
000002b0: b823 b4bd d53f be3c 44c2 8dbd 22d3 50be
000002c0: cb79 a4bd 0a98 863e 9313 063f 5a78 a73d
000002d0: 3f5f 223f b56f 693e d2aa 513e a370 d9b9
000002e0: 9e1a 683e 9ab4 31bf 002a 27bf 65f6 043e
000002f0: a5ab bbbc ecd8 8fbb ec0a 97be 3dd9 8fbd
00000300: 2d13 c6bd a061 693e cf48 3dbd 281f 7cbd
00000310: b82b 953b 6ca8 153e bb2c e83d 92a8 72be
00000320: 34a8 5d3e 7442 083d d934 cabe d970 6c3e
00000330: 5701 a6bc e8c1 b33e 0252 a43d 98df 33be
00000340: c8bf bcbd 03b9 063f 5ece f33c 3e76 213c
00000350: 5cd9 0d3e 28eb febd 1316 153e aee2 3c3c
00000360: 2583 86be 5615 93be 0665 a83b c54b 063e
00000370: 4b57 3a3e daf6 90be f0ae bc3d 518c 8abe
00000380: d036 3d3e fa09 2abe 4dca 013e 7b00 4abf
00000390: 6f27 e8bd 0850 963e 6fd8 593e d469 a33d
000003a0: f875 313e 426f 2fbe ab5d 7dbe e505 4dbe
000003b0: 3509 803c 40d8 f03d b092 173f 158d 7d3e
000003c0: 99d2 913e 271c d63d 355b aebd 0ca1 43be
000003d0: 9a95 593e 1e73 28be fdcc bcbe 0bfa dbbd
000003e0: c5a7 c13c b684 12be 47d3 f63e 4929 113e
000003f0: 0c9d 9ebc 78a4 ae3e 1d8f 523d f13d 0b3d

layers.0.0.bias f4 [256]
-0.10516006 -0.28781083 -0.13158073 -0.03463614 -0.04126751 0.17707308 0.14290425 0.0387735
0.10923924 0.096876845 -0.2528433 -0.19965254 -0.20599483 0.115969546 -0.13734496 0.167262
0.02716883 -0.09099638 -0.0039986456 -0.11753401 -0.21698833 0.22542349 -0.08120563 -0.0019913337
0.030982869 -0.2206506 0.11887454 0.2002838 0.15910809 -0.08581664 0.29019612 -0.1135568
0.05034886 -0.19466875 -0.31690195 0.31993797 0.16600321 -0.08358848 0.06670806 0.0853039
-0.23285243 -0.15160663 0.13110454 -0.03831034 -0.07533743 -0.016917646 0.24805406 0.048826274
0.044030353 -0.07003127 -0.3380367 -0.09514832 -0.28055143 -0.14544424 -0.119655415 0.06485453
-0.09077841 -0.23668283 -0.024653884 -0.022982912 0.039311472 0.176282 0.031989716 0.06715848
0.20313309 -0.11147819 0.14587745 -0.17337708 -0.26572174 -0.034018237 0.02676981 -0.33067143
-0.11288434 0.26048005 0.13696705 0.24580684 -0.19560324 -0.19909966 0.04852775 -0.12350137
-0.03835602 -0.15815206 0.2390365 0.24348728 0.17398176 0.062967636 0.13758586 -0.08208415
0.24029689 0.07655857 0.125608 0.25170067 -0.11826894 0.1454218 0.12725839 -0.1926076
-0.0052414304 0.0729511 -0.15857133 0.11749555 0.15152822 0.051696457 0.17330985 -0.06847094
0.26004136 0.21302831 0.20692964 -0.03676091 -0.12023319 0.01538188 -0.07574432 -0.19452856
0.033619925 -0.11600712 0.03048417 0.032665983 -0.12807111 0.22717956 -0.17030726 0.26612768
0.21130805 0.1326346 -0.05229646 -0.2146351 0.29215366 -0.1928287 0.051613096 -0.09519886
-0.20074156 -0.20060515 0.08591751 -0.34120223 -0.14921184 -0.28104958 -0.17102137 -0.059274543
0.1085131 0.15626433 -0.2515606 0.28164476 0.1359115 0.26017916 -0.16988723 0.22457108
0.019588966 0.34341756 0.09583373 0.27084914 -0.01813863 0.21254604 0.26153874 -0.046704624
-0.08071084 -0.17192967 -0.18186447 0.05424118 -0.115906045 0.22502233 -0.014066387 -0.11450447
0.14144982 0.07524756 -0.047286913 -0.17786507 0.11238837 0.15108511 0.11379476 0.071509935
-0.03347094 0.16566741 -0.11195664 0.20010246 -0.15856914 -0.11460868 -0.2901097 -0.041234918
0.20993364 0.119741425 0.05639905 0.16697662 -0.32398632 -0.024439206 0.10574666 -0.25634366
-0.28603908 -0.2347622 -0.012033969 -0.08110561 0.28873384 0.21400169 0.18737955 -0.2815961
0.24170518 0.21828607 0.037392527 -0.16813861 -0.037687294 -0.03493184 0.04436473 -0.21721633
-0.02441279 0.21416897 0.0033020761 0.22889283 0.06262841 -0.0033140916 0.23321958 0.071456
0.24566355 -0.277048 -0.064577915 0.25073746 -0.06193624 0.115184665 0.22573262 -0.039231908
0.076014735 0.06331485 -0.26503235 0.23516086 0.2117574 -0.14781679 0.050080054 0.23332886
-0.2497558 -0.010238583 0.16697894 0.025908988 0.07053723 0.220206 -0.22288829 0.15991172
-0.19096696 0.2510125 0.013643617 -0.18741968 0.15429601 0.22162984 -0.3499699 -0.22971332
-0.10309993 -0.03496601 -0.043308727 0.2473047 0.030262703 0.08435298 0.14920081 0.20710655
0.14372736 0.1951651 0.3011341 0.13210925 -0.25971594 0.19056638 -0.11912415 -0.20570447
00000000: 285e d7bd f15b 93be 19bd 06be a0de 0dbd
00000010: 1f08 29bd a552 353e 7e55 123e f6d0 1e3d
00000020: d3b8 df3d 5e67 c63d ad74 81be b771 4cbe
00000030: 4ff0 52be 7181 ed3d 28a4 0cbe bb46 2b3e
00000040: 2b91 de3c 4f5c babd 1207 83bb acb5 f0bd
00000050: 3032 5ebe 6ad5 663e 234f a6bd 0981 02bb
00000060: c9cf fd3c 3bf2 61be 7f74 f33d 3217 4d3e
00000070: 3bed 223e a2c0 afbd 9694 943e 7890 e8bd
00000080: 9b3a 4e3d 3f57 47be f940 a2be e9ce a33e
00000090: bffc 293e 7030 abbd 3c9e 883d d0b3 ae3d
000000a0: de70 6ebe c53e 1bbe 4540 063e 4eeb 1cbd
000000b0: 834a 9abd e096 8abc e201 7e3e 0ffe 473d
000000c0: 2c59 343d 8e6c 8fbd 2513 adbe 1fdd c2bd
000000d0: 70a4 8fbe 56ef 14be e60d f5bd 74d2 843d
000000e0: 08ea b9bd fc5c 72be f1f6 c9bc a946 bcbc
000000f0: 1105 213d 4583 343e a607 033d 638a 893d
00000100: 1f02 503e ad4e e4bd e660 153e c389 31be
00000110: ae0c 88be b556 0bbd 5c4c db3c c44d a9be
00000120: e82f e7bd a45d 853e 1741 0c3e cab4 7b3e
00000130: 374c 48be c8e0 4bbe 09c5 463d 49ee fcbd
00000140: 341b 1dbd 9df2 21be fcc5 743e bb54 793e
00000150: 4628 323e 2df5 803d 4fe3 0c3e bc1b a8bd
00000160: 6310 763e bdca 9c3d 629f 003e e9de 803e
00000170: fc36 f2bd 74e9 143e 0650 023e ed3a 45be
00000180: 4ec0 abbb 6367 953d 8660 22be 82a1 f03d
00000190: 372a 1b3e aabf 533d 2378 313e 7e3a 8cbd
000001a0: 2424 853e 1824 5a3e 5de5 533e 9c92 16bd
000001b0: d23c f6bd 4804 7c3c d71f 9bbd 7f32 47be
000001c0: 0cb5 093d 2495 edbd f0b9 f93c c4cc 053d
000001d0: 1325 03be c2a1 683e 0765 2ebe e341 883e
000001e0: 2361 583e 5dd1 073e d034 56bd 4ec9 5bbe
000001f0: 2a95 953e e374 45be 4168 533d 9ff7 c2bd
00000200: 328f 4dbe 706b 4dbe 85f5 af3d 0fb2 aebe
00000210: fdca 18be bbe5 8fbe 3a20 2fbe ddc9 72bd
00000220: 1e3c de3d c203 203e 8dcc 80be be33 903e
00000230: 622c 0b3e 3436 853e ebf6 2dbe f6f5 653e
00000240: 0a79 a03c 6dd4 af3e 7a44 c43d bdac 8a3e
00000250: 7797 94bc aba5 593e 68e8 853e 594d 3fbd
00000260: ba4b a5bd 550e 30be ae3a 3abe 002c 5e3d
00000270: 2660 edbd 416c 663e b476 66bc 5281 eabd
00000280: 39d8 103e 651b 9a3d ecaf 41bd 4322 36be
00000290: e02b e63d 0eb6 1a3e 3a0d e93d cd73 923d
000002a0: d318 09bd b8a4 293e 8649 e5bd a9e7 4c3e
000002b0: f35f 22be f5b7 eabd 4289 94be f2e5 28bd
000002c0: d8f8 563e fe3a f53d b102 673d ebfb 2a3e
000002d0: 89e1 a5be bb34 c8bc b491 d83d 7a3f 83be
000002e0: b773 92be 8165 70be 202a 45bc b31a a6bd
000002f0: ecd4 933e 4223 5b3e 6de0 3f3e 5d2d 90be
00000300: 9081 773e 6286 5f3e e828 193d 872c 2cbe
00000310: fe5d 1abd b014 0fbd cbb7 353d f56d 5ebe
00000320: 55fd c7bc 1c4f 5b3e a567 583b e262 6a3e
00000330: 5343 803d 3b31 59bb 1dd1 6e3e 8657 923d
00000340: 3a8f 7b3e 3cd9 8dbe 6d41 84bd a960 803e
00000350: dbb0 7dbd f0e5 eb3d 7426 673e a3b1 20bd
00000360: 9dad 9b3d 37ab 813d 52b2 87be 02ce 703e
00000370: efd6 583e 495d 17be be20 4d3d c3ed 6e3e
00000380: fcbf 7fbe bbbf 27bc 87fc 2a3e 163f d43c
00000390: d375 903d af7d 613e d43c 64be e6bf 233e
000003a0: d88c 43be b684 803e 7a89 5f3c f2ea 3fbe
000003b0: c6ff 1d3e eff2 623e 412f b3be f839 6bbe
000003c0: 0e26 d3bd 8538 0fbd 7e64 31bd 713d 7d3e
000003d0: 7de9 f73c 41c1 ac3d 19c8 183e bd13 543e
000003e0: 442d 133e 5cd9 473e 402e 9a3e a647 073e
000003f0: 7df9 84be d523 433e 5df7 f3bd 31a4 52be

layers.1.0.weight f4 [256, 256]
0.019141654 -0.0071900114 0.06608952 -0.03736933 0.020389818 0.107945815 -0.08839682 -0.081657596
0.032559674 -0.015055891 -0.06595348 0.0066907043 -0.09341327 0.06573135 0.10214689 0.025124704
-0.013068322 -0.03586782 -0.048175562 -0.013961041 -0.37598118 0.037540715 0.06443502 0.047072254
0.007115787 0.10080088 -0.048342414 0.030637205 0.04231236 0.06345776 -0.010268019 -0.016236745
-0.024867084 -0.43358824 0.1586947 -0.015614743 0.018368931 -0.045017008 0.017535664 -0.0043930756
0.021721005 -0.078737 -0.034180913 -0.102303065 -0.07698093 -0.05606369 0.065125145 -0.032165002
0.039693262 -0.20597498 -0.8497337 0.012324664 -0.022514744 -0.0054723527 0.0499736 -0.09880869
0.013745489 0.04392344 -0.04023504 -0.007943402 0.0097430665 -0.0057876706 -0.11601947 0.006613049
0.056747276 0.07685345 -0.03368004 0.057542026 0.03883677 -0.213332 -0.005681989 -0.030046603
-0.3145905 0.021844162 0.0070808176 0.054596964 0.019939763 -0.079132274 0.014342314 0.025827171
0.021570612 -0.12638138 -0.04630018 0.030165764 -0.024146097 0.030628191 -0.17645645 0.0333413
-0.063980445 -0.1028336 0.013097815 -0.030071925 -0.11074403 -0.029014226 0.033208787 -0.16155146
-0.018226262 0.058380272 0.017145537 0.13951132 0.008036931 -0.031509154 -0.0019782279 -0.033326373
0.050591897 -0.03466927 0.089128256 -0.033698898 -0.027778191 -0.033167865 -0.038085125 0.043524507
-0.046640225 -0.09048738 -0.22463363 0.03560071 -0.10732625 0.10052236 0.046776373 0.03334506
0.08668058 -0.057972506 -0.027525341 0.012860668 -0.06617038 0.0085553285 -0.0049580997 -0.11440627
-0.045634165 -0.21061353 0.020102633 -0.12744275 0.008668942 0.018911803 0.06656052 -0.018779755
0.058946256 -0.078913465 -0.15843368 0.016220372 -0.0060938313 0.046430193 0.12715714 0.11784712
-0.046102073 0.025823751 -0.0018935545 -0.061421208 -0.018779814 -0.0040693404 0.021847965 0.05481462
-0.08835935 -0.12249416 -0.0679633 -0.05879631 0.026795 -0.020242753 -0.04544386 -0.05596406
-0.021583604 -0.036140002 -0.0075924248 -0.00904757 0.0657776 -0.075977854 -0.0049250526 -0.03892758
-0.03377673 0.0039901743 -0.1149802 -0.01085197 -0.060763415 -0.08090428 -0.039285365 -0.074830994
0.08105526 0.03490153 -0.0051110596 -0.038484603 0.041594643 0.008597689 0.07909391 0.13274479
0.023724101 0.04364414 -0.16181019 0.044937205 0.01021938 0.028942551 0.0802069 -0.007970959
0.0867369 0.106117174 0.032284945 -0.056427784 -0.077657394 -0.0219567 -0.047494344 0.05275962
-0.21441725 0.015213085 -0.15797466 0.055201694 -0.1062814 -0.14298868 0.008854439 -0.13695352
-0.063666604 -0.03825605 0.0018895838 0.017711485 0.106251985 -0.05521818 0.053048056 -0.089140855
0.04865386 0.02114481 0.0038444996 0.021404345 -0.027348828 0.077562965 -0.06596619 -0.020256426
-0.006945603 0.024472833 -0.010940105 0.0708347 -0.020692954 0.073671594 -0.05084626 0.09192354
-0.087109454 0.036045663 0.033483095 -0.05813675 -0.009901842 -0.06435638 0.038079347 -0.07196215
0.040209055 -0.0510057 0.009620735 -0.022035107 0.03618932 -0.09753638 0.021222364 0.009593976
-0.047057077 -0.037979946 -0.023872953 0.032538358 -0.101916805 0.039450213 -0.082898304 -0.13284428
00000000: f5ce 9c3c 309a ebbb f159 873d 9510 19bd
00000010: 8c08 a73c b212 dd3d 6409 b5bd 193c a7bd
00000020: 4b5d 053d fcac 76bc 9e12 87bd b23d db3b
00000030: 754f bfbd 289e 863d 6332 d13d 53d2 cd3c
00000040: 841c 56bc 23ea 12bd bd53 45bd dabc 64bc
00000050: 9b80 c0be 4bc4 193d 82f6 833d d6ce 403d
00000060: 8c2b e93b b170 ce3d b202 46bd e0fa fa3c
00000070: ba4f 2d3d 24f6 813d 313b 28bc ec02 85bc
00000080: 0eb6 cbbc 47ff ddbe dd80 223e fbd4 7fbc
00000090: 717a 963c c163 38bd f4a6 8f3c caf3 8fbb
000000a0: 40f0 b13c dd40 a1bd 4901 0cbd 4584 d1bd
000000b0: 2ea8 9dbd 0aa3 65bd 5560 853d 73bf 03bd
000000c0: 6795 223d 1beb 52be 2688 59bf 63ed 493c
000000d0: d770 b8bc 6c51 b3bb 1eb1 4c3d 365c cabd
000000e0: c234 613c 11e9 333d 7fcd 24bd 0b25 02bc
000000f0: 62a1 1f3c 80a6 bdbb 9e9b edbd 47b2 d83b
00000100: d56f 683d 5765 9d3d 15f4 09bd 30b1 6b3d
00000110: 4e13 1f3d b473 5abe fa2f babb 4b24 f6bc
00000120: 0212 a1be 87f2 b23c 3406 e83b 11a1 5f3d
00000130: b758 a33c 1a10 a2bd 06fc 6a3c 8193 d33c
00000140: dab4 b03c 1f6a 01be 42a5 3dbd 311e f73c
00000150: 09ce c5bc f9e7 fa3c 00b1 34be e390 083d
00000160: 2e08 83bd 6c9a d2bd 3898 563c 6659 f6bc
00000170: c4cd e2bd 3eaf edbc f005 083d bf6d 25be
00000180: 3e4f 95bc 2720 6f3d cc74 8c3c 0edc 0e3e
00000190: 55ad 033c be0f 01bd 28a5 01bb 3c81 08bd
000001a0: 7339 4f3d 5d01 0ebd e088 b63d db07 0abd
000001b0: 178f e3bc 07db 07bd 26ff 1bbd c146 323d
000001c0: d209 3fbd 7351 b9bd 5c06 66be 0dd2 113d
000001d0: ddcd dbbd abde cd3d 9598 3f3d d494 083d
000001e0: 9785 b13d 9474 6dbd d37c e1bc 8db5 523c
000001f0: 5684 87bd a62b 0c3c 8e77 a2bb d64d eabd
00000200: e4ea 3abd 13ab 57be 47ae a43c 5a80 02be
00000210: 2e08 0e3c edec 9a3c e250 883d 00d8 99bc
00000220: a171 713d 629d a1bd 703c 22be 96e0 843c
00000230: c3ae c7bb 962d 3e3d 7b35 023e d559 f13d
00000240: 87d5 3cbd 558c d33c 2531 f8ba ce94 7bbd
00000250: 20d8 99bc 1a58 85bb 81fa b23c 4c85 603d
00000260: bff5 b4bd 38de fabd 5830 8bbd 66d4 70bd
00000270: 3081 db3c 21d4 a5bc 5723 3abd 923a 65bd
00000280: 19d0 b0bc 8a07 14bd e0c9 f8bb 423c 14bc
00000290: 68b6 863d 479a 9bbd 5662 a1bb 8772 1fbd
000002a0: 7859 0abd 02c0 823b bd7a ebbd 76cc 31bc
000002b0: 0fe3 78bd 25b1 a5bd b1e9 20bd fe40 99bd
000002c0: 4d00 a63d e8f4 0e3d ad7a a7bb 08a2 1dbd
000002d0: 255f 2a3d 52dd 0c3c fdfb a13d 40ee 073e
000002e0: 0c59 c23c 33c4 323d 92b1 25be 1310 383d
000002f0: 306f 273c ee18 ed3c 8443 a43d a098 02bc
00000300: 1ea3 b13d f653 d93d 383d 043d d220 67bd
00000310: d70a 9fbd 8ade b3bc 6e89 42bd 791a 583d
00000320: 3290 5bbe 4e40 793c 1cc4 21be 2c1b 623d
00000330: 10aa d9bd a06b 12be 3512 113c 8b3d 0cbe
00000340: a363 82bd 60b2 1cbd e9ab f73a ad17 913c
00000350: a49a d93d 752c 62bd eb48 593d 7b8f b6bd
00000360: 4549 473d e137 ad3c 00f4 7b3b 2a58 af3c
00000370: a60a e0bc 55d9 9e3d 4819 87bd cef0 a5bc
00000380: f197 e3bb 407b c83c 203e 33bc c811 913d
00000390: 4584 a9bc 22e1 963d 2b44 50bd 6942 bc3d
000003a0: 7166 b2bd 9ea4 133d 9225 093d cd20 6ebd
000003b0: 563b 22bc 47cd 83bd 17f9 1b3d e460 93bd
000003c0: 40b2 243d 5aeb 50bd 4aa0 1d3c f882 b4bc
000003d0: 413b 143d 27c1 c7bd 86da ad3c 0d30 1d3c
000003e0: ecbe 40bd dc90 1bbd 3691 c3bc f146 053d
000003f0: c2b9 d0bd 8c96 213d 96c6 a9bd 5508 08be

layers.1.0.bias f4 [256]
0.028902 0.057277475 0.015213838 0.039501313 -0.050860215 0.015684636 0.031597335 0.025725525
-0.026653307 0.03584087 0.047455303 -0.06738915 -0.014843852 -0.037717834 0.044812854 0.013639317
0.00044638402 -0.08342122 -0.060020417 0.0018131183 -0.01004565 -0.0030632252 0.012183965 0.049905848
-0.054443736 -0.015200471 -0.03152743 -0.023733266 0.010608126 0.04971604 -0.037385106 0.06959581
0.06312096 -0.079060085 0.051494345 0.015080575 -0.0715981 -0.039266452 -0.014556288 0.042542633
0.0652228 -0.027949268 0.024095431 0.04763564 -0.021697469 0.028591791 0.019342735 -0.08769265
-0.02109234 -0.026482034 -0.036153454 0.03460294 0.0030658194 -0.001071699 -0.028525174 0.016115662
0.06453996 0.03890515 -0.046771523 0.044758365 -0.024234673 0.014736295 -0.01786179 0.07443949
-0.013245021 0.05366611 0.02668543 -0.02911571 0.06370066 -0.059885345 0.0016925465 -0.060874064
-0.024076626 -0.062099986 0.06840413 -0.0031179008 -0.07233813 0.083516456 0.0065836515 0.050378893
-0.03655151 -0.04486722 -0.00085898384 -0.058036923 -0.021228893 -0.029533291 0.0389096 0.08132243
-0.015561546 -0.0034761187 0.026232498 -0.046218853 -0.014237453 0.076742135 0.0025803223 -0.039292768
-0.07255098 0.071052514 0.09015094 0.011113794 0.021302635 0.06737803 0.037019357 -0.041068584
-0.004411052 -0.018221125 0.046553966 0.05174172 0.005302943 -0.11106653 0.062135804 -0.025302988
0.045657277 0.068818584 -0.035183523 0.013097609 -0.05536255 0.0015884174 -0.015482016 0.013833642
0.019072866 0.0819754 0.013739379 -0.08850165 -0.007640926 0.014839075 0.004710881 -0.074668266
0.0060938033 0.021851566 -0.043884844 0.020868892 0.0066814255 -0.023103874 -0.009664198 -0.024419652
0.07072635 0.059069995 -0.011700791 -0.019174574 0.065058224 0.055484667 0.02849353 -0.020538565
-0.057759397 0.023292813 -0.053976055 -0.054950956 -0.050219595 0.049537133 0.04526803 -0.021458518
-0.006763697 0.030025298 0.045350444 0.07299152 -0.0035367662 -0.04763682 0.06941864 0.07591724
-0.021457424 -0.00931257 0.045317847 -0.03493719 0.022404477 0.077423945 -0.036468375 -0.028346393
-0.02650764 -0.062371258 -0.06910832 0.06541623 -0.012871244 0.043450832 -0.07689837 0.029780693
0.03511541 0.000259135 -0.0365423 0.05885812 0.06106874 0.048402555 0.047781426 -0.046963893
0.0060117957 -0.03685702 0.014148951 0.029594924 0.08009651 0.032190803 -0.034693614 -0.046687018
-0.055212975 -0.054636568 -0.043648567 0.05125074 -0.0071314 -0.025362821 -0.058321644 0.036261708
-0.026930025 0.005231588 -0.019182289 0.00072534906 -0.024297718 0.05899853 -0.011094848 -0.029069152
0.047911543 0.011967084 -0.013500699 0.036742214 0.0642532 0.018943774 0.015812047 -0.043013476
0.049188986 -0.008638618 0.022273395 0.075916246 0.05343587 -0.0471035 -0.017101761 0.0032290057
-0.014086814 0.0011762058 0.0559468 0.037540857 0.034976583 -0.013128288 -0.00039254964 0.033504467
-0.023139998 0.023750504 -0.0033689355 -0.027142854 -0.03531215 -0.044717636 -0.041298762 0.05644175
0.0025911352 0.008637141 0.033321634 0.05401151 0.028396182 0.05909202 0.03151455 0.04838232
0.01138722 -0.030666212 -0.04026174 -0.040211096 0.017203066 -0.013982381 0.045791194 -0.0012989431
00000000: e3c3 ec3c c99b 6a3d 7643 793c 21cc 213d
00000010: cd52 50bd 117d 803c 356c 013d 56be d23c
00000020: 0958 dabc e0cd 123d 7e60 423d 5303 8abd
00000030: a133 73bc 047e 1abd af8d 373d 7177 5f3c
00000040: a608 ea39 bfd8 aabd f8d7 75bd 28a6 ed3a
00000050: 8396 24bc 64c0 48bb 419f 473c 136a 4c3d
00000060: 6500 5fbd 650b 79bc e822 01bd 446c c2bc
00000070: b5cd 2d3c 0ca3 4b3d 2021 19bd 3f88 8e3d
00000080: 9045 813d 41ea a1bd bceb 523d 8414 773c
00000090: 06a2 92bd dcd5 20bd 7f7d 6ebc 2f41 2e3d
000000a0: 8893 853d ddf5 e4bc c863 c53c 971d 433d
000000b0: e4be b1bc 5539 ea3c a874 9e3c 3498 b3bd
000000c0: d8c9 acbc daf0 d8bc a515 14bd d0bb 0d3d
000000d0: eaeb 483b 4078 8cba a0ad e9bc fe04 843c
000000e0: 872d 843d 025b 1f3d 7f93 3fbd 8c54 373d
000000f0: cb87 c6bc 8070 713c e352 92bc bb73 983d
00000100: a501 59bc ffd0 5b3d 679b da3c 1284 eebc
00000110: 7e75 823d 564a 75bd 70d8 dd3a 1557 79bd
00000120: 583c c5bc 8e5c 7ebd 7717 8c3d b255 4cbb
00000130: 0326 94bd ad0a ab3d acbb d73b 195a 4e3d
00000140: 09b7 15bd b1c6 37bd 6e2d 61ba 20b8 6dbd
00000150: 37e8 adbc cdef f1bc ac5f 1f3d 608c a63d
00000160: dbf5 7ebc 98cf 63bb 89e5 d63c fb4f 3dbd
00000170: 3544 69bc fb2a 9d3d a01a 293b 74f1 20bd
00000180: 9c95 94bd fb83 913d 0ea1 b83d a116 363c
00000190: dd82 ae3c 7efd 893d 9ca1 173d 8837 28bd
000001a0: 968a 90bb 7844 95bc 5faf 3e3d 20ef 533d
000001b0: 4fc4 ad3b d976 e3bd 1d82 7e3d 3648 cfbc
000001c0: 2003 3b3d c2f0 8c3d 991c 10bd 5b97 563c
000001d0: d7c3 62bd 7232 d03a 48a8 7dbc 80a6 623c
000001e0: b33e 9c3c b8e2 a73d 221b 613c 5a40 b5bd
000001f0: bc60 fabb 971f 733c bc5d 9a3b adeb 98bd
00000200: 87ae c73b 0e02 b33c 98c0 33bd 3df5 aa3c
00000210: dcef da3b 5644 bdbc 9656 1ebc b90b c8bc
00000220: fad8 903d 61f3 713d adb4 3fbc ff13 9dbc
00000230: 3f3d 853d e443 633d 436b e93c 7e40 a8bc
00000240: 1e95 6cbd 92d0 be3c ff15 5dbd 4114 61bd
00000250: 10b3 4dbd 73e7 4a3d f86a 393d c6c9 afbc
00000260: 01a2 ddbb 9df7 f53c 63c1 393d 947c 953d
00000270: 17c9 67bb d31e 43bd 5c2b 8e3d 7f7a 9b3d
00000280: 7bc7 afbc c093 18bc 359f 393d 4d1a 0fbd
00000290: 9889 b73c 7290 9e3d dd5f 15bd b236 e8bc
000002a0: 8d26 d9bc 0179 7fbd aa88 8dbd f2f8 853d
000002b0: e9e1 52bc 80f9 313d e57c 9dbd a4f6 f33c
000002c0: 2dd5 0f3d 83dc 8739 61ad 15bd 3615 713d
000002d0: 3723 7a3d c241 463d 75b6 433d 365d 40bd
000002e0: 99fe c43b 63f7 16bd 00d1 673c 0e71 f23c
000002f0: a409 a43d 81da 033d e41a 0ebd e33a 3fbd
00000300: 0027 62bd 98ca 5fbd d7c8 32bd 4cec 513d
00000310: 85ae e9bb b1c5 cfbc ade2 6ebd 2887 143d
00000320: 5b9c dcbc be6d ab3b 2d24 9dbc 5a25 3e3a
00000330: 020c c7bc 71a8 713d 2ac7 35bc 6e22 eebc
00000340: e53e 443d 9711 443c 0932 5dbc 017f 163d
00000350: 2f97 833d f92f 9b3c 4488 813c e62e 30bd
00000360: 647a 493d fd88 0dbc b276 b63c fa79 9b3d
00000370: 92df 5a3d 9aef 40bd fe18 8cbc ba9d 533b
00000380: 61cc 66bc eb2a 9a3a 7928 653d 71c4 193d
00000390: 9b43 0f3d 0818 57bc 1fcf cdb9 fb3b 093d
000003a0: 1890 bdbc 6b90 c23c 5cc9 5cbb b15a debc
000003b0: 79a3 10bd d729 37bd e428 29bd 772f 673d
000003c0: 09d0 293b cc82 0d3c 447c 083d 2c3b 5d3d
000003d0: 1c9f e83c 790a 723d 6715 013d 8a2c 463d
000003e0: 7691 3a3c b537 fbbc 7fe9 24bd 64b4 24bd
000003f0: 72ed 8c3c 5b16 65bc 8c8f 3b3d 4c41 aaba

layers.2.0.weight f4 [256, 256]
0.052382506 0.010772693 -0.031794604 0.048518218 0.0036915045 -0.019711263 0.022916751 -0.042667076
0.03309583 0.03140248 0.03046079 0.019651942 -0.06097061 -0.01716888 -0.059549123 0.045225862
-0.014440606 -0.037404675 -0.016202766 -0.03500206 -0.06297303 -0.022179179 -0.048928156 0.00024310271
0.009357864 0.043793794 -0.017307123 -0.016147096 -0.0062634354 -0.043457042 0.05676738 0.03285202
-0.014849783 0.043319646 -0.052882064 0.04002769 0.04912164 0.038350884 -0.010686884 -0.06433585
0.029451212 -0.05118326 0.024560317 -0.005420988 0.035530716 -0.054045394 0.007736013 -0.04030392
-0.0576309 0.060394105 0.0009739548 -0.016632164 -0.008322127 0.03891125 -0.044072915 0.04412236
-0.0033936934 -0.0019719813 -0.01799944 -0.029156614 -0.05274919 -0.06501458 0.04635927 0.03617559
-0.04054659 -0.01082971 -0.060616106 -0.024235541 0.048133973 -0.026371509 -0.047295608 0.04627659
-0.02440545 -0.0073898905 0.043185364 -0.057459954 -0.029927896 -0.0062797423 -0.04520892 -0.0067397845
0.036260184 0.003060797 0.030287053 -0.03169314 0.0316348 0.050424103 -0.029529322 -0.015109224
0.014508733 -0.03546049 0.044940114 0.05345892 -0.062779985 0.014279808 -0.019402549 0.009552987
-0.041311342 0.025070345 0.0061019175 0.042695895 -0.05849199 -0.057441637 0.038871225 0.028466366
-0.0030413726 0.0014098156 -0.0041411347 -0.013907931 0.0070337853 -0.04393532 0.0019270219 -0.042238437
-0.01627808 -0.045261126 -0.04435582 0.00515421 -0.008483633 0.030814648 0.05191716 -0.053827904
0.03863727 0.050510064 -0.033042133 0.02818341 -0.03423477 0.039500788 -0.04461996 -0.044470455
-0.05920924 0.015306877 -0.024091415 0.032348286 -0.057016596 0.013871019 -0.060324088 0.0009224128
-0.043636464 -0.017267855 0.053622372 -0.022503298 0.003400004 -0.027147708 0.05778638 0.051452618
-0.03443239 -0.00041330286 -0.05765748 -0.003183879 -0.019838095 0.02610822 0.0020281216 -0.044002954
-0.050253034 0.02786173 -0.04126728 -0.050691117 0.0524791 0.017570643 -0.04975911 -0.06130706
-0.034448195 0.0018921302 0.03632092 0.057757497 -0.023821352 -0.02768405 0.0030647484 0.05206646
-0.04807675 0.03360352 0.0062525216 -0.04093222 0.036990594 -0.056258217 -0.05318021 0.04041798
-0.060635436 -0.056291416 0.03733878 -0.00018174418 0.004398683 0.04009286 -0.024878133 -0.060695082
0.059560165 -0.03526135 0.010636755 -0.06300759 0.044380434 -0.0057806447 0.03287118 -0.037885338
-0.0543283 0.061291866 -0.06333056 -0.052101303 0.052432872 0.004011258 0.060868476 0.01145243
-0.010711604 -0.023816213 0.045643136 0.04342547 0.039219555 -0.031568795 0.0034368504 -0.060969308
0.02459831 -0.034451146 0.04607333 -0.0024802329 -0.052238066 -0.0026650224 0.046131857 -0.009459342
-0.056138415 0.034509372 -0.018086303 -0.0479417 -0.06008655 0.047084417 0.047439493 0.012837773
0.027659316 -0.0048833033 -0.06551062 -0.053843666 -0.039958052 -0.0070916116 -0.060701743 -0.031038024
-0.03138023 0.00218094 0.05859345 0.032611392 0.017391073 -0.047317717 0.048488703 -0.029028215
-0.04783187 0.014829643 0.025005419 -0.06099382 0.0508719 0.020293443 -0.026333561 0.036184832
-0.015869653 -0.018536283 -0.034985896 -0.012667415 -0.014901693 0.045975335 -0.048214037 0.0016382709
00000000: 0a8f 563d f37f 303c 0f3b 02bd 0abb 463d
00000010: 2bed 713b 8479 a1bc e9bb bb3c acc3 2ebd
00000020: 7e8f 073d e39f 003d e888 f93c 1cfd a03c
00000030: 51bc 79bd c0a5 8cbc c8e9 73bd c13e 393d
00000040: 4b98 6cbc a535 19bd aabb 84bc 525e 0fbd
00000050: 01f8 80bd 1cb1 b5bc e468 48bd 63e9 7e39
00000060: ba51 193c 1f61 333d abc7 8dbc ea46 84bc
00000070: 813d cdbb 0300 32bd ea84 683d d78f 063d
00000080: 814c 73bc f16f 313d dd9a 58bd 13f4 233d
00000090: c633 493d d115 1d3d 0a18 2fbc 84c2 83bd
000000a0: ab43 f13c 8aa5 51bd b832 c93c 8ba2 b1bb
000000b0: a888 113d b45e 5dbd 617e fd3b b915 25bd
000000c0: 610e 6cbd cf5f 773d 0051 7f3a 2d40 88bc
000000d0: 8859 08bc 6761 1f3d cd85 34bd a6b9 343d
000000e0: ba68 5ebb 5b3c 01bb 9073 93bc dad9 eebc
000000f0: 890f 58bd 5d26 85bd 38e3 3d3d db2c 143d
00000100: 2e14 26bd 196f 31bc 9848 78bd 9d89 c6bc
00000110: 2128 453d 1009 d8bc 0ab9 41bd 868c 3d3d
00000120: f0ed c7bc e526 f2bb 23e3 303d 215b 6bbd
00000130: 592b f5bc 4cc6 cdbb fd2c 39bd 69d9 dcbb
00000140: 8f85 143d a797 483b 8e1c f83c aad0 01bd
00000150: 7e93 013d 8189 4e3d 7ae7 f1bc ae8c 77bc
00000160: 09b6 6d3c 053f 11bd 2013 383d bef7 5a3d
00000170: cb92 80bd dbf5 693c 18f2 9ebc 2284 1c3c
00000180: 1536 29bd 5360 cd3c 98f2 c73b e4e1 2e3d
00000190: 4c95 6fbd ec47 6bbd 6f37 1f3d 4c32 e93c
000001a0: c451 47bb 90c9 b83a 5bb2 87bb 17de 63bc
000001b0: ab7b e63b 86f5 33bd 2094 fc3a 3602 2dbd
000001c0: 9c59 85bc bb63 39bd 73ae 35bd a6e4 a83b
000001d0: f0fe 0abc 006f fc3c 17a7 543d a67a 5cbd
000001e0: 1d42 1e3d a4e3 4e3d 3057 07bd e5e0 e63c
000001f0: c239 0cbd 94cb 213d 6bc3 36bd a726 36bd
00000200: 6385 72bd b2c9 7a3c 5c5b c5bc a37f 043d
00000210: 3c8a 69bd 4543 633c 6416 77bd 13ce 713a
00000220: 26bc 32bd 5175 8dbc 22a3 5b3d d658 b8bc
00000230: 9ad2 5e3b df64 debc 69b1 6c3d fbbf 523d
00000240: fa08 0dbd 92b0 d8b9 402a 6cbd a0a8 50bb
00000250: 8083 a2bc e8e0 d53c 3cea 043b 713c 34bd
00000260: 20d6 4dbd 483e e43c e107 29bd 7da1 4fbd
00000270: 53f4 563d 4ff0 8f3c 35d0 4bbd 1d1d 7bbd
00000280: 8d19 0dbd 5b01 f83a 3fc5 143d 2093 6c3d
00000290: ff24 c3bc a9c9 e2bc f2d9 483b a443 553d
000002a0: 20ec 44bd d8a3 093d f4e1 cc3b 8ba8 27bd
000002b0: 7383 173d 046f 66bd 7ed3 59bd 538d 253d
000002c0: dd5c 78bd d491 66bd 8cf0 183d 9592 3eb9
000002d0: d422 903b 6938 243d 3acd cbbc 689b 78bd
000002e0: 5cf5 733d 356e 10bd c945 2e3c 200a 81bd
000002f0: 42c8 353d 906b bdbb eea3 063d a82d 1bbd
00000300: 5a87 5ebd 2e0d 7b3d 74b3 81bd 2d68 55bd
00000310: dac3 563d df70 833b 3951 793d f9a2 3b3c
00000320: b97f 2fbc 381a c3bc 4cf4 3a3d e8de 313d
00000330: afa4 203d 484e 01bd c83c 613b f4ba 79bd
00000340: 6582 c93c a51c 0dbd 63b7 3c3d 678b 22bb
00000350: 95f7 55bd a8a7 2ebb c2f4 3c3d 5bfb 1abc
00000360: 65f1 65bd b359 0d3d ba29 94bc 845e 44bd
00000370: 501d 76bd 97db 403d ea4f 423d 8655 523c
00000380: ca95 e23c 1e04 a0bb 6f2a 86bd 2d8b 5cbd
00000390: 0eab 23bd c060 e8bb 64a2 78bd 7443 febc
000003a0: 8e88 00bd 1aee 0e3b afff 6f3d 8693 053d
000003b0: b977 8e3c 39d0 41bd 179c 463d 94cc edbc
000003c0: 5aeb 43bd 08f8 723c 2ad8 cc3c a8d4 79bd
000003d0: 0e5f 503d 6f3e a63c 7bb9 d7bc 8c36 143d
000003e0: 1301 82bc 67d9 97bc 5f4d 0fbd fd8a 4fbc
000003f0: 3b26 74bc a250 3c3d 157c 45bd 40bb d63a

layers.2.0.bias f4 [256]
-0.046697866 0.060133755 -0.05038487 0.06357094 -0.020722177 0.03018145 0.08075528 0.017271994
-0.033465143 0.020248482 0.047477383 0.055157553 0.02394807 0.028915212 -0.046103057 -0.061583526
0.031982925 -0.0016276941 0.042520136 -0.04013245 0.013140881 0.0174985 -0.056104988 -0.011773153
-0.099863715 0.12282635 0.023816755 0.023804829 -0.06729209 -0.0103596505 -0.06631876 -0.09043685
0.020113144 -0.06646344 0.027709585 -0.029101973 0.07485803 -0.075768225 -0.06858804 -0.05231798
-0.0037038333 0.0943201 0.007052149 0.034939732 -0.0660195 -0.003203744 -0.0661839 0.03124031
-0.02935465 -0.038054332 0.10897453 0.02867 0.10940936 0.012173272 -0.06363021 0.007088009
-0.023385497 0.06438592 0.072748415 0.052370146 -0.0053934874 -0.041606035 0.059736434 -0.021171277
-0.081286 0.012741959 -0.012163673 0.010380973 0.000808222 -0.006548483 -0.066891514 -0.03218296
-0.03959157 0.0004507076 0.08406375 -0.02528243 0.00755997 0.018572334 -0.019858183 0.003798895
0.038512934 -0.016855167 0.015697103 -0.027356563 0.01344391 0.029014379 -0.07954341 -0.05609867
0.09688508 -0.07137337 -0.05769412 -0.052975886 0.028766826 -0.0051392163 -0.0038926967 -0.050928365
-0.050220508 0.043780196 0.042297553 0.03245394 -0.054713655 -0.084061116 0.12632042 -0.0366456
0.05323358 0.10548086 -0.013533454 0.064865224 -0.007860823 -0.03536282 0.03676699 -0.038201515
-0.03584512 0.0620543 0.028230937 0.03147268 0.05021912 0.09188573 -0.022690896 0.032980476
0.048528723 0.06253065 -0.025523866 -0.025191898 -0.025086632 -0.0058363313 -0.045280557 0.07893958
-0.061547108 -0.03745087 -0.039653093 0.0217995 0.03477393 -0.08087075 -0.06862542 -0.052945383
-0.022211416 0.11524067 -0.053026624 -0.022825599 0.071885 0.0149454195 0.052111536 -0.053060874
-0.036707684 0.07997144 0.049900148 -0.016145116 0.051862944 -0.032277614 -0.04749455 -0.05176988
0.104566455 -0.018939136 0.03580691 0.05757575 -0.059530262 0.03662266 0.024112014 6.3040266e-06
-0.023720741 0.023433693 0.010359224 -0.043656204 0.023764063 -0.005218955 -0.03667335 -0.093714714
-0.01675639 0.01580219 0.0646357 0.05886746 -0.043203995 -0.063768014 0.033518866 -0.0012158821
0.03590893 0.12305074 -0.07853236 0.08031552 0.013804072 0.045174245 0.009059268 0.014130052
-0.012191177 -0.044647045 0.020907728 -0.024238747 0.0204272 0.059182756 -0.03145059 -0.0058906046
0.050328642 -0.037309177 0.09703678 0.02904111 0.045512643 0.044340957 0.097194545 0.008395657
-0.042515717 -0.057432607 0.042613536 0.05530095 0.059069432 0.03988409 -0.011172621 -0.003527652
-0.04774132 -0.0946785 -0.059311323 0.0023748155 -0.007071862 -0.005086521 -0.054321207 -0.05976887
-0.053188715 0.0024295123 -0.028557437 0.0068254475 -0.06130858 0.05068514 0.010612052 -0.024759006
0.020480739 0.075711556 0.013804917 -0.054641716 0.040690336 -0.013739189 0.101612 -0.02682054
-0.061198544 0.018401623 -0.06395269 -0.09476296 0.046381824 -0.062283322 -0.0028723574 -0.04815518
0.018595401 0.042194776 -0.049365494 -0.083928525 0.032217994 -0.04505041 0.09621759 0.032592114
0.027469225 0.06780241 0.09131638 0.039520167 -0.0032625191 0.029154336 0.123560585 0.094795056
00000000: 4346 3fbd d04e 763d 5e60 4ebd 7b31 823d
00000010: 8ec1 a9bc 173f f73c 0663 a53d ff7d 8d3c
00000020: bf12 09bd 25e0 a53c a577 423d e3ec 613d
00000030: be2e c43c 98df ec3c 8fd6 3cbd 023f 7cbd
00000040: 8700 033d 5a58 d5ba 9829 2e3d ed61 24bd
00000050: da4c 573c 0459 8f3c 58ce 65bd 2fe4 40bc
00000060: 5985 ccbd 628c fb3d 5b1b c33c 5802 c33c
00000070: 6fd0 89bd 86bb 29bc 21d2 87bd f536 b9bd
00000080: 52c4 a43c fc1d 88bd 36ff e23c 4367 eebc
00000090: 2b4f 993d 5f2c 9bbd e377 8cbd 614b 56bd
000000a0: 03bc 72bb e62a c13d b715 e73b f71c 0f3d
000000b0: 3b35 87bd e8f5 51bb 6d8b 87bd aeeb ff3c
000000c0: 2a79 f0bc dcde 1bbd 0a2e df3d 59dd ea3c
000000d0: 0412 e03d 6772 473c 8e50 82bd 8742 e83b
000000e0: f192 bfbc c4dc 833d 1ffd 943d 1482 563d
000000f0: dabb b0bb 176b 2abd 31ae 743d 636f adbc
00000100: 4679 a6bd a6c3 503c 244a 47bc f514 2a3c
00000110: dcde 533a a894 d6bb 6bfe 88bd 48d2 03bd
00000120: c52a 22bd f34c ec39 9e29 ac3d 191d cfbc
00000130: a0b9 f73b 0225 983c a1ad a2bc e2f6 783b
00000140: bdbf 1d3d d913 8abc 3697 803c df1a e0bc
00000150: d843 5c3c 90af ed3c a8e7 a2bd b8c7 65bd
00000160: af6b c63d 342c 92bd ab50 6cbd 3efd 58bd
00000170: 68a8 eb3c df66 a8bb 9d1c 7fbb 439a 50bd
00000180: 05b4 4dbd dd52 333d 3340 2d3d 6cee 043d
00000190: 6d1b 60bd 3c28 acbd 245a 013e b219 16bd
000001a0: 740b 5a3d 5906 d83d 6cbb 5dbc 0fd8 843d
000001b0: aeca 00bc 9bd8 10bd fc98 163d 3179 1cbd
000001c0: 55d2 12bd a62c 7e3d 9144 e73c 7fe9 003d
000001d0: 90b2 4d3d 962e bc3d 42e2 b9bc 8916 073d
000001e0: 0ec6 463d 1210 803d 6d17 d1bc 3d5f cebc
000001f0: 7b82 cdbc b23e bfbb 1b78 39bd 13ab a13d
00000200: d218 7cbd 1566 19bd 486b 22bd dd94 b23c
00000210: 1c6f 0e3d 909f a5bd 7c8b 8cbd 42dd 58bd
00000220: b7f4 b5bc 4d03 ec3d 7232 59bd c0fc babc
00000230: 7138 933d a2dd 743c e872 553d 5c56 59bd
00000240: cc5a 16bd 11c8 a33d 1964 4c3d c342 84bc
00000250: 3d6e 543d 8835 04bd a589 42bd a70c 54bd
00000260: f026 d63d 3f26 9bbc 44aa 123d 8dd4 6b3d
00000270: 01d6 73bd a401 163d 8f86 c53c 2d87 d336
00000280: 0052 c2bc 04f8 bf3c bcb9 293c d9d0 32bd
00000290: daac c23c c503 abbb cb36 16bd 80ed bfbd
000002a0: b244 89bc 9873 813c b95f 843d 011f 713d
000002b0: acf6 30bd ce98 82bd 144b 093d 3c5e 9fba
000002c0: 3e15 133d 0702 fc3d 93d5 a0bd 777c a43d
000002d0: 792a 623c a108 393d 536d 143c bc81 673c
000002e0: 81bd 47bc d2df 36bd af46 ab3c 5690 c6bc
000002f0: f156 a73c 9e69 723d 55d2 00bd f905 c1bb
00000300: 6825 4e3d 82d1 18bd 38bb c63d 9fe7 ed3c
00000310: 776b 3a3d dd9e 353d ef0d c73d f08d 093c
00000320: f624 2ebd 743e 6bbd 888b 2e3d 4083 623d
00000330: caf2 713d 805d 233d 5e0d 37bc 2e30 67bb
00000340: 678c 43bd cde6 c1bd 6ef0 72bd cba2 1b3b
00000350: 14bb e7bb d5ac a6bb ea7f 5ebd 34d0 74bd
00000360: 69dc 59bd 7438 1f3b 49f1 e9bc 01a8 df3b
00000370: b51e 7bbd 399b 4f3d 2cde 2d3c 66d3 cabc
00000380: 39c7 a73c a90e 9b3d 052e 623c fecf 5fbd
00000390: e9aa 263d 561a 61bc f419 d03d c0b6 dbbc
000003a0: 53ab 7abd 00bf 963c a1f9 82bd 1513 c2bd
000003b0: defa 3d3d cc1c 7fbd 293e 3cbb 5e3e 45bd
000003c0: 6255 983c 6ed4 2c3d 7933 4abd b8e2 abbd
000003d0: 04f7 033d c786 38bd ba0d c53d 4f7f 053d
000003e0: 2407 e13c fddb 8a3d 1504 bb3d e6df 213d
000003f0: fdcf 55bb 13d5 ee3c 550d fd3d e923 c23d

ik_task.weight f4 [1, 256]
0.04872103 -0.06424064 -0.038506493 -0.055418663 0.19792005 0.80940664 -0.77061594 0.03155348
-0.027833613 0.29708382 0.072989546 0.059739124 -0.10661965 -0.11446451 0.33143625 -0.09278249
-0.12220114 -0.15132609 -0.019218136 0.2903407 -0.015940264 0.08260621 -0.016903795 -0.030914338
0.37892798 -0.60406435 0.11797197 0.011629053 0.38702005 0.14086469 0.23954052 1.366851
-0.0616205 -0.009415115 0.0046121473 0.40555772 -0.120485164 0.1340772 0.04077941 0.5217773
-0.01027037 -0.09632748 0.48829004 0.094004616 0.36789927 0.34115812 -0.054704033 0.27375177
0.00551881 -0.031172141 -0.40664223 0.035501663 -0.09668152 0.38784945 0.054086454 0.24942636
0.06738957 -0.263577 -0.09791786 -0.089116424 0.043111313 0.15613602 -0.37499145 0.14547026
0.2193983 0.21452813 0.19940676 0.040453617 0.08518989 -0.11949658 0.22759543 0.10675934
0.15076908 0.2504012 -0.07784939 -0.013764068 0.38825613 -0.016461425 0.0013304098 0.08969537
-0.114843875 0.13389397 -0.027705586 0.11655276 0.15313531 0.36201343 0.3972042 -0.05119194
-0.42570123 -0.04892381 0.09174749 0.0018429174 -0.23131955 0.23287345 0.48008367 -0.5462728
0.09194467 -0.026056234 -0.0058778645 0.26733625 0.043828256 0.2181633 -0.45197704 0.029483166
-0.05271069 -0.0611146 -0.40949878 -0.09048873 0.025576191 0.07650888 0.11113256 0.008746412
-0.018688116 -0.9945227 -0.056716964 -0.06897324 -0.07145428 -0.33221167 0.03152806 -0.1037319
-0.0061884145 0.03344961 -0.03606827 -0.055708107 -0.67045605 0.029949453 0.26661277 -0.10292112
-0.20403281 0.25133282 0.13920926 0.07619833 -0.08404559 0.2823278 -0.007852429 -0.02172355
-0.03405041 -0.10682871 0.06628948 0.38017365 -0.0948932 -0.060678095 -0.10815369 -0.029451635
-0.13807419 -0.109897666 -0.1059637 0.38085002 -0.11348039 1.4887002 0.052504595 -0.056277618
-0.10936241 0.19318807 -0.10777194 -0.052979905 0.04572288 0.3757206 0.20685215 0.32354528
0.03243675 0.02102851 0.3949023 0.08007811 0.16050257 -1.2061791 0.29072574 0.46078703
0.14815009 0.025920551 -0.10515422 -0.6661921 0.19940595 -0.015604859 0.0109634865 0.068985835
0.06441857 -0.39129025 0.3253677 -0.08381716 -0.01106821 -0.09143737 0.3720617 0.017635707
0.000843023 0.03761271 0.10993837 0.09496295 -0.094584435 -0.57920855 0.32822964 0.071622945
-0.4924595 0.30329174 -0.100745976 0.08850266 -0.032700714 -0.039034005 -0.07773057 0.06633021
0.38997534 0.014179548 -0.08813284 -0.077903315 0.08827067 0.37733465 -0.13293877 -0.3755495
-0.5835714 0.4397788 0.12279494 0.010501271 -0.058635518 -0.044808473 0.72754776 0.031253193
0.00013579018 -0.024826115 -0.018778926 -0.67529786 0.34135976 -0.12203929 -0.097541556 0.0035445588
0.0887271 -0.10090527 -0.04543537 0.61362743 -0.124140315 0.07941851 -0.11214698 -0.89199764
0.3002789 0.0486592 0.20512284 0.26696223 -0.04005208 0.37559128 0.06048006 -0.013932109
-0.31648442 0.062315922 -0.027899839 0.3348823 0.50276697 -0.03858407 -0.07492698 0.026534716
-0.04363906 0.07832854 -0.11247489 -0.12778011 -0.04047521 -0.33895436 -0.41270572 -0.38435152
00000000: b48f 473d 9990 83bd fcb8 1dbd aefe 62bd
00000010: 8eab 4a3e 4635 4f3f 1647 45bf 393e 013d
00000020: 5103 e4bc 5f1b 983e 8b7b 953d 03b1 743d
00000030: 675b dabd 5e6c eabd 03b2 a93e bf04 bebd
00000040: 9744 fabd 3af5 1abe 5a6f 9dbc 89a7 943e
00000050: 2895 82bc 722d a93d d479 8abc 1140 fdbc
00000060: d902 c23e f6a3 1abf 4a9b f13d c987 3e3c
00000070: 7e27 c63e d53e 103e 1c4a 753e f9f4 ae3f
00000080: c765 7cbd db41 1abc 7f21 973b 43a5 cf3e
00000090: edc0 f6bd 894b 093e 5008 273d 3293 053f
000000a0: 0e45 28bc 5847 c5bd 2701 fa3e 7e85 c03d
000000b0: 4b5d bc3e 47ac ae3e 5611 60bd 3129 8c3e
000000c0: 22d7 b43b b85c ffbc 6933 d0be 316a 113d
000000d0: f600 c6bd 3494 c63e c289 5d3d a069 7f3e
000000e0: 8b03 8a3d 91f3 86be 2989 c8bd ac82 b6bd
000000f0: 7d95 303d 1fe2 1f3e e1fe bfbe 28f6 143e
00000100: f3a9 603e 43ad 5b3e 4931 4c3e b1b2 253d
00000110: 0978 ae3d 9fba f4bd c70e 693e a4a4 da3d
00000120: 3663 1a3e 9634 803e 806f 9fbd af82 61bc
00000130: 82c9 c63e 1cda 86bc 2561 ae3a 35b2 b73d
00000140: 4433 ebbd 801b 093e d3f6 e2bc 37b3 ee3d
00000150: 81cf 1c3e d359 b93e 595e cb3e a4ae 51bd
00000160: 83f5 d9be 5564 48bd 1ce6 bb3d 0c8e f13a
00000170: 08df 6cbe 6176 6e3e 87cd f53e 89d8 0bbf
00000180: 7d4d bc3d e273 d5bc 1a9b c0bb 4ce0 883e
00000190: 4285 333d 3366 5f3e 8969 e7be ae86 f13c
000001a0: 2ae7 57bd 4e53 7abd d3a9 d1be 2852 b9bd
000001b0: 2985 d13c b0b0 9c3d 7899 e33d 1c4d 0f3c
000001c0: d217 99bc 0a99 7ebf 0c50 68bd d841 8dbd
000001d0: 9f56 92bd a617 aabe 9123 013d 6471 d4bd
000001e0: 2fc8 cabb 7502 093d 53bc 13bd 2f2e 64bd
000001f0: 02a3 2bbf 8e58 f53c 7881 883e 4fc8 d2bd
00000200: faed 50be b2ae 803e df8c 0e3e df0d 9c3d
00000210: 1820 acbd 458d 903e 79a7 00bc 96f5 b1bc
00000220: 7178 0bbd 03c9 dabd c7c2 873d 1fa6 c23e
00000230: 5e57 c2bd 9889 78bd af7f ddbd 8e44 f1bc
00000240: 5263 0dbe 0712 e1bd 7f03 d9bd c6fe c23e
00000250: 6868 e8bd ba8d be3f 0f0f 573d 5c83 66bd
00000260: 66f9 dfbd 18d3 453e 89b7 dcbd 7501 59bd
00000270: ea47 3b3d 735e c03e 0dd1 533e baa7 a53e
00000280: 66dc 043d fb43 ac3c a230 ca3e feff a33d
00000290: c95a 243e 1464 9abf 01da 943e 47ec eb3e
000002a0: a8b4 173e 5657 d43c 185b d7bd 918b 2abf
000002b0: 1331 4c3e 86ab 7fbc 32a0 333c 7248 8d3d
000002c0: e2ed 833d 3257 c8be 9896 a63e 55a8 abbd
000002d0: 7057 35bc 8443 bbbd df7e be3e c278 903c
000002e0: 51fe 5c3a c90f 1a3d 5e27 e13d ef7b c23d
000002f0: 7cb5 c1bd 0347 14bf b70d a83e 0daf 923d
00000300: a723 fcbe 0e49 9b3e e853 cebd e240 b53d
00000310: 2ff1 05bd 1fe2 1fbd 3531 9fbd 22d8 873d
00000320: d9aa c73e 5651 683c fe7e b4bd c68b 9fbd
00000330: 41c7 b43d 0232 c13e 1a21 08be 0648 c0be
00000340: ef64 15bf b02a e13e ea7b fb3d 860d 2c3c
00000350: cc2b 70bd 1789 37bd 9240 3a3f 5903 003d
00000360: e662 0e39 2360 cbbc 43d6 99bc 52e0 2cbf
00000370: b5c6 ae3e bcef f9bd dec3 c7bd d44b 683b
00000380: 8eb6 b53d 6ca7 cebd 701a 3abd b016 1d3f
00000390: 473d febd 2ca6 a23d 51ad e5bd f559 64bf
000003a0: 28be 993e df4e 473d b90b 523e 46af 883e
000003b0: a60d 24bd 804d c03e f0b9 773d 8043 64bc
000003c0: 3f0a a2be fb3e 7f3d 348e e4bc b175 ab3e
000003d0: 56b5 003f 540a 1ebd 5173 99bd 555f d93c
000003e0: dfbe 32bd b76a a03d 3c59 e6bd cad8 02be
000003f0: 55c9 25bd 6d8b adbe 2a4e d3be b9c9 c4be
