scripts/learning/models/[256,256,256]_end.pth (torch_old, 543447 bytes, 8 tensors)

layers.0.0.weight f4 [256, 12]
0	0xbf1460cc	-0.579602
1	0x3e867403	0.26260385
2	0xbd617b16	-0.055049025
3	0x39b794c8	0.0003501533
4	0xbc1f0a04	-0.009706978
5	0x3e73658b	0.23769204
6	0x3ce6022d	0.02807721
7	0x3e8c8a3b	0.2744921
8	0x3c389c52	0.011267738
9	0x3e3f6d50	0.18694043
10	0x3f69422f	0.91116613
11	0x3d86c13a	0.06579824
12	0xbe488c75	-0.1958483
13	0x3e24795c	0.1606192
14	0x3da07ae0	0.078359365
15	0xbd4064d8	-0.046971172
16	0xbd334f88	-0.04377702
17	0xbde473d4	-0.11154905
18	0x3e24c196	0.16089472
19	0x3d661ed8	0.05618176
20	0x3d78ef58	0.06077513
21	0xbe8d20aa	-0.27563983
22	0xbe74952d	-0.23885031
23	0xbd1c83f8	-0.038211793
24	0x3f060fb6	0.52367723
25	0x3e0eae8b	0.1393377
26	0x3e9f25ec	0.3108362
27	0x3e2637aa	0.16232172
28	0xbdbea694	-0.09309116
29	0xbdedc1c0	-0.116092205
30	0x3edc7134	0.43055117
31	0x3da74fbe	0.081695065
32	0xbe00c6c4	-0.12575823
33	0xbd1727d0	-0.036903203
34	0x3ea0a1f2	0.31373554
35	0xbdab7dd2	-0.08373608
36	0xbe25295c	-0.16129059
37	0xbec3bef7	-0.38231632
38	0xbd8acb71	-0.067770846
39	0x3dcfdbae	0.101493225
40	0x3e01a46a	0.12660375
41	0xbf001e99	-0.5004669
42	0xbf197627	-0.5994591
43	0xbdc29d9e	-0.09502719
44	0x3c57f14c	0.013180088
45	0x3e556a22	0.20841268
46	0xbeceded3	-0.40404376
47	0x3da1e4fa	0.07905002
48	0xbf1599d4	-0.5843785
49	0x3f044fad	0.51684076
50	0xbd831c24	-0.06401852
51	0xbbe9ed96	-0.007138918
52	0x3e30618e	0.17224714
53	0xbe59ee38	-0.2128228
54	0xbe85948d	-0.26089898
55	0xbe1be836	-0.152253
56	0x3dc028b8	0.093827665
57	0x3d9e47f6	0.07728569
58	0x3e4d027f	0.20020483
59	0x3eb46992	0.35236794
60	0x3bd3d6cd	0.0064648152
61	0x3e827129	0.2547696
62	0x3e43696d	0.19083185
63	0xbdcfd139	-0.10147328
64	0xbe11304a	-0.14178577
65	0xbec22fe7	-0.37927172
66	0xbeac0951	-0.33600858
67	0xbdccbd97	-0.09997099
68	0x3d944630	0.0723995
69	0x3d60abbf	0.05485129
70	0xbe8eec6c	-0.2791475
71	0xbdaa658a	-0.08320148
72	0xbecb45b8	-0.3970163
73	0xbeaa5775	-0.3326985
74	0xbeaf4853	-0.34234866
75	0xbca19dfe	-0.019728657
76	0x3d606618	0.054784864
77	0xbeaeb46d	-0.3412203
78	0x3e2fa290	0.17151856
79	0xbe431bc0	-0.19053555
80	0x3e3f921d	0.18708082
81	0xbd8d5f79	-0.069029756
82	0x3ed67130	0.4188323
83	0x3bd28159	0.006424111
84	0x3e9f33ec	0.310943
85	0xbed3c2ab	-0.41359457
86	0x3da035dd	0.078227736
87	0xbe52ade3	-0.20574145
88	0x3db6d202	0.089267746
89	0x3ee5f1b0	0.44910955
90	0x3d8237b4	0.06358281
91	0xbdec98d6	-0.11552589
92	0x3cf9e49e	0.030504521
93	0xbe20f18d	-0.15717144
94	0x3e9043fb	0.28176865
95	0x3e441435	0.19148333
96	0x3e493fcf	0.19653247
97	0xbf00d508	-0.5032506
98	0x3e9c0231	0.30470422
99	0x3e159807	0.14608775
100	0xbe52d0dd	-0.20587488
101	0x3edfd2b9	0.43715456
102	0x3eb4508d	0.35217705
103	0xbe58bee8	-0.21166575
104	0xbd0b1605	-0.033956546
105	0xbe0acb7f	-0.1355419
106	0xba17c3ed	-0.0005789388
107	0x3dccb86f	0.099961154
108	0x3daa10e5	0.083040036
109	0x3e71ab62	0.23600534
110	0x3e39bf33	0.18139343
111	0x3c6338e5	0.013868545
112	0xbd0caabd	-0.034342516
113	0xbe9b55f1	-0.30339006
114	0xbdb9a273	-0.09064188
115	0x3e865f8a	0.26244766
116	0x3e287983	0.16452603
117	0x3e1ac73a	0.15115061
118	0x3ed4c9d4	0.41560233
119	0xbefdd6cd	-0.49577942
120	0xbf1d0618	-0.61337423
121	0xbdaf4010	-0.08557141
122	0x3b502871	0.0031762386
123	0xbc5b1920	-0.0133726895
124	0x3e7eefca	0.2489616
125	0x3f1a10e3	0.6018202
126	0x3ece8a89	0.4034007
127	0x3d36f009	0.04466251
128	0x3e1e0167	0.15430222
129	0x3b1d6898	0.0024018642
130	0x3f12914f	0.57252973
131	0x3e0ef96a	0.13962331
132	0x3f1cffb4	0.6132767
133	0xbe04b804	-0.12960821
134	0x3e78c556	0.24294028
135	0xbd89efc1	-0.067351826
136	0xbe1e4a0e	-0.15457937
137	0xbeef3ddd	-0.46726885
138	0xbdbc44af	-0.09192788
139	0x3db2fbdd	0.08739445
140	0x3e93b254	0.2884699
141	0x3d178ec3	0.037001383
142	0x3eaf4295	0.34230486
143	0xbd5ab25d	-0.053392757
144	0xbd76633c	-0.06015323
145	0x3d4f5e59	0.050627086
146	0xbea91cad	-0.3302969
147	0x3e1f69e3	0.15567736
148	0xbd7351eb	-0.059404295
149	0x3e5bb342	0.214551
150	0x3e86604c	0.26245344
151	0x3e1e767e	0.15474889
152	0x3cd2ea63	0.02574653
153	0x3e30985d	0.17245622
154	0x3f05733a	0.52128947
155	0xbccc86ae	-0.024966564
156	0x3e1fe3fa	0.1561431
157	0x3e489263	0.19587092
158	0xbd688291	-0.056765143
159	0x3d987bda	0.07445498
160	0x3e12bc2b	0.14329593
161	0xbf15adc5	-0.58468276
162	0xbf09bfed	-0.5380848
163	0x3df37576	0.11887638
164	0x3de4924a	0.11160715
165	0xbe481928	-0.19540846
166	0xbec37d05	-0.3818132
167	0x3e157395	0.14594872
168	0x3e8e9e68	0.2785523
169	0xbea9033c	-0.3301028
170	0xbdecd8dd	-0.11564801
171	0xbdda93b5	-0.10672704
172	0xbdd50d17	-0.10402887
173	0x3d8104bb	0.062997304
174	0xbd6e3592	-0.058156557
175	0xbe6df9d0	-0.23239827
176	0xbdd35695	-0.103192486
177	0x3e9106df	0.28325555
178	0x3f165bc8	0.587338
179	0x3d11a5fe	0.035558693
180	0x3f2e4e13	0.6808788
181	0x3e6050a9	0.2190577
182	0x3e5431b9	0.20722093
183	0xbab2d563	-0.0013643916
184	0x3e5acd0c	0.21367282
185	0xbf426f1c	-0.7595079
186	0xbf358edb	-0.70921105
187	0x3dfb918a	0.12283619
188	0xbbf7a0ea	-0.0075570242
189	0xbbaa18a5	-0.005190926
190	0xbe9afe18	-0.30271983
191	0xbd8d5f6c	-0.06902966
192	0xbdcfc8e5	-0.101457395
193	0x3e80a688	0.25127053
194	0xbdae98be	-0.08525227
195	0xbd4c6125	-0.04989733
196	0x3c67d65b	0.014150227
197	0x3df96943	0.1217828
198	0x3decd593	0.115641735
199	0xbe86a328	-0.26296353
200	0x3e49583b	0.19662564
201	0x3cc1c345	0.023652682
202	0xbebfa890	-0.3743329
203	0x3e34a56f	0.17641233
204	0xbcc33262	-0.023827735
205	0x3eba0c08	0.36337304
206	0x3da10ae2	0.07863404
207	0xbe394722	-0.18093541
208	0xbd97f28b	-0.07419308
209	0x3f1ca098	0.61182547
210	0x3d2dc5f5	0.042425115
211	0x3c722df0	0.01478146
212	0x3e061fda	0.13098088
213	0xbe00c49c	-0.12575
214	0x3e03351e	0.12813231
215	0x3d04f884	0.032463565
216	0xbe98c903	-0.2984086
217	0xbea20091	-0.31641057
218	0x3c74918d	0.01492728
219	0x3e0882a5	0.13331087
220	0x3e36d893	0.17856054
221	0xbe8a3316	-0.269921
222	0x3dc9fb95	0.098624386
223	0xbe89a542	-0.26883894
224	0x3e3d5aba	0.1849164
225	0xbe32e9b2	-0.1747196
226	0x3e169a81	0.14707376
227	0xbf52fa5d	-0.82413274
228	0xbe19d84c	-0.15023917
229	0x3ea602cb	0.32424006
230	0x3e5c9d31	0.21544339
231	0x3dab9039	0.08377118
232	0x3e319693	0.17342596
233	0xbe1af382	-0.15131953
234	0xbe92552d	-0.2858061
235	0xbe4e6ca6	-0.20158634
236	0x3d020a60	0.031748176
237	0x3ddad9b8	0.10686058
238	0x3f1bcea4	0.60862184
239	0x3e726322	0.23670629
240	0x3e956473	0.291782
241	0x3ddbca5f	0.107319586
242	0xbddf01d6	-0.10889022
243	0xbe4c92b6	-0.19977841
244	0x3e63ecfb	0.2225837
245	0xbe3e8cd7	-0.18608414
246	0xbefcdd42	-0.49387556
247	0xbde4b0b4	-0.11166516
248	0x3cc3c884	0.023899324
249	0xbe1902f0	-0.14942527
250	0x3f03b45d	0.5144709
251	0x3e0c7abb	0.13718693
252	0xbd0fa9cf	-0.03507405
253	0x3ea58f01	0.32335666
254	0x3d10967b	0.03529976
255	0x3ccdeb99	0.025136756

layers.0.0.bias f4 [256]
0	0xbdd85616	-0.105632946
1	0xbe935bf1	-0.28781083
2	0xbe1b1b76	-0.15147194
3	0xbce5ba00	-0.028042793
4	0xbd36af26	-0.04460063
5	0x3e336393	0.17518453
6	0x3e1804bc	0.14845556
7	0x3d0789d7	0.03309044
8	0x3dc02bfc	0.09383389
9	0x3dd1906b	0.10232624
10	0xbe834cb0	-0.25644445
11	0xbe794274	-0.24341756
12	0xbe54a64e	-0.20766565
13	0x3de61dbb	0.112361394
14	0xbe0c4af0	-0.13700461
15	0x3e2b54b6	0.16731533
16	0x3cc29dfe	0.023756977
17	0xbde98c39	-0.114036985
18	0x3a1436e2	0.000565393
19	0xbdf6405a	-0.12023993
20	0xbe6237ea	-0.22091642
21	0x3e5a5482	0.213213
22	0xbdaa30ae	-0.08310066
23	0xbc7edb2a	-0.0155551825
24	0x3c9c1cef	0.019056765
25	0xbe65ebb4	-0.22453195
26	0x3df9ba1a	0.12193699
27	0x3e3f6254	0.18689853
28	0x3e31a8a2	0.17349485
29	0xbdb21706	-0.086957976
30	0x3e964f57	0.29357406
31	0xbdf4bf22	-0.11950518
32	0x3d2a31df	0.041551467
33	0xbe541826	-0.20712337
34	0xbea325dc	-0.31864822
35	0x3ea8be0e	0.329575
36	0x3e10ef06	0.1415368
37	0xbda11912	-0.0786611
38	0x3d79f3c3	0.061023485
39	0x3da5bf06	0.080930755
40	0xbe7522f6	-0.23939118
41	0xbe25427a	-0.1613864
42	0x3e1fc70a	0.15603271
43	0xbd046993	-0.032327246
44	0xbd927edf	-0.07153105
45	0xbcd4dbb5	-0.02598367
46	0x3e84cb52	0.2593637
47	0x3d44f49d	0.048084844
48	0x3d621636	0.055196963
49	0xbdb4c28d	-0.0882617
50	0xbec1ca3d	-0.37849608
51	0xbde1632c	-0.11005244
52	0xbe912dc3	-0.28355226
53	0xbe14d3a5	-0.14533861
54	0xbe0341d1	-0.12818076
55	0x3d5e22a7	0.054232266
56	0xbdbd20e5	-0.0923479
57	0xbe794b7a	-0.24345198
58	0xbce8c2be	-0.028413173
59	0xbc8088ce	-0.015690234
60	0x3cb08187	0.021546138
61	0x3e378ab5	0.17924006
62	0x3d369aca	0.044581212
63	0x3d9344fc	0.07190892
64	0x3e4107ef	0.18850683
65	0xbde23558	-0.11045331
66	0x3e0f728a	0.14008537
67	0xbe3e3f0d	-0.1857874
68	0xbe89a36d	-0.26882496
69	0xbce13d86	-0.027495157
70	0x3cce7970	0.02520439
71	0xbeae95ea	-0.3409875
72	0xbdf1e468	-0.11811143
73	0x3e6d2f0a	0.23162475
74	0x3dfef962	0.1244991
75	0x3e7a15c3	0.24422364
76	0xbe4646d9	-0.19362964
77	0xbe4d9d35	-0.20079501
78	0x3d63236a	0.055453695
79	0xbdfbc5a8	-0.12293559
80	0xbd0b0752	-0.033942528
81	0xbe199ca4	-0.1500116
82	0x3e6d831e	0.23194548
83	0x3e797355	0.24360402
84	0x3e352eba	0.17693606
85	0x3d6c9390	0.057757914
86	0x3e17adab	0.14812343
87	0xbdb7cba4	-0.08974388
88	0x3e794073	0.24340992
89	0x3dc39afb	0.095510446
90	0x3df9495c	0.12172195
91	0x3e7703a1	0.24122478
92	0xbdf9e034	-0.122009665
93	0x3e2313d3	0.15925531
94	0x3dfcffaa	0.123534516
95	0xbe4fdd79	-0.20299329
96	0xba8aa134	-0.0010576607
97	0x3d9b1855	0.07573
98	0xbe243ee5	-0.16039617
99	0x3df4b686	0.11948876
100	0x3e11c6fd	0.14236064
101	0x3d336384	0.043796077
102	0x3e2cd31b	0.16877405
103	0xbdb2cca8	-0.08730441
104	0x3e7df99c	0.2480225
105	0x3e594c17	0.21220432
106	0x3e650d31	0.22368313
107	0xbd3184a3	-0.043339383
108	0xbe046357	-0.1292852
109	0x3c075838	0.008260779
110	0xbdad014b	-0.08447512
111	0xbe4840dd	-0.19555993
112	0x3c914f23	0.01773793
113	0xbdf07307	-0.1174069
114	0x3d1631a0	0.03666842
115	0x3b2f70cb	0.002677011
116	0xbe09a2fd	-0.13441081
117	0x3e5a7f56	0.21337637
118	0xbe3e5003	-0.1858521
119	0x3e88903e	0.26672548
120	0x3e604001	0.21899416
121	0x3dd7be2f	0.105343215
122	0xbd44c490	-0.04803902
123	0xbe72d110	-0.23712564
124	0x3e94ef1f	0.29088685
125	0xbe49ab23	-0.1969419
126	0x3d5517e9	0.052024756
127	0xbdb8d36b	-0.090247
128	0xbe54661a	-0.20742074
129	0xbe59dcef	-0.21275686
130	0x3db9a1f5	0.09064094
131	0xbeb39ba3	-0.3507968
132	0xbe240aff	-0.1601982
133	0xbe903478	-0.2816503
134	0xbe413e02	-0.1887131
135	0xbd84cb6b	-0.064841114
136	0x3ddb0e32	0.10696067
137	0x3e1d0791	0.15334918
138	0xbe8466da	-0.2585972
139	0x3e8f69df	0.2801046
140	0x3e0c136c	0.13679284
141	0x3e7523c2	0.23939422
142	0xbe465f28	-0.19372237
143	0x3e6ca0c0	0.23108196
144	0x39d6de88	0.0004098306
145	0x3eb61ed1	0.35570386
146	0x3dba3db4	0.090938
147	0x3e89dfc7	0.2692854
148	0xbc3de167	-0.011589385
149	0x3e55121b	0.20807688
150	0x3e865232	0.26234585
151	0xbd37b0ef	-0.04484647
152	0xbdbba804	-0.09162906
153	0xbe317f19	-0.1733364
154	0xbe3c7cc0	-0.18406963
155	0x3d8eb522	0.06968142
156	0xbdbec7f4	-0.09315482
157	0x3e7559fc	0.23960108
158	0xbcd5d8d2	-0.026104365
159	0xbdf7c7cd	-0.12098656
160	0x3e1a51e5	0.15070303
161	0x3d9fa9c4	0.07796052
162	0xbd70f590	-0.058827937
163	0xbe3a53eb	-0.18196075
164	0x3dcf9c18	0.101371944
165	0x3e1a28c1	0.15054609
166	0x3ddb1847	0.1069799
167	0x3d7fa548	0.062413484
168	0xbd0a8098	-0.033814043
169	0x3e301c1e	0.17198226
170	0xbde19933	-0.110155486
171	0x3e4d87b8	0.20071304
172	0xbe20f80c	-0.15719622
173	0xbdfc43ba	-0.12317605
174	0xbe9c2cbb	-0.30502877
175	0xbcd0ebd4	-0.025503077
176	0x3e5ee3a0	0.2176652
177	0x3df88825	0.121353425
178	0x3d351453	0.044208836
179	0x3e0a3b37	0.13499151
180	0xbeb1cfa5	-0.34728733
181	0xbca73a25	-0.020413468
182	0x3dd09d14	0.1018621
183	0xbe8e8f81	-0.2784386
184	0xbe9e5867	-0.3092682
185	0xbe6e6c84	-0.23283583
186	0xbc86e844	-0.016468175
187	0xbda53f0f	-0.08068668
188	0x3e9365f8	0.28788733
189	0x3e64ab2f	0.22330926
190	0x3e450bd2	0.1924279
191	0xbe902d5d	-0.2815961
192	0x3e80a5d1	0.25126508
193	0x3e67d262	0.22638848
194	0x3cf02e50	0.029318959
195	0xbe2beca4	-0.1678949
196	0xbd3c5837	-0.045982566
197	0xbd331b9a	-0.043727495
198	0x3d0fc383	0.035098564
199	0xbe7248c3	-0.23660569
200	0xbd24d6a2	-0.040243752
201	0x3e5ff1c1	0.21869566
202	0xbb00d094	-0.0019655572
203	0x3e629386	0.22126588
204	0x3da0f6c8	0.0785957
205	0xbc200db8	-0.009768896
206	0x3e606bf4	0.21916181
207	0x3d903bdf	0.070426695
208	0x3e790fe0	0.24322462
209	0xbe965080	-0.29358292
210	0xbd7ef491	-0.062244955
211	0x3e82a4cc	0.25516355
212	0xbd4e10b0	-0.050308883
213	0x3df3c44d	0.11902676
214	0x3e47f6ba	0.19527712
215	0xbd50cdef	-0.050977644
216	0x3d8367e2	0.064162984
217	0x3d87ae78	0.06625074
218	0xbe87b252	-0.26503235
219	0x3e6d1f09	0.2315637
220	0x3e68e376	0.2274302
221	0xbe1edbae	-0.15513489
222	0x3d4de0e5	0.050263304
223	0x3e63ce80	0.22246742
224	0xbe77a939	-0.24185647
225	0xbcf70011	-0.030151399
226	0x3e38adf3	0.18035106
227	0x3cc01b35	0.023450473
228	0x3d94f718	0.07273692
229	0x3e5ba6e9	0.2145039
230	0xbe6c0ff3	-0.23052959
231	0x3e0dbf1d	0.13842435
232	0xbe42231b	-0.18958704
233	0x3e795fde	0.24352977
234	0xbcb4c5cf	-0.022066979
235	0xbe4f1241	-0.20221807
236	0x3e25419d	0.1613831
237	0x3e603593	0.21895437
238	0xbeb6c6b9	-0.35698488
239	0xbe5b734f	-0.21430705
240	0xbdd3260e	-0.10309993
241	0xbd344154	-0.044007614
242	0xbd411dae	-0.047147445
243	0x3e7da41f	0.24769638
244	0x3c66d156	0.0140879955
245	0x3dbbb1a1	0.091647394
246	0x3e12921f	0.14313553
247	0x3e3c0f64	0.18365246
248	0x3e148a64	0.14505917
249	0x3e3a57f9	0.18197621
250	0x3e9b7edc	0.30370224
251	0x3dfd1007	0.123565726
252	0xbe824eb9	-0.25450686
253	0x3e19370d	0.14962406
254	0xbdfcb3a6	-0.12338953
255	0xbe5abf3c	-0.21362013

layers.1.0.weight f4 [256, 256]
0	0x3d09ef9e	0.033675782
1	0xbbeb9a30	-0.0071900114
2	0x3d97ec82	0.07418157
3	0xbd0f6a47	-0.035013463
4	0x3d170284	0.036867633
5	0x3de0c063	0.10974195
6	0xbdc41a7f	-0.09575366
7	0xbdca8382	-0.098883644
8	0x3c8d9edb	0.017287662
9	0xbc679de7	-0.014136768
10	0xbdc56ec1	-0.09640265
11	0x3d3922e8	0.045199305
12	0xbdd21b27	-0.10259085
13	0x3d8deb7b	0.0692968
14	0x3df0bed0	0.117551446
15	0x3ccb0fa8	0.024787739
16	0x3a93072f	0.0011217351
17	0xbd67615f	-0.056489345
18	0xbd703b7b	-0.058650475
19	0xbc48199d	-0.012213138
20	0xbee5b16e	-0.4486193
21	0x3d4a4308	0.049380332
22	0x3cd08342	0.025453214
23	0x3d1a16db	0.037619453
24	0x3c61f720	0.013791829
25	0x3dd8864c	0.1057249
26	0xbcfc43d1	-0.030794056
27	0x3d14858d	0.036260176
28	0x3d3bd2a1	0.04585517
29	0x3daa919e	0.083285555
30	0xbc8bd8aa	-0.017071087
31	0xbc5146ca	-0.012773225
32	0xbc45c306	-0.012070423
33	0xbf03fa42	-0.5155374
34	0x3e3a4161	0.18189003
35	0xbcd0328e	-0.025414731
36	0x3c1052d2	0.008808808
37	0xbd2a6d52	-0.041608162
38	0x3ca73e41	0.020415427
39	0xbc09ccf2	-0.008410679
40	0x3c8a1266	0.016854476
41	0xbe150b5c	-0.14555115
42	0xbd34627e	-0.044039242
43	0xbdaba65e	-0.083813414
44	0xbde39943	-0.11113217
45	0x3c0c81d9	0.00857588
46	0x3db8d1a2	0.09024359
47	0xbcafbb60	-0.021451652
48	0x3d3ce98c	0.046121165
49	0xbe82444f	-0.2544274
50	0xbf94aa26	-1.1614425
51	0x3d08989d	0.03334867
52	0xbc3784d6	-0.011201104
53	0xbccff7f2	-0.025386784
54	0x3d613439	0.054981444
55	0xbdd81f94	-0.10552898
56	0x3b44d4c5	0.0030034047
57	0x3d01b204	0.03166391
58	0xbbb9e6a6	-0.0056732474
59	0xbd230738	-0.039801806
60	0x3b340c54	0.0027473168
61	0xbc3a74ab	-0.011380355
62	0xbdf60890	-0.12013352
63	0x3c9483f1	0.01812932
64	0x3d734d4d	0.05939989
65	0x3d176563	0.036961924
66	0xbcfbee6f	-0.030753342
67	0x3d7a42f2	0.061099
68	0x3d710850	0.058845818
69	0xbe837d30	-0.25681448
70	0x3b86c171	0.0041124155
71	0xbd169ec2	-0.036772497
72	0xbee1ea6b	-0.4412416
73	0x3c977a77	0.018491013
74	0x3c74367b	0.014905567
75	0x3d1372cf	0.035998162
76	0x3cf21810	0.02955249
77	0xbdf4e6b7	-0.11958068
78	0x3c0eb9c7	0.008711285
79	0x3d029cd2	0.031887837
80	0x3bbfda24	0.005854862
81	0xbe0caf42	-0.1373873
82	0xbd130182	-0.03589011
83	0x3acf6acc	0.0015824675
84	0xbcb3120e	-0.021859195
85	0x3d228805	0.0396805
86	0xbe5017a1	-0.20321514
87	0x3d52061b	0.051275354
88	0xbd6d68b2	-0.057961173
89	0xbde30a97	-0.11086004
90	0x3bb4a1ed	0.005512467
91	0xbcdd94cf	-0.027048497
92	0xbe9c381f	-0.30511567
93	0xbcee1d47	-0.029066695
94	0x3cb89adb	0.022534778
95	0xbe487ff5	-0.19580062
96	0xbc9ba714	-0.019000567
97	0x3d80ef3a	0.06295629
98	0x3c9235f6	0.017847996
99	0x3e1d5d0f	0.1536753
100	0x3c9e1426	0.019296717
101	0xbcfbb651	-0.030726584
102	0xbb492456	-0.0030691824
103	0xbd5e20d9	-0.054230545
104	0x3d61a4f3	0.05508895
105	0xbd84cbc3	-0.06484177
106	0x3dcc655f	0.099802725
107	0xbd12f4e2	-0.03587807
108	0xbba728b2	-0.005101287
109	0xbcef719d	-0.02922898
110	0xbd7867fc	-0.060646042
111	0x3ced63c7	0.028978242
112	0xbd67f513	-0.056630205
113	0xbdd375b6	-0.10325186
114	0xbe72e950	-0.23721814
115	0x3d26adb6	0.040693007
116	0xbe00fb13	-0.12595777
117	0x3dd90eb7	0.1059851
118	0x3d1ddf6b	0.038543146
119	0x3d40b628	0.047048718
120	0x3dd5c752	0.10438408
121	0xbc853c3d	-0.016264075
122	0xbc41ecb4	-0.01183622
123	0x3d11bd9e	0.035581224
124	0xbd7134a6	-0.0588881
125	0x3bdc004e	0.0067139035
126	0x3cc77d68	0.02435179
127	0xbe076274	-0.1322115
128	0xbd1dd969	-0.038537417
129	0xbe55c5cb	-0.20876233
130	0x3d5c3770	0.053763807
131	0xbe12756b	-0.14302604
132	0xbc2060af	-0.009788676
133	0x3c2fa311	0.01072003
134	0x3d96a108	0.07354933
135	0xbc4bf641	-0.012448848
136	0x3d6b1fd8	0.057403415
137	0xbd79f511	-0.06102473
138	0xbe6c6fd8	-0.2308954
139	0xbb97bbbc	-0.004630534
140	0xbd0baa81	-0.034098152
141	0x3d4c1115	0.04982098
142	0x3de3695a	0.111040786
143	0x3df789ad	0.120868064
144	0xbdc63b85	-0.09679321
145	0x3c9a0d8a	0.018805284
146	0x3bb8d94a	0.0056411372
147	0xbd59823c	-0.053102717
148	0xbd1f41bc	-0.03888105
149	0xbc90ce82	-0.017676596
150	0x3cc422e3	0.023942417
151	0x3d570039	0.052490447
152	0xbdb04239	-0.08606381
153	0xbe14531d	-0.1448483
154	0xbe1f0504	-0.15529257
155	0xbd638dfb	-0.055555325
156	0xbcbb2d7c	-0.022848837
157	0xbc3e6d22	-0.011622699
158	0xbd362f08	-0.044478446
159	0xbdc71a25	-0.097217835
160	0xbca36913	-0.019947564
161	0xbd363720	-0.044486165
162	0xbc48e5f6	-0.012261858
163	0xbc9b5ca1	-0.018965067
164	0x3d9beb9c	0.07613298
165	0xbdc870db	-0.097871505
166	0xbb47eac5	-0.0030504924
167	0xbd19efdf	-0.037582275
168	0xbc890780	-0.01672721
169	0x3cba2051	0.022720488
170	0xbe229331	-0.15876462
171	0xbb880c4d	-0.004151857
172	0xbd78d4eb	-0.06074993
173	0xbd9a5a38	-0.07536739
174	0xbd23359e	-0.039846055
175	0xbdb8e217	-0.09027498
176	0x3dc78adc	0.09743282
177	0x3d392d36	0.045209132
178	0xbb0ccfac	-0.0021486087
179	0xbd100b67	-0.035167124
180	0x3d9d0fcc	0.07669029
181	0x3d4f0b73	0.05054803
182	0x3dcaa0ab	0.09893926
183	0x3e4ebfb0	0.2019031
184	0x3db7b0be	0.08969258
185	0x3d4ca3b0	0.049960792
186	0xbe748ba1	-0.23881389
187	0x3d28f4c2	0.041249044
188	0x3c01ca86	0.0079218205
189	0x3d06ae18	0.032880872
190	0x3dc2666c	0.09492192
191	0xbc0298a0	-0.007970959
192	0x3d91804f	0.07104551
193	0x3df79282	0.12088491
194	0x3d0223de	0.031772487
195	0xbd83ea85	-0.064412154
196	0xbd7808e6	-0.06055536
197	0xbd4eab00	-0.050456047
198	0xbd1cb5f3	-0.038259458
199	0x3da6a60e	0.08137141
200	0xbe95826b	-0.29201064
201	0x3c07934c	0.008274864
202	0xbe3d5e0d	-0.18492909
203	0x3d915322	0.070959345
204	0xbe11f723	-0.14254431
205	0xbe5f1a56	-0.2178739
206	0x3caf12eb	0.021371325
207	0xbe0a56e4	-0.13509709
208	0xbd9b4199	-0.07580871
209	0xbd364e5c	-0.044508323
210	0x3c12cc0c	0.008959781
211	0x3d360bfa	0.044445015
212	0x3dd3c029	0.10339386
213	0xbd5869d0	-0.052835286
214	0x3d176972	0.036965795
215	0xbdffb4e9	-0.12485678
216	0x3d57ebc8	0.052715093
217	0x3cd12589	0.025530593
218	0x3b7bf400	0.0038444996
219	0x3c16de9e	0.0092083495
220	0xbc809aec	-0.015698873
221	0x3e0521c9	0.1300117
222	0xbd8c9c7c	-0.068657845
223	0xbcd2c3ff	-0.025728224
224	0xbb2fa2d2	-0.002679993
225	0x3ce4834a	0.027894635
226	0x3be741d6	0.007057409
227	0x3d83f611	0.06443418
228	0x3a55efc6	0.0008161034
229	0x3da7b743	0.08189251
230	0xbe2ef267	-0.17084657
231	0x3dcb86b3	0.09937801
232	0xbe04fe54	-0.12987643
233	0x3d0d7b4f	0.034541424
234	0x3d21ed00	0.03953266
235	0xbd45d85f	-0.04830205
236	0xbc3371c2	-0.010952415
237	0xbd34c445	-0.04413249
238	0x3d3701ae	0.044679336
239	0x3c177053	0.009243089
240	0x3d24b240	0.040209055
241	0xbd355de7	-0.044279005
242	0x3d005e6a	0.03134004
243	0xbd005ba1	-0.031337384
244	0x3d76ddd4	0.060270146
245	0xbde3e0e2	-0.11126877
246	0x3cc24da3	0.02371866
247	0x3d058ec7	0.032606866
248	0xbd11f574	-0.035634473
249	0xbd4d1636	-0.05007001
250	0xbccd99e5	-0.025097797
251	0x3d4b77f6	0.04967495
252	0xbdfe1e7f	-0.124081604
253	0x3d47871f	0.048712846
254	0xbdc09e72	-0.09405221
255	0xbe3983aa	-0.18116632

layers.1.0.bias f4 [256]
0	0x3d06f41e	0.032947652
1	0x3d6f2cfa	0.058392502
2	0x3ca30e1e	0.019904193
3	0x3d1d4173	0.038392495
4	0xbd5a5188	-0.05330041
5	0x37f8f1b0	2.9676448e-05
6	0x3cffd11e	0.031227645
7	0x3cdfdd36	0.027327161
8	0xbccd4d3d	-0.025061244
9	0x3d18a183	0.037263405
10	0x3d4a987c	0.049461827
11	0xbd8d5ccb	-0.069024645
12	0xbc7d76ac	-0.015470188
13	0xbd119c24	-0.035549298
14	0x3d411766	0.047141455
15	0x3c67bdde	0.014144389
16	0x3b7aceb8	0.0038270187
17	0xbdc1d5f4	-0.094646364
18	0xbd832331	-0.064031966
19	0x3aeda628	0.0018131183
20	0xbbde3e04	-0.006782295
21	0xbb8daf9f	-0.004323914
22	0x3c7f9389	0.01559914
23	0x3d0fea8f	0.035135802
24	0xbd780cd9	-0.060559127
25	0xbcc5353b	-0.024073234
26	0xbcf3450e	-0.029696014
27	0xbccf423f	-0.025300143
28	0x3b758427	0.0037462802
29	0x3d4f21cb	0.050569337
30	0xbd0230b7	-0.03178474
31	0x3d96a48c	0.073556036
32	0x3d3cb46f	0.046070512
33	0xbdb0b7ae	-0.08628784
34	0x3d5c4b93	0.05378301
35	0x3c479cfe	0.012183426
36	0xbd8f56e6	-0.069989964
37	0xbd11061a	-0.03540621
38	0xbc45fac9	-0.012083718
39	0x3d31edca	0.043439664
40	0x3d948086	0.072510764
41	0xbcdf5704	-0.027263172
42	0x3c985d2f	0.01859912
43	0x3d580514	0.052739218
44	0xbcb4c719	-0.022067593
45	0x3ce06126	0.027390074
46	0x3c8ef329	0.017449932
47	0xbdc15c1e	-0.09441398
48	0xbcae1cd5	-0.021253983
49	0xbca3a824	-0.019977637
50	0xbd1415a5	-0.036153454
51	0x3d40c2dc	0.047060832
52	0x3b9d3381	0.0047973995
53	0xbb8bded1	-0.004268505
54	0xbd1e1dea	-0.038602747
55	0x3c770039	0.015075737
56	0x3d97c33d	0.074102856
57	0x3d1db41b	0.03850184
58	0xbd469a92	-0.048487253
59	0x3d44f82f	0.04808825
60	0xbcc91223	-0.024544781
61	0x3c42668e	0.011865271
62	0xbca8facb	-0.0206274
63	0x3d9a634d	0.07538471
64	0xbc20fe69	-0.009826281
65	0x3d34b15e	0.044114463
66	0x3d03bc16	0.032161795
67	0xbd02e330	-0.031954944
68	0x3d80a148	0.06280762
69	0xbd754a56	-0.059885345
70	0xba618d37	-0.00086041115
71	0xbd8333e6	-0.06406383
72	0xbcc53c58	-0.024076626
73	0xbd8c504d	-0.06851254
74	0x3d8a3113	0.067476414
75	0xba0d423f	-0.00053885946
76	0xbd9394af	-0.072060935
77	0x3db58e4a	0.0886503
78	0x3c94af06	0.018149864
79	0x3d72d1ae	0.059281997
80	0xbd1fa23f	-0.03897309
81	0xbd4645fb	-0.048406582
82	0x3b07b332	0.0020706174
83	0xbd7d71b0	-0.061876
84	0xbc8c3a77	-0.017117722
85	0xbcddd6d4	-0.027079977
86	0x3d49487f	0.049141403
87	0x3db3cf08	0.087797225
88	0xbc439cc8	-0.011939235
89	0xbbdf7f4e	-0.006820596
90	0x3cd10e54	0.025519527
91	0xbd4ce7bf	-0.050025698
92	0xbc1f9843	-0.009740892
93	0x3d9d4ebd	0.07681034
94	0x3c25960f	0.010106578
95	0xbd276adc	-0.040873393
96	0xbda0dd47	-0.07854705
97	0x3d9451fe	0.07242201
98	0x3dd19b44	0.10234693
99	0x3cb826d1	0.022479447
100	0x3cdf8dc8	0.027289286
101	0x3d8e7a73	0.06956949
102	0x3d213122	0.039353497
103	0xbd283788	-0.041068584
104	0xbc2a5735	-0.010396768
105	0xbc5ee67f	-0.013604759
106	0x3d557d1a	0.05212126
107	0x3d171c04	0.036891952
108	0x3c1d5006	0.009601599
109	0xbdf5e1ec	-0.12005982
110	0x3d767b42	0.06017614
111	0xbcbba63a	-0.022906411
112	0x3d30d976	0.043176137
113	0x3d8ffad5	0.07030264
114	0xbd0d50b5	-0.034500796
115	0x3c66371e	0.014051227
116	0xbd6f6b94	-0.058452204
117	0x3ba1d55d	0.004938765
118	0xbc1145c0	-0.008866727
119	0x3cb67095	0.02227048
120	0x3cd04582	0.025423769
121	0x3dab18eb	0.08354362
122	0x3c7932ae	0.015209837
123	0xbdbacf7f	-0.09121608
124	0x39a2eb59	0.00031074396
125	0x3ca955d9	0.020670818
126	0x3c35ede7	0.011104084
127	0xbda8009b	-0.082032405
128	0x3c3753f6	0.011189451
129	0x3cc40cb1	0.023931833
130	0xbd2e2632	-0.042516895
131	0x3cc0cff3	0.023536658
132	0x3c11baca	0.008894632
133	0xbcc4dd50	-0.024031311
134	0xbc19f60d	-0.009397042
135	0xbcd7b783	-0.026332622
136	0x3d841f31	0.06451262
137	0x3d8c15dd	0.068401076
138	0xbc2c2339	-0.010506445
139	0xbcb0c223	-0.021576947
140	0x3d8b1fc3	0.067931674
141	0x3d6660a5	0.05624451
142	0x3d078fb7	0.03309604
143	0xbc73c84a	-0.014879296
144	0xbd6c951e	-0.057759397
145	0x3ccc5723	0.024943894
146	0xbd6e8f07	-0.05824187
147	0xbd6d75c3	-0.057973634
148	0xbd56453f	-0.052312132
149	0x3d62871c	0.05530463
150	0x3d4671d7	0.04844841
151	0xbc2114f6	-0.009831658
152	0xbba47d3c	-0.005019812
153	0x3d19ee2c	0.037580654
154	0x3d54d35c	0.05195938
155	0x3da81195	0.082064785
156	0xbb2fa9a0	-0.0026803985
157	0xbd36c59b	-0.044622045
158	0x3d8dfc5b	0.069328986
159	0x3d8d1e63	0.068905614
160	0xbcbdc6e3	-0.023166126
161	0xbba5c5f8	-0.005059
162	0x3d521e0b	0.051298182
163	0xbd18ea45	-0.03733279
164	0x3d013aae	0.031550102
165	0x3da95325	0.08267812
166	0xbd16b8e4	-0.03679742
167	0xbcfe75d0	-0.031062037
168	0xbce91207	-0.028450979
169	0xbd853d14	-0.0650579
170	0xbd8885a2	-0.066661134
171	0x3d7c8a3f	0.06165528
172	0xbbcd7eed	-0.0062712342
173	0x3d299b44	0.04140784
174	0xbda1a9e4	-0.07893732
175	0x3d19c21e	0.03753864
176	0x3d1af5c5	0.03783204
177	0xbba094e3	-0.004900561
178	0xbd0e820e	-0.034792
179	0x3d7d4e8c	0.061842486
180	0x3d877592	0.06614222
181	0x3d3253a7	0.04353681
182	0x3d56ada5	0.052411694
183	0xbd594d52	-0.053052254
184	0xbaa8ba8c	-0.0012872978
185	0xbd1598ae	-0.03652256
186	0x3c8c8213	0.017151868
187	0x3ce3b3d8	0.027795717
188	0x3da7871b	0.08180066
189	0x3cfa974d	0.030589724
190	0xbcf7a1be	-0.030228492
191	0xbd38f95e	-0.04515969
192	0xbd6ee276	-0.05832144
193	0xbd68fc3f	-0.056881186
194	0xbd292c9e	-0.041302316
195	0x3d59a2c0	0.053133726
196	0xbb4b7a05	-0.003104807
197	0xbcd4d53a	-0.02598058
198	0xbd691f9a	-0.056914903
199	0x3d28aba8	0.04117933
200	0xbd07cfb1	-0.033157054
201	0x3bfd317e	0.007726847
202	0xbcac8b33	-0.02106247
203	0x3bd59aa9	0.006518681
204	0xbccee459	-0.025255369
205	0x3d7319d4	0.059350803
206	0x3c1a8a50	0.00943239
207	0xbcccf5bc	-0.025019519
208	0x3d625e52	0.055265732
209	0x3c3fd996	0.011709591
210	0xbbe2412b	-0.0069047413
211	0x3d376a9f	0.044779416
212	0x3d8689f2	0.0656928
213	0x3caa6afc	0.020802967
214	0x3cb3da25	0.021954605
215	0xbd44407f	-0.04791307
216	0x3d60179e	0.054710023
217	0xbc00935c	-0.007847633
218	0x3d0344a1	0.03204787
219	0x3dad4122	0.08459689
220	0x3d6b56b3	0.05745573
221	0xbd3decfb	-0.04636858
222	0xbc587ca4	-0.01321331
223	0x3b94ac52	0.0045371437
224	0xbc68d45f	-0.014210789
225	0x3ad11607	0.0015951999
226	0x3d74b549	0.0597432
227	0x3d1a2cb0	0.037640274
228	0x3d137b4e	0.036006264
229	0xbbbbe8e1	-0.0057345484
230	0x3b55dfc9	0.0032634607
231	0x3ceabde8	0.028655007
232	0xbcd77581	-0.026301147
233	0x3cce3935	0.025173763
234	0xbc05be21	-0.008163006
235	0xbd06de51	-0.03292686
236	0xbd0ee713	-0.03488834
237	0xbd38227e	-0.04495477
238	0xbd4d531b	-0.050128084
239	0x3d74b5af	0.05974358
240	0x3b378b0c	0.0028006462
241	0x3c69105e	0.014225094
242	0x3d1f4c0c	0.038890883
243	0x3d5d3b2c	0.05401151
244	0x3d1016fe	0.035178177
245	0x3d81f96f	0.06346404
246	0x3cfa1cb4	0.030531265
247	0x3d571e9e	0.052519433
248	0x3c27df53	0.010246116
249	0xbd00d930	-0.031457126
250	0xbd130549	-0.035893712
251	0xbd15f41a	-0.036609747
252	0x3c9b65ce	0.018969443
253	0xbc00129a	-0.007816935
254	0x3d54da0d	0.051965762
255	0xbaaa414c	-0.0012989431

layers.2.0.weight f4 [256, 256]
0	0x3d5975cb	0.05309085
1	0x3c53f8a8	0.012937702
2	0xbd0cae70	-0.034346044
3	0x3d37f423	0.04491056
4	0x3b716dc1	0.00368391
5	0xbcb12019	-0.02162175
6	0x3cbf4792	0.023349557
7	0xbd2a2051	-0.041534726
8	0x3cfca5df	0.030840812
9	0x3cfaadad	0.030600393
10	0x3cd07a76	0.025449019
11	0x3c933904	0.017971523
12	0xbd79bc51	-0.06097061
13	0xbcb06512	-0.02153257
14	0xbd82e978	-0.06392187
15	0x3d24cd49	0.040234838
16	0xbc85f7a9	-0.016353445
17	0xbd1935a5	-0.037404675
18	0xbc84bbaa	-0.016202766
19	0xbd0f5e52	-0.03500206
20	0xbd8a500c	-0.06753549
21	0xbcae71f1	-0.021294566
22	0xbd57f74e	-0.052726083
23	0xbb2cbbc8	-0.0026357044
24	0x3c1951ba	0.009357864
25	0x3d33b036	0.04386922
26	0xbca574d5	-0.020197311
27	0xbc6cdd5b	-0.014457072
28	0xbbcd3d81	-0.0062634354
29	0xbd3379d4	-0.043817356
30	0x3d53524c	0.051592156
31	0x3cf20bf7	0.02954672
32	0xbc90c4ed	-0.017672027
33	0x3d249bf3	0.040187787
34	0xbd4ceeca	-0.050032414
35	0x3d1f0a12	0.038827963
36	0x3d4cd424	0.050007
37	0x3d11ed2d	0.03562658
38	0xbc9041f0	-0.017609566
39	0xbd8ffcad	-0.07030616
40	0x3cfb1d05	0.030653486
41	0xbd677606	-0.05650904
42	0x3ccc69da	0.024952818
43	0xbc2c64a7	-0.010522044
44	0x3d1188a8	0.035530716
45	0xbd6ced35	-0.057843406
46	0x3bfa1ed0	0.0076330677
47	0xbd2331f4	-0.03984256
48	0xbd7b718c	-0.061387584
49	0x3d7661f1	0.060151998
50	0x3a7f5100	0.0009739548
51	0xbc9fb14b	-0.01949372
52	0xbc3e639c	-0.011620428
53	0x3d1f6167	0.03891125
54	0xbd2e35b9	-0.042531703
55	0x3d29a895	0.041420538
56	0xbbdfbb5e	-0.006827756
57	0xba5f73eb	-0.0008524048
58	0xbc937390	-0.01799944
59	0xbcee7bae	-0.02911171
60	0xbd7092d0	-0.05873376
61	0xbd8a98f0	-0.06767452
62	0x3d32ab4f	0.043620404
63	0x3d086349	0.03329781
64	0xbd3abca3	-0.045590054
65	0xbc453499	-0.012036466
66	0xbd87fc78	-0.066399515
67	0xbcbe2a84	-0.023213632
68	0x3d36039c	0.044437036
69	0xbcd80910	-0.026371509
70	0xbd4e2a00	-0.050333023
71	0x3d3d8c86	0.04627659
72	0xbcc7edf0	-0.02440545
73	0xbbb24216	-0.005440007
74	0x3d3041de	0.043031566
75	0xbd780625	-0.060552735
76	0xbd0510c7	-0.032486703
77	0xbc0a2aa6	-0.00843302
78	0xbd2f6f25	-0.042830605
79	0xbc2c763a	-0.010526234
80	0x3d14858f	0.036260184
81	0xbab1621b	-0.0013533266
82	0x3cf81c8e	0.030287053
83	0xbd197d62	-0.03747309
84	0x3cef4b1a	0.029210616
85	0x3d3b519c	0.045732126
86	0xbcf1e77a	-0.029529322
87	0xbc84cc32	-0.01621065
88	0x3c1e12ca	0.009648034
89	0xbd10dd1e	-0.035367124
90	0x3d381320	0.044940114
91	0x3d50079e	0.050788514
92	0xbd874e97	-0.06606787
93	0x3c5775a1	0.0131506035
94	0xbc803359	-0.015649484
95	0x3b9a5c89	0.004710738
96	0xbd36047d	-0.044437874
97	0x3ce8a0ba	0.028396953
98	0x3acf22bd	0.00158032
99	0x3d2003ba	0.039066054
100	0xbd5bcba7	-0.053661015
101	0xbd75f1bd	-0.060044993
102	0x3d088052	0.0333255
103	0x3ce9324c	0.028466366
104	0xbb0cfbb4	-0.0021512331
105	0x3b663a54	0.003512998
106	0xbb9b1251	-0.004732408
107	0xbc83f145	-0.016106257
108	0x3bb66cc3	0.0055671646
109	0xbd33f586	-0.04393532
110	0xbb67a59c	-0.0035346514
111	0xbd363b19	-0.044489954
112	0xbc85599c	-0.01627808
113	0xbd3c95a8	-0.04604116
114	0xbd350f40	-0.044203997
115	0x3b116bae	0.0022189426
116	0xbc0afef0	-0.008483633
117	0x3d015a55	0.031580288
118	0x3d4f19c4	0.05056168
119	0xbd6202c8	-0.055178434
120	0x3d13e23c	0.036104426
121	0x3d4766a9	0.04868189
122	0xbd0ef59d	-0.034902204
123	0x3ce6e0e5	0.02818341
124	0xbd03da79	-0.032190774
125	0x3d0b8b44	0.03406836
126	0xbd478844	-0.048713937
127	0xbd428ae1	-0.047495726
128	0xbd7d630f	-0.061862048
129	0x3c48812d	0.012237829
130	0xbcbcfa0a	-0.023068447
131	0x3cff8285	0.031190166
132	0xbd7e7ad5	-0.06212886
133	0x3c48b406	0.012249952
134	0xbd7b2da3	-0.06132282
135	0xbb3438e7	-0.0027499737
136	0xbd3a2d4f	-0.045453366
137	0xbc9f9a85	-0.01948286
138	0x3d5ba322	0.053622372
139	0xbcb7c45e	-0.022432502
140	0x3aaa0208	0.0012970576
141	0xbcd7df36	-0.026351552
142	0x3d604e5e	0.054762237
143	0x3d4a6c4c	0.049419686
144	0xbd0d08fa	-0.03443239
145	0xbbb9d4ef	-0.0056711356
146	0xbd6b8df7	-0.057508435
147	0xbb50a8a0	-0.003183879
148	0xbca28380	-0.019838095
149	0x3cb9fb66	0.022702884
150	0x3ab3e2a6	0.0013724163
151	0xbd2d6085	-0.042328376
152	0xbd59be41	-0.053159956
153	0x3cc10bdf	0.02356523
154	0xbd263108	-0.040574104
155	0xbd4e252f	-0.05032843
156	0x3d4a8729	0.049445305
157	0x3c528fe6	0.012851691
158	0xbd4beca5	-0.04978623
159	0xbd80861a	-0.06275578
160	0xbd0d198d	-0.034448195
161	0x3a9c807b	0.0011940146
162	0x3d0589ec	0.032602236
163	0x3d6c9320	0.057757497
164	0xbcb39de9	-0.021925883
165	0xbd0279b1	-0.031854335
166	0x3b89278b	0.004185622
167	0x3d5543a4	0.05206646
168	0xbd44ec20	-0.04807675
169	0x3d09a3d8	0.03360352
170	0x3b57a8b4	0.0032906951
171	0xbd361b17	-0.04445943
172	0x3d0ad8f5	0.033898313
173	0xbd666f04	-0.056258217
174	0xbd59d37e	-0.05318021
175	0x3d0c9396	0.034320436
176	0xbd785cdd	-0.060635436
177	0xbd6691d4	-0.056291416
178	0x3d25a0be	0.0404365
179	0x39896d9f	0.0002621235
180	0xba16f5dc	-0.0005758682
181	0x3d1abbe8	0.037776858
182	0xbccbcd3a	-0.024878133
183	0xbd789b68	-0.060695082
184	0x3d673ec8	0.056456357
185	0xbd106e35	-0.03526135
186	0x3bbbeea0	0.0057352334
187	0xbd898d37	-0.06716388
188	0x3d23c6eb	0.039984625
189	0xbbbd6b90	-0.0057806447
190	0x3d00f0c7	0.031479623
191	0xbd2a2412	-0.041538306
192	0xbd5e875a	-0.0543283
193	0x3d7b0d2e	0.061291866
194	0xbd83ce7e	-0.0643587
195	0xbd53c7eb	-0.05170433
196	0x3d3f4f8a	0.046706714
197	0x3a65b3ee	0.00087624684
198	0x3d7f73b0	0.062366188
199	0x3bc42ed4	0.0059870277
200	0xbc21ece8	-0.009883143
201	0xbcd88e20	-0.026434958
202	0x3d3af44c	0.045643136
203	0x3d186edc	0.0372151
204	0x3d201818	0.039085478
205	0xbd014e48	-0.031568795
206	0xb8ed9d4b	-0.00011330339
207	0xbd80a819	-0.06282062
208	0x3cbeec9d	0.023306185
209	0xbcff371c	-0.031154208
210	0x3d2b29b0	0.041787803
211	0x3a1bbe0e	0.0005941101
212	0xbd68038e	-0.056644015
213	0xbb94dd49	-0.004542981
214	0x3d368d5a	0.044568397
215	0xbc1afb5b	-0.009459342
216	0xbd750004	-0.059814468
217	0x3d02bc41	0.031917814
218	0xbcb85c7e	-0.022505041
219	0xbd5476c9	-0.051871095
220	0xbd7c143d	-0.06154274
221	0x3d3005a9	0.042974148
222	0x3d40fac3	0.047114145
223	0x3c4b176e	0.012395723
224	0x3cdcac33	0.02693758
225	0xbbfc4b8c	-0.0076994356
226	0xbd7df45a	-0.06200061
227	0xbd732002	-0.059356697
228	0xbd23ab0e	-0.039958052
229	0xbc52d1a2	-0.012867363
230	0xbd891e2d	-0.06695209
231	0xbcee5fa8	-0.029098347
232	0xbd047d68	-0.03234616
233	0x3b4c2068	0.0031147245
234	0x3d5d7cd1	0.054074112
235	0x3d059386	0.032611392
236	0x3c5f06db	0.013612474
237	0xbd44749e	-0.047962777
238	0x3d469c17	0.048488703
239	0xbcf9bfc5	-0.03048695
240	0xbd4f3a8b	-0.05059294
241	0x3c50f0ef	0.012752756
242	0x3cd0e3e6	0.025499295
243	0xbd79d4a8	-0.06099382
244	0x3d410224	0.047121182
245	0x3c8b2f47	0.016990317
246	0xbcfada78	-0.030621752
247	0x3d0b6cb5	0.034039218
248	0xbc820113	-0.015869653
249	0xbc9ba099	-0.018997477
250	0xbd131bc3	-0.035915148
251	0xbc40be1f	-0.011764078
252	0xbc56799c	-0.013090517
253	0x3d390db2	0.045179076
254	0xbd44c88a	-0.04804281
255	0x3ad6bb40	0.0016382709

layers.2.0.bias f4 [256]
0	0xbd481558	-0.04884848
1	0x3d8a353f	0.06748437
2	0xbd5b4560	-0.053532958
3	0x3d900b72	0.07033433
4	0xbc205438	-0.009785704
5	0x3cf4db94	0.02988986
6	0x3daeff50	0.08544791
7	0x3c8d7dff	0.017271994
8	0xbd15f2ca	-0.036608495
9	0x3c9e55af	0.019327966
10	0x3d8d827d	0.06909654
11	0x3d92d1b4	0.07168904
12	0x3cfe6858	0.031055614
13	0x3d007432	0.031360812
14	0xbd45176c	-0.04811804
15	0xbd9b989e	-0.07597469
16	0x3d0043bd	0.0313146
17	0xbb23750d	-0.0024941594
18	0x3cdbcb84	0.026830442
19	0xbcd0b511	-0.025476964
20	0x3c7da9b9	0.01548236
21	0x3d06948d	0.032856513
22	0xbd65ce58	-0.056104988
23	0xbc0ae435	-0.00847726
24	0xbde6b171	-0.11264313
25	0x3df23c4c	0.11827907
26	0x3cde2a77	0.027119858
27	0x3cd83e5d	0.026396925
28	0xbd70486f	-0.058662828
29	0xbbb5d3f7	-0.00554895
30	0xbd74a80a	-0.059730567
31	0xbdd0aadf	-0.10188841
32	0x3c844ee7	0.016150905
33	0xbd90be0b	-0.07067498
34	0x3ccdd742	0.025127057
35	0xbceddf4d	-0.029037142
36	0x3dabb5dc	0.08384296
37	0xbd8c40d1	-0.068483
38	0xbd8d17fb	-0.068893395
39	0xbd462262	-0.048372634
40	0xbbf0a93f	-0.0073443945
41	0x3dccfbe6	0.10008983
42	0x3c95df55	0.01829497
43	0x3d2fe569	0.042943392
44	0xbd7d77bf	-0.061881777
45	0x3b07cdb4	0.0020721974
46	0xbd662529	-0.056187782
47	0x3d24b914	0.040215567
48	0xbcf0792a	-0.02935465
49	0xbd2c1a45	-0.04201724
50	0x3dda466d	0.10657964
51	0x3ccfaa40	0.025349736
52	0x3deb8818	0.11500567
53	0x3ba587b5	0.005051578
54	0xbdb93b34	-0.09044495
55	0xbba6fda7	-0.0050961557
56	0xbcc034ba	-0.023462642
57	0x3d8cc71e	0.06873916
58	0x3d9479a8	0.072497666
59	0x3d731c81	0.059353355
60	0xbbdb509b	-0.0066929585
61	0xbd33e35b	-0.043917995
62	0x3d902f0e	0.07040225
63	0xbc106a81	-0.008814455
64	0xbdb7333b	-0.08945318
65	0x3cae4943	0.021275168
66	0xbc7ca982	-0.015421273
67	0x3be18b96	0.006883095
68	0x3b75c420	0.0037500933
69	0xbc609cc7	-0.013709254
70	0xbd959ad2	-0.0730492
71	0xbd289d9b	-0.04116593
72	0xbd0ee5ca	-0.034887113
73	0x3bae2d46	0.0053154556
74	0x3dbcfdfc	0.09228131
75	0xbccf1d19	-0.02528243
76	0x3c624ea3	0.013812694
77	0x3c982502	0.018572334
78	0xbcb0601e	-0.021530207
79	0x3b6b0b84	0.0035865018
80	0x3d394508	0.04523185
81	0xbc6afd8d	-0.014342678
82	0x3c809736	0.015697103
83	0xbcdbfa63	-0.026852792
84	0x3c834f5f	0.016029058
85	0x3cfb6135	0.030686
86	0xbd9341e3	-0.07190301
87	0xbd6f93c0	-0.058490515
88	0x3dcfea35	0.10152093
89	0xbd99ecc1	-0.0751586
90	0xbd39304f	-0.045212086
91	0xbd5c9cb3	-0.053860378
92	0x3d1899d8	0.03725609
93	0x3ad700c7	0.001640343
94	0xbc24e64e	-0.010064675
95	0xbd8398b0	-0.06425607
96	0xbd37a7be	-0.044837706
97	0x3d269a8f	0.040674742
98	0x3d223425	0.03960051
99	0x3d274424	0.04083647
100	0xbd149055	-0.03627046
101	0xbdbaafac	-0.09115538
102	0x3e06f1bd	0.13178153
103	0xbd2e9b47	-0.042628553
104	0x3d663b5f	0.056208964
105	0x3de5f5cb	0.11228522
106	0xbc44315e	-0.011974661
107	0x3d8d1578	0.068888605
108	0xbc340fc7	-0.01099009
109	0xbd09d20a	-0.033647574
110	0x3d1f7f8f	0.03894001
111	0xbd28c80e	-0.041206412
112	0xbd12d255	-0.03584512
113	0x3d9c1700	0.076215744
114	0x3cf52900	0.029926777
115	0x3d2a1491	0.04152352
116	0x3d5a668c	0.053320453
117	0x3dd109fd	0.10206983
118	0xbc90a8d2	-0.017658625
119	0x3d17cdf4	0.037061647
120	0x3d46c60e	0.048528723
121	0x3d9b72cb	0.075902544
122	0xbcd1176d	-0.025523866
123	0xbcebaacd	-0.028767968
124	0xbd15e30e	-0.03659349
125	0x3a9c7139	0.0011935598
126	0xbd517e6b	-0.051145952
127	0x3daa51ec	0.083164066
128	0xbd7a5f95	-0.06112631
129	0xbd10f064	-0.035385504
130	0xbd0d4804	-0.034492508
131	0x3cd769ee	0.026295628
132	0x3d216a05	0.03940775
133	0xbda8577f	-0.082198136
134	0xbd9011c6	-0.0703464
135	0xbd66dadb	-0.05636106
136	0xbc46e390	-0.012139216
137	0x3dfd4d23	0.12368228
138	0xbd066603	-0.03281213
139	0xbd013243	-0.031542074
140	0x3d9941a4	0.07483223
141	0x3c7e502d	0.015522045
142	0x3d799dcd	0.060941506
143	0xbd59565c	-0.053060874
144	0xbcfe6497	-0.031053824
145	0x3db14cf4	0.08657256
146	0x3d72614b	0.059174817
147	0xbbe42560	-0.0069624633
148	0x3d5adffb	0.05343626
149	0xbcfb4394	-0.030671872
150	0xbd4289a5	-0.04749455
151	0xbd540ca7	-0.05176988
152	0x3de53af6	0.111928865
153	0xbc749980	-0.014929175
154	0x3d334cac	0.043774292
155	0x3d842c48	0.064537585
156	0xbd80665d	-0.06269524
157	0x3d2b0abc	0.041758284
158	0x3c208f54	0.009799797
159	0xbb833c45	-0.0040049874
160	0xbc26d1d9	-0.0101818675
161	0x3cbff804	0.023433693
162	0x3bfeae7e	0.007772266
163	0xbd26258d	-0.040563155
164	0x3d0387fa	0.0321121
165	0x3ab37e53	0.0013694264
166	0xbd12ffdc	-0.035888538
167	0xbdb4c223	-0.08826091
168	0xbbe8d229	-0.007105131
169	0x3c7e7e09	0.015532979
170	0x3d94ed69	0.07271845
171	0x3d6983e5	0.05701055
172	0xbd145e92	-0.036223
173	0xbd8298ce	-0.063768014
174	0x3d0286d9	0.031866882
175	0x3c5559b4	0.013021875
176	0x3d369804	0.044578567
177	0x3e08c0f6	0.13354859
178	0xbd971f4e	-0.07379018
179	0x3db83fc7	0.089965396
180	0x3c17cfcc	0.009265851
181	0x3d04e6a5	0.032446522
182	0x3be1e183	0.006893338
183	0x3a4dc4f2	0.00078494765
184	0xbc89ae9e	-0.016806897
185	0xbd43b0b9	-0.047775958
186	0x3cd69238	0.02619277
187	0xbbd06f8a	-0.0063609527
188	0x3c59c6f3	0.013292062
189	0x3d78d759	0.060752247
190	0xbce2a244	-0.027665265
191	0x3715d080	8.929637e-06
192	0x3d54eb95	0.05198248
193	0xbd381217	-0.044939127
194	0x3dd0f3e4	0.102027684
195	0x3d426633	0.047460746
196	0x3d2d8477	0.042362656
197	0x3d359edd	0.044340957
198	0x3dd2a45d	0.10285256
199	0x3c44ffcd	0.012023878
200	0xbd671345	-0.05641486
201	0xbd660c01	-0.05616379
202	0x3d53fc47	0.051754262
203	0x3d7dcd38	0.06196329
204	0x3d90b78c	0.07066259
205	0x3d41eaa3	0.047342908
206	0xbc1e84d9	-0.009675228
207	0xbbcdaf3c	-0.006276993
208	0xbd840e22	-0.06448008
209	0xbdc5d06f	-0.09658896
210	0xbd7551ee	-0.059892587
211	0xbc08d2e9	-0.008351066
212	0xbb8d933c	-0.00432053
213	0xbba6acd5	-0.005086521
214	0xbd95f40e	-0.0732194
215	0xbd73fa17	-0.059564676
216	0xbd3cd463	-0.046100985
217	0x37ecd4e6	2.823253e-05
218	0xbcffc1b9	-0.031220304
219	0xbc0e63c4	-0.008690778
220	0xbd709a24	-0.05874075
221	0x3d65d550	0.056111634
222	0x3c931c2a	0.017957766
223	0xbccc9dd9	-0.024977611
224	0x3ce32ea9	0.02773221
225	0x3daca714	0.08430305
226	0x3c5bace2	0.013407918
227	0xbd50c8ce	-0.050972752
228	0x3d3156f6	0.043295823
229	0xbc0d8f6c	-0.0086401515
230	0x3de1c121	0.110231645
231	0xbca8e163	-0.020615285
232	0xbd83e3a6	-0.06439905
233	0x3d0f42bc	0.034975752
234	0xbd6f8a72	-0.05848164
235	0xbdc7d253	-0.09756913
236	0x3d3dfade	0.046381824
237	0xbd94f184	-0.07272628
238	0xbb52b4bf	-0.003215119
239	0xbd4e7aa8	-0.050409943
240	0x3cc006b1	0.02344069
241	0x3d6ca119	0.057770822
242	0xbd4a3379	-0.049365494
243	0xbdb678fb	-0.08909794
244	0x3d27aaea	0.04093448
245	0xbd42b9db	-0.047540527
246	0x3dcbcbf2	0.09951009
247	0x3d057f4f	0.032592114
248	0x3cc3bbb0	0.023893207
249	0x3da7df8c	0.08196935
250	0x3dc174d2	0.0944611
251	0x3d409c80	0.04702425
252	0xbb55cffd	-0.0032625191
253	0x3cb3e15b	0.021958044
254	0x3e03f645	0.12886913
255	0x3dd321cd	0.10309181

ik_task.weight f4 [1, 256]
0	0x3d32460a	0.043523826
1	0xbd5f5ca2	-0.0545317
2	0xbd12b4ec	-0.03581707
3	0xbd380a2c	-0.044931576
4	0x3e7f48df	0.24930142
5	0x3f791c40	0.9730873
6	0xbf81a35a	-1.0127976
7	0x3d013e39	0.03155348
8	0xbcce813f	-0.025208114
9	0x3e930582	0.2871514
10	0x3d966e70	0.07345283
11	0x3d56dca5	0.052456517
12	0xbdc85b2a	-0.09783013
13	0xbde91868	-0.11381608
14	0x3eb0f98a	0.34565383
15	0xbf29ded2	-0.6635562
16	0xbe0da9a7	-0.13834248
17	0xbe79a431	-0.2437904
18	0xbb4f27bb	-0.0031609375
19	0x3ea6eed4	0.32604086
20	0xbd7eed8e	-0.06223827
21	0x3db8242a	0.08991273
22	0xbc8a79d4	-0.016903795
23	0xbc1eabc5	-0.009684508
24	0x3ecb9c3c	0.39767635
25	0xbf249f01	-0.6430512
26	0x3dc0f175	0.09421054
27	0x3e7d9cdd	0.2476687
28	0x3edbbc49	0.42917088
29	0x3defbc6e	0.11705862
30	0x3e843bc4	0.25826848
31	0x3fe1a1b6	1.7627475
32	0xbd7b88b8	-0.061409682
33	0xbc03c5f3	-0.0080428
34	0x3b0d69c4	0.0021577934
35	0x3ed14455	0.40872446
36	0xbde6e35b	-0.11273833
37	0x3dc1a695	0.09455601
38	0x3d9f253e	0.07770775
39	0x3f167afc	0.5878141
40	0xbc1e7df5	-0.009673585
41	0xbdb51a4d	-0.08842907
42	0x3f4abd6a	0.7919527
43	0x3dfc5621	0.12321115
44	0x3ec3e852	0.38263184
45	0x3eb149ea	0.34626704
46	0xbea9c58c	-0.3315853
47	0x3e8c4838	0.2739885
48	0x3bb4d722	0.00551881
49	0xbcefffb2	-0.02929673
50	0xbeda9ec6	-0.4269926
51	0x3dbb64a7	0.09150057
52	0xbdaf362c	-0.08555254
53	0x3ed0245d	0.40652743
54	0x3dc282ca	0.09497602
55	0x3e821f68	0.25414586
56	0x3d8c639f	0.06854939
57	0xbf5d595d	-0.8646448
58	0xbdb904ee	-0.090341434
59	0xbda6f309	-0.08151824
60	0x3d3b7772	0.04576821
61	0x3e120b6f	0.14262174
62	0xbf0fcf68	-0.5617585
63	0x3e934000	0.28759766
64	0x3e5c9a66	0.21543273
65	0x3e8112f6	0.2520978
66	0x3e6243a0	0.2209611
67	0x3d20a8c2	0.03922344
68	0x3dda2849	0.10652215
69	0xbe3f2633	-0.18666916
70	0x3e782100	0.24231339
71	0x3e067671	0.1313112
72	0x3e181564	0.1485191
73	0x3e6fdb32	0.2342346
74	0xbd90bb41	-0.07066966
75	0xbc6182af	-0.013764068
76	0x3ed9a92e	0.42511886
77	0xbc86da1c	-0.016461425
78	0xb9ece6fd	-0.00045185527
79	0x3d585be9	0.052822027
80	0xbdd9952f	-0.10624158
81	0x3e2367ee	0.15957615
82	0xbce2f6d3	-0.027705586
83	0x3ddc0d4f	0.10744726
84	0x3e691330	0.22761226
85	0x3ebd72fb	0.37001786
86	0x3ee19182	0.44056326
87	0xbd51639b	-0.05112038
88	0xbeeeee58	-0.46666217
89	0xbd4252bd	-0.047442187
90	0x3d87ea40	0.066364765
91	0x3db1c11d	0.086794116
92	0xbe9a60a5	-0.3015186
93	0x3e8b91cc	0.27259672
94	0x3f0bbff5	0.5458978
95	0xbf444190	-0.7666254
96	0x3da7d873	0.08195581
97	0xbcc04663	-0.023471063
98	0xbb901934	-0.0043975357
99	0x3e966ae6	0.29378432
100	0x3c9ec9e6	0.019383382
101	0x3e5676c2	0.2094374
102	0xbeea766d	-0.45793477
103	0x3e9c454e	0.30521625
104	0xbd139632	-0.03603191
105	0xbd5e682c	-0.054298565
106	0xbf093fb5	-0.53612834
107	0xbd9753e9	-0.073890515
108	0x3cc6b004	0.024253853
109	0x3d4100cc	0.0471199
110	0x3e08fb81	0.13377191
111	0x3c3b4eac	0.011432331
112	0xbc9917d2	-0.018688116
113	0xbf9f4b6d	-1.2444893
114	0xbd4fd103	-0.05073644
115	0xbd83ed0c	-0.064416975
116	0xbd6bdaa7	-0.05758157
117	0xbede3345	-0.4339849
118	0xbd999f72	-0.07501115
119	0xbdf242e9	-0.11829168
120	0xbbcac82f	-0.0061884145
121	0x3bda0540	0.006653458
122	0xbd13bc53	-0.03606827
123	0xbd62f07d	-0.05540513
124	0xbf3ec7c9	-0.745236
125	0x3c1d0129	0.009582796
126	0x3e913f2e	0.28368515
127	0xbdd67755	-0.104719795
128	0xbf1b61e0	-0.6069622
129	0x3e815b19	0.25264814
130	0x3e0119d5	0.1260751
131	0x3da72e7b	0.08163162
132	0xbd9716f8	-0.07377428
133	0x3e93e0f9	0.28882578
134	0xbbf3b984	-0.0074378867
135	0xbcb11d20	-0.021620333
136	0xbd6c792e	-0.057732753
137	0xbdd05ed2	-0.101743355
138	0x3d8d008c	0.0688487
139	0x3ec342fa	0.38137037
140	0xbda73886	-0.08165078
141	0xbd231b7f	-0.039821144
142	0xbdc759c2	-0.09733917
143	0xbcf1448e	-0.029451635
144	0xbe33158e	-0.17488691
145	0xbdc6928b	-0.096959196
146	0xbdcbb4e7	-0.09946614
147	0x3ed57855	0.4169337
148	0xbdca9281	-0.09891225
149	0x3fdd2d45	1.727944
150	0x3d570f0f	0.052504595
151	0xbd66835c	-0.056277618
152	0xbdc430ad	-0.09579597
153	0x3e6bed20	0.23039675
154	0xbdcfdb91	-0.10149301
155	0xbd359b1c	-0.044337377
156	0x3d369094	0.044571474
157	0x3ec2bd68	0.3803513
158	0x3eafba9a	0.34322053
159	0x3eb015ad	0.34391537
160	0x3b0554a3	0.0020344637
161	0x3cac43fb	0.02102851
162	0x3ed6f267	0.41981813
163	0x3caf718a	0.021416444
164	0x3e3acf5d	0.18243165
165	0xbfb8ffbb	-1.4453043
166	0x3eaa973a	0.33318502
167	0x3ef284b9	0.47366884
168	0x3e12a02c	0.14318913
169	0x3c87372b	0.016505798
170	0xbdc58ec9	-0.09646375
171	0xbf4a08fc	-0.7891996
172	0x3e50afd6	0.20379576
173	0xbc7fab86	-0.015604859
174	0x3c375be1	0.011191339
175	0x3d9017bf	0.07035779
176	0x3dd60e59	0.10451955
177	0xbed5de9f	-0.4177141
178	0x3eaf3a77	0.34224293
179	0xbda18c0e	-0.078880414
180	0xbc0c0d81	-0.008548141
181	0xbeaa4328	-0.3325436
182	0x3ec55b48	0.38546205
183	0x3d53aa14	0.05167587
184	0xbb99252e	-0.0046736216
185	0x3d17d125	0.03706469
186	0x3dcabc3a	0.098991826
187	0x3d938fa4	0.07205132
188	0xbeb28345	-0.34865776
189	0xbf1fb13d	-0.6237982
190	0x3eaeb26c	0.341205
191	0x3d22cfd0	0.039748967
192	0xbf1238c1	-0.5711785
193	0x3e9d9f94	0.3078581
194	0xbdba07b7	-0.09083503
195	0x3da74a0d	0.08168421
196	0xbd04ac80	-0.03239107
197	0xbd1fe21f	-0.039034005
198	0xbd910a31	-0.07082022
199	0x3ddd972a	0.10819848
200	0x3eb8545c	0.3600186
201	0x3c92183d	0.017833823
202	0xbda40850	-0.08009398
203	0xbd978409	-0.073982306
204	0x3daedf9d	0.085387446
205	0x3eedfcc2	0.464819
206	0xbe1e0abe	-0.15433785
207	0xbf1acfc9	-0.60473305
208	0xbf95f8e5	-1.1716582
209	0x3ef45721	0.47722724
210	0x3dcca3d0	0.09992182
211	0x3bfa79d9	0.00764392
212	0xbd602ebd	-0.054732073
213	0xbd378917	-0.044808473
214	0x3fa3d2af	1.279867
215	0x3c5c45ce	0.013444377
216	0x3db1f731	0.08689726
217	0xbce25176	-0.027626734
218	0xbc98b127	-0.01863916
219	0xbf47db0d	-0.7806862
220	0x3ed0ef84	0.40807736
221	0xbdf64d52	-0.120264664
222	0xbdbc19f7	-0.0918464
223	0x3b136022	0.002248772
224	0x3da0be2f	0.07848775
225	0xbdc2a854	-0.09504762
226	0xbd3a0450	-0.04541427
227	0x3f27c220	0.65530586
228	0xbdf8f524	-0.12156132
229	0x3d46f16c	0.04857008
230	0xbdcde391	-0.100531705
231	0xbf880fa9	-1.0629779
232	0x3e977ff9	0.29589823
233	0x3d0e6b23	0.034770142
234	0x3e5cd6a1	0.2156625
235	0x3e90e9cb	0.2830337
236	0xbd240da6	-0.04005208
237	0x3ec64684	0.38725674
238	0x3cecbe79	0.028899418
239	0xbc5d920a	-0.013523588
240	0xbeb48af5	-0.35262266
241	0x3d3ffdee	0.046873026
242	0xbce48e34	-0.027899839
243	0x3eb8ce28	0.36094785
244	0x3f0eac7d	0.55731946
245	0xbd1d4eee	-0.03840535
246	0xbd84ac76	-0.06478207
247	0x3cd95f55	0.026534716
248	0xbd31a677	-0.043371644
249	0x3d418ee6	0.04725542
250	0xbdee252b	-0.11628183
251	0xbdf3b19d	-0.118991114
252	0xbd25c955	-0.04047521
253	0xbeb7414c	-0.35792005
254	0xbede22ab	-0.43385825
255	0xbed11d5f	-0.4084272
