scripts/learning/models/[64,128,256,128,64]_end-triple_task_GSON.pth (torch_old, 356626 bytes, 20 tensors)

layers.0.0.weight f4 [64, 12]
000000 02 67 9b 3e ed bd 95 be 36 2b 49 be fe a6 f2 bd
       0.30352026 -0.29246464 -0.1964539 -0.118482575
000010 89 56 41 be 7f 15 5c 3f 36 cf ad 3f 60 9a d0 be
       -0.18880667 0.859703 1.3578861 -0.4074278
000020 63 c1 b0 bd 8a f6 61 3e 11 da cc 3b 45 af 73 be
       -0.086306356 0.22066703 0.0062515815 -0.23797329
000030 3a 4c be be 9a 20 99 3e 77 64 ee 3d 2f d8 a7 bd
       -0.3716753 0.29907686 0.11640256 -0.081955306
000040 ef 42 42 bb 8b 63 93 be 87 a9 8f 3f 62 35 c8 3a
       -0.0029641946 -0.28786883 1.1223611 0.0015274698
000050 fd 88 52 3e f3 d5 0d 3e c5 9a c8 3e e1 e8 9a bd
       0.2056007 0.13851146 0.3918058 -0.075639494
000060 ce 73 86 3e 78 cc b3 be e8 93 fd bd 6a 24 1c be
       0.26260227 -0.35116935 -0.123817265 -0.15248266
000070 df 92 4a 3e 23 1d 32 3f 2b 58 04 3f 2d a4 a1 3e
       0.1978259 0.6957571 0.51697034 0.3157057
000080 ba 03 bd 3d f6 36 8c 3d 10 d4 35 bf 96 db ad 3d
       0.092292264 0.068464205 -0.71026707 0.08489148
000090 e5 2e 49 3f 7d df c8 bd 57 f4 12 bc d3 61 77 3e
       0.7858718 -0.09808252 -0.008969388 0.2415841
0000a0 e9 35 47 3d 8e a3 ef 3d 96 f8 27 3f 16 21 ca bd
       0.048635397 0.117011175 0.6561369 -0.09869592
0000b0 74 af 32 be 67 7b 74 be 12 b4 73 bf 7a f5 48 bd
       -0.17449743 -0.238752 -0.9519664 -0.04906223
0000c0 f4 6b a1 be 82 d6 86 bf 77 6f fc be eb dc 07 3e
       -0.31527674 -1.0534213 -0.4930379 0.13267867
0000d0 e2 1a 06 3e 09 7d 5e 3f fa 8d 78 3f 2d d8 fb be
       0.13096192 0.8690954 0.9709164 -0.49188367
0000e0 f1 b1 3e be c8 8a 81 3d 7f a3 3c bf 93 fe 71 3e
       -0.18622567 0.063252985 -0.73686975 0.23632269
0000f0 ee 48 18 3c 8e c3 91 be f8 72 2f bf b4 16 9b 3e
       0.009294732 -0.2846951 -0.68534803 0.3029076
000100 ed b7 0c 3e eb cd 25 be 23 1f 87 bf de c2 05 3e
       0.13742037 -0.16191833 -1.0556377 0.13062617
000110 26 a5 e6 3d c0 63 b0 be 46 b0 22 3e 1c 9e e5 3e
       0.11261968 -0.34451103 0.15887555 0.4484719
000120 c7 d0 fa 3d bb b0 f0 3e 75 f6 8d 3c e8 60 75 be
       0.12246852 0.47009835 0.017329434 -0.23962748
000130 30 15 4c 3e fa d5 fa 3e 44 25 a2 3e c2 5e 40 be
       0.19929957 0.48991376 0.31669056 -0.18786147
000140 58 94 0e 3e 89 af 6f bd 40 7b 12 bf 77 fd 0c 3f
       0.13923776 -0.058517013 -0.57219315 0.55074257
000150 88 72 06 be a8 eb 2b 3f 33 df 91 3d a9 0d 1f be
       -0.13129628 0.6715646 0.0712265 -0.15532555
000160 20 e2 71 3e f5 45 8b 3f a4 70 78 bf 89 e4 3e be
       0.23621416 1.0880724 -0.97046876 -0.18641867
000170 e1 37 3f 3e 39 89 a6 bd 9e 1b 04 bf e5 29 88 3e
       0.1867366 -0.08131642 -0.5160464 0.26594463
000180 5a 5d b1 be 1c 33 19 3e 4a a7 04 3e 79 d4 15 be
       -0.34641534 0.14960903 0.1295444 -0.14631833
000190 69 1d 75 bd b5 68 ce bf 20 24 36 3f f9 e1 cb 3d
       -0.0598425 -1.6125704 0.7114887 0.0995521
0001a0 a7 6c 89 bb 57 3e 94 3d eb b6 d5 3e ee f0 6e 3d
       -0.0041938606 0.07238453 0.41741118 0.058335237
0001b0 0e 4f ac 3d d1 47 23 bf c6 72 b0 3e f5 a3 4e bb
       0.08413516 -0.6378146 0.34462565 -0.0031530831
0001c0 2c 64 4c 3b 99 22 1d bf 62 5d 32 bf 94 3f 0e 3f
       0.0031187637 -0.61380917 -0.6967374 0.5556576
0001d0 89 e8 8f 3e d9 2e 2f bc 86 a4 ec be da 2a 0a be
       0.28107098 -0.010692322 -0.4621927 -0.13492909
0001e0 c2 bd b5 bd b6 bb 91 be 1e dc 61 be 5d c1 07 be
       -0.08874084 -0.28463525 -0.22056624 -0.13257356
0001f0 92 4c cc bd f3 37 c3 bb 78 a1 cf 3f 62 10 2f 3e
       -0.09975542 -0.0059575974 1.6221151 0.17096093
000200 7a 10 b5 bd d4 78 5d be fb 1c 0d bf 72 f9 a4 3d
       -0.08841033 -0.21628124 -0.55122346 0.080553904
000210 19 bd e3 be c2 22 3d be 56 53 e3 3b de 89 8e 3e
       -0.44480208 -0.1847029 0.0069374247 0.2783956
000220 b1 0f 9b be e5 db fd 3f e1 db d8 bf c0 09 94 3c
       -0.3028541 1.9832731 -1.6942102 0.018071055
000230 49 5b f4 bc 05 67 b2 bd bd 95 e7 3e 33 da f8 bc
       -0.029828684 -0.08711056 0.4523143 -0.030377483
000240 2f af e8 be 36 8c 8e 3e 7d 59 90 be 64 c9 4a bd
       -0.45446154 0.27841347 -0.28193274 -0.049508467
000250 27 6e c0 3d dd 9e 8d 3f 55 c6 a8 3f 37 16 8c 3e
       0.0939601 1.1064106 1.3185526 0.273607
000260 fb 4d 2e be a5 6e ab 3d e7 5a 13 3e fa 69 c0 bc
       -0.17021935 0.08370713 0.14390145 -0.023488034
000270 72 7e 14 be c2 e1 6f bd b9 07 08 bf a6 e4 a0 3e
       -0.1450136 -0.05856491 -0.53136784 0.31424445
000280 1e 22 12 3e 61 e1 a5 bf 5c 56 1f 3e 19 fd 85 be
       0.14270827 -1.2959405 0.15560287 -0.2616966
000290 6f 94 41 3e af d8 95 3d 41 91 b0 3e dd 60 62 3e
       0.18904279 0.0731672 0.3448582 0.22107263
0002a0 da b2 b3 3e 76 8a 1f 3f 72 08 88 bd 44 62 31 3d
       0.3509739 0.6232065 -0.06642236 0.043306604
0002b0 97 af ed 3c 41 70 79 3f 53 b7 0f 3c b1 73 d0 bd
       0.029014392 0.9743691 0.008771735 -0.101783164
0002c0 66 44 75 3e 34 45 26 be 41 b9 be 3e 20 16 c4 3d
       0.23951873 -0.16237336 0.37250713 0.095745325
0002d0 b0 2c 11 3d af a2 5d 3e a6 e2 0e be 1a 04 37 be
       0.035443008 0.2164409 -0.13953647 -0.17872658
0002e0 f2 77 67 3e 5f 19 b0 bf 73 b6 71 3f 63 4f b4 be
       0.2260435 -1.3757743 0.9441902 -0.35216817
0002f0 bb 85 b8 3c ec dc ae bd 4b b9 b4 be cd c3 ab be
       0.022524705 -0.08538231 -0.35297617 -0.33547822
000300 60 55 3f 3f 3e 48 0b 3f 21 d5 42 be f2 62 e1 3b
       0.74739647 0.5440711 -0.19026615 0.0068782503
000310 c2 55 a8 3c d5 47 76 3e 7e b8 98 3f 3d c3 e2 3d
       0.020548705 0.24050839 1.1931303 0.11072395
000320 80 06 c9 ba ff 4d 7d 3a ee 2c c3 3d 6a 5a fc be
       -0.001533702 0.00096628064 0.09530054 -0.4928773
000330 de 96 dd be 9e f2 be 3e 3e 36 d6 3e ab ff 08 be
       -0.43279165 0.37294477 0.41838259 -0.1337878
000340 ce 79 9a 3e b5 93 90 3f fd 96 f7 3e 73 87 e0 3e
       0.30171055 1.1295077 0.48357382 0.4385334
000350 b8 a9 9d bd fa 74 1e bc ef ef 3c 3e 3c 9c ad be
       -0.07698387 -0.009671444 0.18450902 -0.3390826
000360 51 d0 0b be 88 dc e2 bd 0d 55 a6 3e 9d 30 31 3e
       -0.13653685 -0.11077219 0.32486764 0.17303701
000370 b0 a2 0c 3e 05 44 a5 3e d4 08 da 3e c9 75 b9 3e
       0.13733935 0.32278457 0.4258486 0.36222675
000380 29 71 2d be fa 2b 72 be f4 dd a7 be 78 3e 81 3e
       -0.16937698 -0.23649588 -0.32786524 0.25242972
000390 97 f0 21 be 3d b2 8c be 37 d5 f0 bc 20 b3 35 be
       -0.15814434 -0.27479735 -0.029398544 -0.17744112
0003a0 2f 42 5e 3e 1e fa fe 3e ec 77 a4 be 94 20 7d 3d
       0.21704935 0.498002 -0.32122743 0.061798647
0003b0 5b 3e 1b bc 7a 63 41 bd 65 bc aa 3e be 31 b9 3e
       -0.009475316 -0.04721401 0.3334686 0.36170763
0003c0 14 87 7a be 84 44 f3 3d 24 b9 ad bd 71 2b 05 be
       -0.2446559 0.11878303 -0.084825784 -0.13004853
0003d0 a2 a8 94 3e d1 d6 a2 bf 2f 05 60 3e b2 3b 26 3e
       0.29034907 -1.2721807 0.21876977 0.1623371
0003e0 94 8d a3 3d b1 8b 10 be a5 6f 4f 3f b1 7f f7 3e
       0.07985988 -0.14115788 0.8102973 0.48339608
0003f0 cc 55 0c 3f 61 56 f5 bb 86 f9 6c be 33 13 4f be
       0.54818416 -0.007487104 -0.2314206 -0.20222168

layers.0.0.bias f4 [64]
000000 f4 7c 4f 3e 9a b1 6f be 3d fe fb bd 57 8a 96 3d
       0.2026251 -0.23407593 -0.123043515 0.07350605
000010 2d f1 aa be b0 93 d3 be d0 b1 68 be 33 e3 d6 bc
       -0.33387128 -0.41323614 -0.2272408 -0.026231384
000020 0e 00 35 3d 2e a4 3c 3e 47 56 9d 3e ee fe cb be
       0.044189505 0.18422005 0.30729887 -0.39842933
000030 14 92 a2 bb d1 71 fc be 02 b9 e6 3d d0 56 96 3d
       -0.0049612615 -0.49305585 0.11265756 0.07340777
000040 7e d2 81 3e 63 f6 cb be b6 d4 bc 3d a5 a1 31 be
       0.25355905 -0.39836416 0.09220259 -0.17346819
000050 01 6e 20 bd 75 19 18 3e 17 6c 17 3e 6a a3 b7 3e
       -0.039167408 0.14853461 0.14787327 0.35866863
000060 02 17 47 3e 86 d0 7f be 49 2e e6 bc c4 4d 85 be
       0.1944237 -0.24981889 -0.028098242 -0.26035893
000070 87 e1 36 be 43 44 dc 3d 4a 2f 88 bd bb 0b fc 3d
       -0.1785947 0.107552074 -0.06649645 0.12306925
000080 43 ca 91 3e 72 1b 83 3e c8 a6 a2 be 70 c9 b5 3d
       0.28474626 0.25606877 -0.3176787 0.08876312
000090 c3 2e a3 bd ff c8 48 3e 16 43 a3 3c 33 d0 29 be
       -0.079679035 0.19607924 0.01992945 -0.16583328
0000a0 7d 5a ce 3a c6 b4 48 be 97 4e 16 be d9 34 35 3e
       0.001574352 -0.1960021 -0.14678417 0.17695941
0000b0 ae 30 07 be c0 c5 45 3e 94 45 5f 3e 85 65 88 be
       -0.13202164 0.19313717 0.21803886 -0.26639953
0000c0 9b 8a 6a 3e 89 98 5c be df cd c6 3e 22 e4 23 be
       0.22904436 -0.21542563 0.38828942 -0.16004995
0000d0 57 36 77 bc 53 79 20 bb 60 35 3a 3e d4 d1 1a 3e
       -0.015088639 -0.0024486377 0.18184423 0.15119106
0000e0 88 02 b4 be 61 fd 21 be 92 ea 73 bd 76 b1 90 be
       -0.3515818 -0.15819313 -0.059549876 -0.28260392
0000f0 83 db 89 3e 66 e7 ed be 41 86 3b 3b dc da 0e 3e
       0.26925287 -0.46465605 0.0028613957 0.13950676

layers.1.0.weight f4 [128, 64]
000000 a3 72 57 bd 97 5f 37 be 60 db 30 be 94 ee 89 bd
       -0.05259956 -0.17907558 -0.17271185 -0.06734958
000010 ef 05 53 bd 7d 8f cb bd fb 32 cb be bd 22 f1 bd
       -0.05151933 -0.099394776 -0.39687333 -0.11774204
000020 b4 db 00 3e ea 28 ce b9 e7 68 39 be 6c d5 0a 3e
       0.1258381 -0.00039321865 -0.18106423 0.13557976
000030 20 54 43 3a 5e a9 0c bd 09 22 2f bd 7a a7 10 3e
       0.0007451195 -0.03434121 -0.042757068 0.14126387
000040 cc 89 8a bd d6 07 12 3b 02 48 08 bd fe fd 79 3d
       -0.06764564 0.0022282503 -0.033271797 0.06103324
000050 40 6c 47 bd 98 0b cb 3e 31 07 03 be 58 cd 71 be
       -0.04868722 0.39657283 -0.12795712 -0.23613489
000060 c1 64 f1 bd a0 59 a8 bd b7 3a 0e be 45 35 8e bd
       -0.117867954 -0.082202196 -0.13889585 -0.06943754
000070 33 6b bf be e5 43 8c 3e ca 77 22 3e 08 7b 7f 3e
       -0.37386474 0.2739555 0.15866008 0.24949276
000080 6a 08 e4 3e f4 b3 d9 3d c1 65 10 3f 43 d2 3e be
       0.4453767 0.106300265 0.56405264 -0.18634896
000090 23 a6 61 3d c6 62 05 3e bc 6e 32 3c 99 c3 37 3e
       0.05509008 0.1302596 0.010890659 0.17945708
0000a0 08 b9 cb 3d 88 95 39 3e 82 ed 01 bd 5e 19 34 3e
       0.09947401 0.18123448 -0.031720646 0.17587802
0000b0 ce 54 2b 3d f4 55 a9 3d 7e 8e 54 3e 7f ad 97 3e
       0.041828923 0.082683474 0.20757481 0.29624555
0000c0 49 28 0b 3e 53 dc 87 bc 78 7f 2a 3e 6a 9d 87 3c
       0.13589586 -0.016584551 0.16650188 0.016554553
0000d0 2d b3 8a be 06 bb 1a bd ce fd b9 bd d5 89 05 3c
       -0.27089825 -0.037776016 -0.090816125 0.0081505375
0000e0 83 b4 6a bd 84 44 c3 3d fb 3a 57 bd 58 36 b3 3d
       -0.057301056 0.09534553 -0.052546483 0.087505996
0000f0 42 66 9d bd e2 b3 58 3e 3b 28 cf be a5 a0 a1 3e
       -0.0768552 0.2116237 -0.4046038 0.31567875
000100 8a 79 dc 3d 5e 63 52 bd 7c 04 66 bd 42 1f d1 3d
       0.10765369 -0.051364295 -0.05615662 0.1021104
000110 e5 11 18 3e 94 c1 86 be b7 66 05 bc a4 ae 11 3e
       0.14850576 -0.26319563 -0.008142165 0.14226776
000120 3c 88 6c 3d f8 fa db bd eb 22 5d 3c 9c ee 85 3b
       0.05774711 -0.10741228 0.013497095 0.0040872823
000130 2b 1b 9e 3c b3 79 cf 3d bf bb 71 bc f4 47 10 3e
       0.019300064 0.10130634 -0.014754235 0.14089948
000140 2b 5b 37 3e e5 fc 0d be 5b 62 b5 3c c7 5c e5 3d
       0.17905872 -0.13866003 0.022141626 0.111993365
000150 e9 45 10 be ab c1 c5 3b 24 ea 55 be 9a f6 9c bd
       -0.14089169 0.00603505 -0.20890099 -0.07664223
000160 b9 4d 28 be 38 29 81 3c e5 08 26 3e 6e ec 8b be
       -0.16435899 0.015766725 0.1621433 -0.2732882
000170 41 e7 04 be ec da 3b 3e 14 a2 e6 3d 18 2b ba 3d
       -0.12978841 0.18345231 0.11261383 0.09090251
000180 1f 1e 82 3d 66 46 45 3e 52 3a be 3d 52 5d 50 3e
       0.063534014 0.19265136 0.092884675 0.20348099
000190 2e 60 3b bd 10 28 f5 3c d7 91 8b 3e 65 35 b5 be
       -0.04574602 0.02992633 0.27259704 -0.353923
0001a0 7b 4f cd 3d 17 a9 48 3d ab 4b a8 3c c6 62 85 bd
       0.10024925 0.04898938 0.020543894 -0.0651298
0001b0 12 a0 81 3d af 29 98 be 1b b1 d7 3b 35 71 2a be
       0.06329359 -0.29719302 0.006582392 -0.16644748
0001c0 c8 61 9a 3e 56 2b 8b be d3 9f 83 bd 0d 7f 93 bd
       0.30152726 -0.271815 -0.064269684 -0.072019674
0001d0 a7 05 cf bd a4 4e 31 be 4b 20 54 bd bf 09 30 be
       -0.101085 -0.17315155 -0.05178861 -0.17191218
0001e0 64 fd 42 be f8 8b 14 be 4b 86 11 be 5c 71 66 3d
       -0.19041973 -0.14506519 -0.14211385 0.05626045
0001f0 31 36 9a 3d f9 a7 8c bb 5b 05 12 3d 11 fb 08 be
       0.075298674 -0.004292485 0.03564964 -0.13377024
000200 31 40 4e bd 3d f6 74 bd 4f 02 8b 3d 78 3b 97 bd
       -0.050354186 -0.059805144 0.0678755 -0.0738439
000210 4f 9c 07 be 19 39 94 3e 72 94 48 3e 9d aa 1a 3e
       -0.13243221 0.28949812 0.19587877 0.15104146
000220 3a 21 06 3e 50 e2 20 be e7 02 ad 3d 6a 04 04 3f
       0.13098612 -0.15711331 0.08447819 0.51569235
000230 4a 4e f4 bd a7 04 a3 3d 92 bc 55 3e f2 7d 13 3e
       -0.11928995 0.07959872 0.20872715 0.14403513
000240 87 86 5b bd 22 b6 c1 bd 4c 21 01 be 0a 13 31 be
       -0.053595092 -0.09458567 -0.12610358 -0.17292419
000250 49 29 28 3d ee 81 d4 bd 88 b3 f8 3d 44 95 1f 3d
       0.041054998 -0.103763446 0.12143618 0.03896071
000260 ca 43 7d 3e 40 93 9c bc 1c 25 9a 3d 3c d3 80 bd
       0.2473289 -0.019113183 0.07526609 -0.0629029
000270 94 b8 c6 bd e3 fe 00 3e b5 1b 3b be 03 a8 9b bd
       -0.09703174 0.12597232 -0.18272288 -0.07600405
000280 bb ac 07 ba 86 ab 78 be 67 f5 a9 be b8 ad b7 bd
       -0.000517558 -0.24284181 -0.3319504 -0.08968681
000290 b2 fa c8 3d 7b c0 d1 bd 8a b9 44 3d 89 d4 b8 bd
       0.09813441 -0.10241791 0.048028506 -0.09024913
0002a0 28 f6 47 be 3f 39 ae 3d ca 12 07 3e ac 8c d5 3c
       -0.19527495 0.085070126 0.13190761 0.026068054
0002b0 f0 ad 11 3e df 08 94 bd 98 1e a8 bd 18 d5 47 bc
       0.14226508 -0.072282545 -0.0820896 -0.012196802
0002c0 a1 41 72 3e f6 26 55 bd bc 29 9f bc 1e b1 02 3e
       0.23657848 -0.05203911 -0.01942908 0.12762877
0002d0 bd 2e e2 3d 4b a4 0b 3d d8 11 7c bd ad 29 c0 3d
       0.11044071 0.03409223 -0.061540455 0.09382949
0002e0 3d 57 c1 bd 13 1d 86 bd c8 2a 91 be 3c e8 4a 3d
       -0.094404675 -0.06548514 -0.28352952 0.049537882
0002f0 7a b8 16 3e be 46 82 3d eb 13 f8 3c 59 c9 60 be
       0.1471881 0.06361149 0.030282935 -0.21951808
000300 95 7b 35 3e 74 34 48 3d 26 53 9a 3b 44 7a 4c 3e
       0.17722924 0.04887815 0.004709619 0.19968516
000310 5a 29 ea 3d ea b9 3f 3e c9 49 3b 3e 67 80 50 3d
       0.114336684 0.18723264 0.18289866 0.050903704
000320 01 0b 0e 3e b8 c5 58 bd 99 7d a3 be 87 f4 1a 3e
       0.13871385 -0.052922934 -0.3193176 0.15132342
000330 37 50 3d bd 1c 5f e7 bd d1 ce 99 be 65 9f 88 bd
       -0.046219077 -0.112974375 -0.300406 -0.06671027
000340 30 0c a7 bd 2a 5c 51 bd 3d f2 29 3d 59 80 ae 3d
       -0.081566215 -0.051113285 0.041490782 0.08520574
000350 91 fc 75 3c 6f 5b ba 3d 94 c7 dd bd b0 7c ba 3d
       0.01501383 0.09099471 -0.10829082 0.091058135
000360 8d 47 4d bd 3a 2a 9e 3d 9a 18 8c 3e fa 92 8f 3e
       -0.050117064 0.07722898 0.2736252 0.28041822
000370 3d a1 64 be cc ad 1e 3e 3b 5a 91 bd f1 d8 81 be
       -0.22327133 0.15495986 -0.07097288 -0.25360826
000380 4f 25 28 3e c6 a1 47 bd 16 2d a9 be 7e f3 15 be
       0.16420482 -0.048738264 -0.3304221 -0.14643666
000390 e7 c1 fa bd 27 b3 e8 bc 5d 41 64 bc 8d 77 af bc
       -0.12244015 -0.028405739 -0.013931599 -0.021419311
0003a0 1c bf 09 3e 68 17 50 bd 1f da 81 3d e4 ac 09 be
       0.13451809 -0.050803572 0.063404314 -0.13444859
0003b0 d7 c4 8a be 03 bc 73 3d 59 b8 81 3e 9c 6f 97 bd
       -0.27103302 0.059505474 0.2533596 -0.07394335
0003c0 82 10 91 3c 46 eb 3d be d1 21 f3 3d 38 4f 93 3d
       0.017708067 -0.18546781 0.11871684 0.07192844
0003d0 a8 46 66 bd a3 92 de bd 9e a7 5d be 36 d6 2f 3e
       -0.056219727 -0.108678125 -0.21645972 0.17171559
0003e0 b7 32 d0 3d 30 a7 c6 bd 68 d0 a6 3d e0 7b 96 bd
       0.10165923 -0.09699857 0.08145219 -0.07347846
0003f0 41 4d 78 be 4d 39 9c be 81 2b 54 3d 7e af 19 be
       -0.2424822 -0.30512467 0.0517993 -0.15008351

layers.1.0.bias f4 [128]
000000 86 40 4c bd fe bc 22 3e 8e 57 6a 3d 33 67 09 3e
       -0.04986622 0.15892407 0.057212405 0.13418274
000010 96 60 b4 3d a5 6a 94 ba cf 95 e3 bd 63 2a 92 3d
       0.08807485 -0.0011323286 -0.11112558 0.07136991
000020 d1 71 0f be 22 6e cf 39 e1 bc 1a bd 3e a3 9e 3d
       -0.14008261 0.00039564172 -0.037777785 0.0774598
000030 4e 7d e4 bc a0 be c3 bd 13 19 d3 bc e1 a3 15 3e
       -0.027891781 -0.09557843 -0.025768792 0.14613296
000040 7c f5 db bd 1b 20 af 3d a9 ee 47 3d a1 d7 eb 3d
       -0.10740182 0.085510455 0.04881159 0.11515737
000050 c0 d4 cf bc 20 3d 3c be 57 03 fe 3d 1b e2 61 3c
       -0.025370002 -0.18382692 0.12402981 0.013786818
000060 45 eb 0d 3e 61 31 c2 bd 57 94 a1 bd 55 1c d5 3d
       0.1385928 -0.094820745 -0.07889622 0.104057945
000070 f8 7c d8 3c 1b cc 95 3d 67 e8 08 bd 4c 7b 09 be
       0.026426777 0.07314321 -0.03342476 -0.1342594
000080 12 e5 8e bd 50 43 5e 3b 25 43 00 3e 27 3b 2b bd
       -0.069772854 0.0033914633 0.12525614 -0.04180446
000090 26 04 a5 3d 4c c3 1d be 2e 69 fc 3c 38 ef 02 bd
       0.08057432 -0.15406531 0.030811872 -0.031966418
0000a0 ff 03 b6 3d c5 06 3b bd 33 18 aa be c4 c8 f2 3d
       0.08887481 -0.045660753 -0.33221588 0.11854699
0000b0 55 7a a2 3d 88 5d 1e 3e 73 71 51 be ed 13 bc bd
       0.07933489 0.15465367 -0.20453434 -0.09183488
0000c0 65 f1 85 3c ed 1c ba bd ae c4 87 bd a9 ac bd bd
       0.016350457 -0.090875484 -0.066293105 -0.09261448
0000d0 bb f8 fa bd 76 5d 04 bd 7a f0 ec 3d 28 17 87 bd
       -0.12254473 -0.032315694 0.11569305 -0.065962136
0000e0 b1 f5 b7 3d e3 32 49 be d0 11 c6 3d 64 af 8b be
       0.08982409 -0.19648318 0.09671366 -0.2728225
0000f0 cf 0a f3 3d 46 4f 1b bd ad 71 34 3d 43 8a 29 3e
       0.11867296 -0.037917398 0.044053722 0.16556649
000100 63 a9 ad 3d 0f 66 7c bd 16 9f ce bd 1c e1 d7 bb
       0.084795736 -0.06162077 -0.10088937 -0.0065881144
000110 5b ca 0f 3e 8f 37 d7 bd c9 25 cf 3c 41 59 e8 3d
       0.14042036 -0.10508644 0.025286572 0.11345149
000120 f4 87 05 3d 20 db 08 3e d0 cc 7f bd ff 5e 39 3d
       0.032600358 0.1336484 -0.062451184 0.04525661
000130 2f 17 3b be 6a 01 03 3e 53 ad 6c 3e f8 24 21 3e
       -0.18270563 0.12793508 0.23112993 0.15736759
000140 81 32 56 3e 1e 52 08 3d 30 26 26 3e 85 cf 50 bd
       0.20917703 0.033281438 0.16225505 -0.050979156
000150 28 05 23 3e b8 9e 6c 3c e2 de f7 3d bd 27 d7 3d
       0.15919936 0.014442138 0.121030584 0.10505626
000160 1f 5c 1a 3e 2f 4b 00 bc e7 36 9e bd b5 40 4e 3d
       0.15074204 -0.007830425 -0.077253155 0.05035468
000170 5e c3 a3 bc 7e e0 97 bd 0c 59 bd 3d fd d7 8d be
       -0.01999062 -0.07415865 0.092455 -0.27703848
000180 20 2e 90 ba 25 a2 1e be 1e 92 0c 3e 3d 2f cd bd
       -0.0011000074 -0.1549154 0.13727614 -0.100187756
000190 2b e1 ef bd 9b 13 01 be dd 88 d2 bc 52 fc ae bc
       -0.11712869 -0.12605135 -0.025700027 -0.02136055
0001a0 c5 7a 29 bd 47 87 59 bd ec b4 ba 3c 06 1f 99 bd
       -0.041376848 -0.053107526 0.022791348 -0.074766204
0001b0 ab f9 b9 bc f2 c7 80 3d a0 5e 05 3e 59 eb 16 3e
       -0.022702059 0.062881365 0.13024378 0.14738216
0001c0 69 37 17 3c f7 de 5f 3d 5b 32 90 3e 9a 11 2e 3e
       0.009229519 0.054655995 0.28163418 0.16998902
0001d0 a2 56 0c 3d e0 c5 0b 3e 79 64 27 3d 2d 7e ab 3d
       0.034262307 0.13649702 0.040867303 0.083736755
0001e0 5f c6 92 bb a4 8b a7 bc 4e e8 0d bc d4 97 23 3e
       -0.004479214 -0.020452328 -0.008661343 0.15975887
0001f0 7f c4 b8 3c f6 2c f9 bd 1b 0b 5d 3d 4a 66 e1 3d
       0.022554634 -0.12166779 0.05396567 0.11005838

layers.2.0.weight f4 [256, 128]
000000 72 1c 6d 3e df c3 61 3d 8d 1c 38 3d 21 14 20 3e
       0.23155382 0.055118438 0.044949103 0.15632679
000010 70 d2 d2 3d da e7 72 3f 6b 49 b2 be 58 77 62 3d
       0.10294044 0.9488503 -0.34821638 0.055289596
000020 83 6b 76 bc d1 24 58 3d e0 d3 99 3d 53 84 c3 be
       -0.015040281 0.052769486 0.07511115 -0.38186893
000030 e7 9a 0b bd de 87 be 3e 3a e7 33 bd a6 37 fa bc
       -0.034083273 0.37213033 -0.043921687 -0.030544113
000040 eb 51 bc 3c 51 89 01 bd 35 bd e9 bd 3c be 06 be
       0.02298828 -0.031625096 -0.114130415 -0.13158506
000050 3c 16 95 3e ff c6 a3 bc 18 16 95 bd 12 4a 5c be
       0.29118526 -0.01999235 -0.07279605 -0.2151263
000060 2d e6 2a be 42 54 44 3e 29 1f 0d be 4a 90 1b 3e
       -0.16689368 0.19172767 -0.13781418 0.1519176
000070 e4 1d ce 3c 0c 43 34 3d f4 11 9e 3d f7 40 74 be
       0.025160737 0.044009253 0.07718268 -0.23852907
000080 fb 0d d4 ba 1b 2d 6d be 23 1d 1d 3d cf 55 e3 be
       -0.0016178483 -0.23161738 0.038357865 -0.44401404
000090 13 82 51 bc 8b 78 4f 3d 72 bd 12 be cf 6a 93 be
       -0.01278736 0.050652068 -0.1433008 -0.28792426
0000a0 79 5d ce 3d 50 99 9e 3e b7 7b 10 bf 8f 1e c5 3c
       0.10076422 0.30976343 -0.56438774 0.024062423
0000b0 ef 60 8f bc a6 e0 3a bd 53 63 7c 3e 77 ab 27 3d
       -0.017502276 -0.045624398 0.24647264 0.040935006
0000c0 1f ed ae bd 48 32 12 3e 55 f3 9b 3d 8d 58 da be
       -0.08541321 0.14276993 0.07614771 -0.42645684
0000d0 38 8e 1f bd 30 68 8a 3d 23 3f 2e bd 25 68 63 3d
       -0.03895399 0.067581534 -0.04254068 0.05551924
0000e0 ad fb fb 3d a0 7e 18 3e 5d 48 85 3e ad c1 e3 be
       0.12303863 0.14892054 0.2603177 -0.444837
0000f0 1c 49 79 3e fd 1a 93 be 57 6e 88 b9 a3 c7 f4 3d
       0.24344295 -0.28731528 -0.0002602215 0.1195214
000100 7c d0 34 3d 30 aa 71 be fa 2a e3 3d f6 a7 fc 3d
       0.04414414 -0.23600078 0.110921815 0.123367235
000110 2d e7 cb bd 96 67 00 3d 62 a5 07 be 87 3c 7e 3c
       -0.09956203 0.031348787 -0.13246682 0.0155173605
000120 ea 7d 59 3e cb 22 a1 3d be 5a 46 be 3e fa 2f 3e
       0.21239439 0.07867964 -0.19370553 0.17185304
000130 19 1f 71 be 33 bd d0 bd ab a9 8f 3d 1c 1d 5e 3e
       -0.23547019 -0.10192337 0.070147835 0.21690792
000140 f5 40 69 bd e9 73 c5 3d 91 79 d4 3c c4 04 f2 bb
       -0.056946713 0.09641249 0.025936874 -0.007385822
000150 de d8 84 bb 5d 8d 71 3d 7d b6 90 bd 23 23 1b bc
       -0.004054173 0.058972705 -0.07066057 -0.009468826
000160 d4 4a 48 3e 7d d8 0b 3c 4a aa 8d 3d c2 3f 2c 3e
       0.19559795 0.008535502 0.06917246 0.16821197
000170 34 f5 22 3d 48 4b 27 bd 43 ac eb 3d 13 ab 09 3e
       0.039784625 -0.04084328 0.11507466 0.13444166
000180 d9 c2 ad 3c 03 d5 3f be 47 0c f8 bd 56 53 ce 3c
       0.021211075 -0.18733601 -0.12111717 0.025186222
000190 2a 3a ae bd 56 23 14 be c7 19 97 3e 93 c3 39 3e
       -0.08507188 -0.14466605 0.29511854 0.18141012
0001a0 ea ad 13 bf e9 a7 84 3e 24 de a8 be 07 07 35 bd
       -0.57687247 0.25909355 -0.3298198 -0.044196155
0001b0 8b b1 8a be 31 67 8d 3d 0b 73 53 bd 3c 0b ea 3d
       -0.2708858 0.06904448 -0.051623385 0.11427924
0001c0 66 d4 9e 3d d8 4a 44 bd 01 42 97 bd 76 fd 48 bd
       0.077553555 -0.04792294 -0.07385636 -0.049069844
0001d0 ae 84 ff 3e b3 e5 88 bd 0f e5 9d be 78 89 a7 3d
       0.49905914 -0.06684437 -0.3083882 0.08180517
0001e0 88 2d 6d 3a c6 f3 e2 3d da 0b ad 3e 6f e4 69 3e
       0.0009047617 0.11081652 0.33798105 0.22841047
0001f0 7c e8 17 3e db a9 d5 3d c4 0f 5a be 91 2f 1c be
       0.1483478 0.10432788 -0.21295077 -0.1525252
000200 a6 79 0b 3e 6f 36 48 3d 8d 51 e0 bb 2f 39 93 3d
       0.13620624 0.048880037 -0.006845659 0.07188641
000210 bd f2 b2 bc 08 c4 42 3f 0c 26 2e bd a8 4a 62 bd
       -0.021844262 0.7608037 -0.042516753 -0.05524698
000220 91 fb d6 3d 96 24 41 bd fa d0 6e 3e 0e 94 5f 3d
       0.10497201 -0.04715403 0.23321906 0.054584555
000230 27 49 76 3d 83 3a 4a 3e 5b 0d 8e bd 01 5b 14 3e
       0.060128357 0.19748883 -0.06936141 0.1448784
000240 7a cc 88 bd 05 aa 41 3d 04 67 84 bd bf be 9b 3d
       -0.06679626 0.047281284 -0.06464961 0.07604741
000250 20 94 69 be 48 6f 10 be bc b8 b5 3d 06 81 92 3e
       -0.22810411 -0.1410495 0.08873126 0.28614062
000260 13 40 f3 3c 26 f5 0d bd 00 33 24 3e a0 27 21 be
       0.029693639 -0.03465762 0.1603508 -0.15737772
000270 06 07 cc 3d c4 6e b4 3c 55 cc 89 be 55 9e af 3e
       0.09962277 0.022025473 -0.26913705 0.34300485
000280 82 53 a2 bd d5 1d 8d 3e dc 26 3a 3e 2a 56 7f bd
       -0.07926084 0.27561823 0.18178886 -0.06233803
000290 e1 1d e3 bd 2d ee 36 bd fe 68 33 3d 4e 72 83 3e
       -0.11089683 -0.044660736 0.0438013 0.25673145
0002a0 85 4e f4 3d 3d 7f 17 3e 59 ec 95 3f 46 48 55 3e
       0.11929039 0.14794631 1.1712753 0.20828351
0002b0 5f 6f b2 3c f3 fa c8 3d 0e 75 99 3e 8f 39 5e be
       0.021781622 0.0981349 0.29972118 -0.21701644
0002c0 b2 64 a4 bd a4 6a 45 bd 0d d3 17 3c 0f 96 d8 be
       -0.080270186 -0.048197404 0.009266627 -0.42301986
0002d0 e8 14 e3 bd b7 36 01 bc 23 5a 29 bd 9e 76 87 be
       -0.11087972 -0.00788658 -0.041345727 -0.26457685
0002e0 d5 69 31 3e 44 fe fc 3e ce 8d 05 be f6 4b 64 3d
       0.17325528 0.4941274 -0.13042375 0.055736504
0002f0 9a b0 03 be 87 e2 7d bb dd 6a 34 bd de 8e f5 bc
       -0.12860337 -0.0038739757 -0.044047225 -0.029975351
000300 b1 f1 62 be 8a 48 97 3e 5f ff 74 3c be 0d f5 3d
       -0.2216251 0.2954753 0.014953463 0.11965512
000310 e9 72 34 bd 1e d0 1a be 5f b5 10 3e 2d 08 b5 3c
       -0.0440549 -0.15118453 0.14131688 0.022098625
000320 2b 32 4c be 32 27 06 3e e6 d2 07 be 56 24 0d 3e
       -0.19941013 0.1310089 -0.13264045 0.13783392
000330 54 af fb be 73 0f 77 bd 4b 0d af be 3a 5e bd 3b
       -0.49157202 -0.060317468 -0.3418983 0.005779055
000340 3e 0f 5c be f8 bd 32 bd 52 6a ec 3a dd 61 59 bd
       -0.2149019 -0.0436382 0.0018037057 -0.053071845
000350 0f 85 0c bd fd ca e1 bc 7c 72 91 bd 50 0a 19 bd
       -0.034306582 -0.027562613 -0.07101914 -0.03736335
000360 f9 dd e0 bc 39 6a 31 3e 50 61 22 bd 5f 71 15 be
       -0.027449595 0.17325677 -0.039643586 -0.14594029
000370 5a eb 8b 3e 80 74 73 ba e3 7d 3c bd 9c a7 e9 bc
       0.27327996 -0.0009287074 -0.046018492 -0.028522305
000380 e1 a4 be 3e 79 11 3c 3e 15 6c f4 3d 60 40 7f 3c
       0.37235168 0.1836604 0.119346775 0.015579313
000390 23 00 9f 3d a9 f1 17 3e aa 8f ec bd 8a 23 0f be
       0.07763698 0.1483828 -0.11550839 -0.13978401
0003a0 2e af e6 3e 0c 77 21 3e fc 20 5e 3d d1 15 24 3d
       0.45055526 0.15768069 0.054230675 0.04005987
0003b0 96 bf cf bb ca 86 2d bd 8a 55 17 bd 5f fc 8a be
       -0.0063399775 -0.042364873 -0.03694681 -0.2714567
0003c0 8e 33 5f be b7 59 55 3e 86 21 51 be a2 d0 00 3e
       -0.2179701 0.20835005 -0.20422944 0.12579587
0003d0 60 a3 e7 3d 82 59 bb 3d 3f 55 38 be 6c 81 1e 3e
       0.11310458 0.09147932 -0.18001269 0.15479058
0003e0 e6 8f 87 3d c7 99 77 3d 67 e6 01 3d 19 7c 14 3e
       0.06619243 0.060449388 0.03171387 0.14500464
0003f0 88 4e f9 bd b9 20 97 3d a4 db ad bd 93 3f ee bd
       -0.12173182 0.07379288 -0.08489159 -0.116332196

layers.2.0.bias f4 [256]
000000 39 c3 4c bd 2a 6a 95 bc 75 3b eb 3c b1 93 3c 3d
       -0.049990866 -0.0182391 0.028714875 0.046039287
000010 ce 09 a8 bd bd c7 42 3e a9 aa 3a 3d f4 45 55 3d
       -0.08204995 0.19021507 0.04557291 0.052068666
000020 33 a1 47 bc 42 fb be bd 60 5d 1c 3d 17 97 30 3b
       -0.012184429 -0.093252674 0.038174987 0.0026945525
000030 04 cd e7 bd 68 b7 8d be 4d 7c b1 bc 97 e1 2f be
       -0.113184005 -0.2767899 -0.021665717 -0.171759
000040 a0 84 99 3d 48 d5 a2 3d 47 52 de 3d ad 71 d2 bd
       0.07495999 0.079508364 0.10855537 -0.10275588
000050 bc de 45 3d ca 5c 15 bd 0c 05 bf 3d 37 0c 6d 3d
       0.04830812 -0.036465444 0.093271345 0.057872977
000060 9c 80 de bc 1b 19 06 3d e4 ad 71 3d 9b 73 94 3d
       -0.027160935 0.032738786 0.059003726 0.072486125
000070 f1 38 0b bc 1d 24 d1 bc b5 8e c3 bd 0c 8e 3a 3a
       -0.008497463 -0.025529915 -0.095487036 0.00071165035
000080 c9 9c 40 be 6e 3e 70 3d e1 0c ac bc 51 98 10 bd
       -0.18809809 0.058653288 -0.021002235 -0.03530151
000090 88 63 89 3c 25 7b 02 3e ab e6 7f 3d 6e d6 96 bd
       0.016771093 0.12742288 0.06247584 -0.07365118
0000a0 45 75 1e 3d 33 fd 4f bd ef 92 9c bd 31 17 bf 3d
       0.038686056 -0.05077858 -0.07645213 0.09330595
0000b0 01 8c 29 3d 62 00 48 3d 73 74 d8 bb 2f fd 80 3d
       0.041393284 0.04882849 -0.0066056787 0.06298291
0000c0 d3 1f 6b 3e 06 30 0f 3e 5b a2 d5 3c d7 92 59 bd
       0.22961359 0.13983163 0.026078394 -0.053118553
0000d0 67 4a f9 3d e9 41 54 be 53 2e 5f bc 8d d7 46 3e
       0.12172394 -0.20728268 -0.013621884 0.19418164
0000e0 74 d8 7f 3d 8f a0 1c 3d 80 02 5c 3e c8 14 1e bd
       0.062462285 0.038239058 0.21485329 -0.038594037
0000f0 2d e5 71 be 87 49 d5 3d dd fa 93 3d b4 08 88 3c
       -0.2362258 0.10414415 0.07225583 0.016605712
000100 aa 4a 51 3d cc a4 33 be 6b fd e6 bd 73 69 79 3d
       0.051096596 -0.17543334 -0.112788044 0.06089158
000110 50 27 9c bc fe d8 09 be 92 a2 66 3d f6 8d 81 bd
       -0.019061714 -0.13461682 0.056307383 -0.06325905
000120 8f 59 c2 bd cc 17 c1 3d 41 56 94 bd 45 7c 63 3d
       -0.09489738 0.09428367 -0.07243014 0.055538435
000130 d5 eb ec bd 4d 5d 37 bb 08 00 e1 3c 43 8f 31 bc
       -0.11568419 -0.0027979196 0.027465835 -0.010837379
000140 e3 8c f2 bc 26 42 8b 3b 12 93 ba 3c 62 15 0a bd
       -0.029608196 0.004249829 0.022775207 -0.0337118
000150 bb ad 03 be ba 9e 06 bd b5 98 b3 3d b5 49 68 bc
       -0.12859242 -0.032866217 0.08769361 -0.014177729
000160 e7 00 86 bb 51 e2 8e 3b c6 5a 3b be 4f 06 90 3c
       -0.004089463 0.004360475 -0.18296346 0.017581133
000170 e5 ca 27 bd 2d f6 16 be e5 5f 1a 3c 9e 1d 83 3d
       -0.04096498 -0.14742346 0.009422277 0.064021334
000180 03 e6 88 bd e9 6e 56 be 3e f2 04 3e db 62 81 3d
       -0.06684496 -0.20940746 0.12983033 0.06317683
000190 09 0d 9d bd 82 c4 6e 3d 49 17 8b 3d 53 4a c6 3d
       -0.07668502 0.058292873 0.06791551 0.09682145
0001a0 12 b6 0b be c7 30 94 bd 94 b1 28 bd 1e 11 99 bd
       -0.13643673 -0.07235866 -0.041184977 -0.07473968
0001b0 f1 88 1a 3e a3 cb b3 bd 5a ea 16 3e f0 ef 98 3c
       0.15091302 -0.08779075 0.14737836 0.018669099
0001c0 65 ef d5 3d 53 cf 57 3c 26 80 13 be 58 9a ca bd
       0.104460515 0.013171989 -0.14404353 -0.0989272
0001d0 5b e5 96 bd c2 4f 0e be 2d eb f8 bc 2d d4 f3 3a
       -0.07367965 -0.13897613 -0.030385578 0.0018602662
0001e0 db a6 2d bd b8 00 03 3e f4 4d e9 3b d7 50 04 3d
       -0.042395454 0.12793243 0.0071198884 0.032303657
0001f0 1d c0 a6 3d 28 f5 16 be 78 b0 49 3c 7f 5a 2d 3e
       0.081421115 -0.14741957 0.01231014 0.16929053
000200 4f 7c 83 bd 0f 31 a5 3d aa 70 06 3e 2c 54 c2 3d
       -0.06420194 0.08065998 0.13128915 0.09488711
000210 6f a5 7b 3d 90 b5 97 3d d5 95 ee bd a8 ad 65 bd
       0.061437067 0.07407677 -0.11649672 -0.056073815
000220 3d c5 e1 3d 85 00 8f bd 4a 2c 16 be b2 99 60 3d
       0.11023948 -0.06982521 -0.14665332 0.054834075
000230 57 85 5d bc 40 9f 2e 3d ab 7c 36 be d0 94 81 3d
       -0.01352056 0.04263234 -0.17820995 0.06327212
000240 74 e0 f9 3d a9 95 c6 3d 9d 77 0f 3e d9 cf 64 3d
       0.12201014 0.09696514 0.14010473 0.05586228
000250 11 fc b6 3d f5 2f 92 3b 72 f2 0f bc 04 8e dd 3c
       0.089347966 0.0044612833 -0.008785831 0.027045257
000260 8e 4d 30 3d 7f 00 3a 3e 89 92 a6 3d 2c 90 52 3c
       0.043042712 0.18164252 0.08133418 0.012851756
000270 80 28 51 bd 1e e3 09 bc a2 93 a2 3d 91 67 c1 bc
       -0.051064014 -0.008415965 0.07938315 -0.023608955
000280 fc ba 7c 3d a2 2a 9b bd 34 57 2e bd c7 b7 40 bd
       0.06170176 -0.07576491 -0.042563632 -0.047050264
000290 cb 98 99 3d e6 78 e4 bd 45 65 de 3d 4c cd 89 be
       0.07499846 -0.11155872 0.108591594 -0.26914442
0002a0 8d 85 29 3e ce 97 f4 3d 2c cc 40 bc 77 34 71 be
       0.16554852 0.11943017 -0.011767428 -0.2355517
0002b0 51 7f a8 bd 8f 13 ea 3d f2 a5 52 3e 31 cc 3b 3d
       -0.08227409 0.11429512 0.20571116 0.04584903
0002c0 01 aa 63 3d 56 3f 0c 3e 26 01 f7 3c 34 4d 0f 3e
       0.05558205 0.13696036 0.030151915 0.13994294
0002d0 b8 2c d4 3c 76 3f 27 bd 8b df 40 3c 61 61 ce bd
       0.02590023 -0.040832005 0.011772047 -0.10077167
0002e0 16 e3 2b 3e 0a 73 a7 3d 7b d0 d2 bd 0a 70 45 3c
       0.16785845 0.08176239 -0.10293671 0.012050638
0002f0 14 c9 46 3e 85 47 da 3c 40 44 d6 bd b2 e7 17 be
       0.19412643 0.026645431 -0.104622364 -0.14834478
000300 bd 3c 9e bd 6b 5d 88 bd d3 4e 0e 3d 0f 3f 22 be
       -0.07726429 -0.06658443 0.03474314 -0.15844367
000310 75 ba a2 bd 23 11 09 3e ad 23 70 3d a9 57 1c 3d
       -0.0794572 0.13385443 0.058627773 0.038169537
000320 de cb 7f 3c 17 11 01 bd f0 df 24 bd e8 82 90 be
       0.015612571 -0.03151044 -0.040252626 -0.28224874
000330 35 9e 33 3e 11 cc 10 3e 30 3c c4 bd 3b 1e b1 bc
       0.1754082 0.14140345 -0.09581792 -0.02162086
000340 7a 3f 95 bd 7e 23 00 bc 7d 61 df bc 91 cc 09 3e
       -0.07287498 -0.007820962 -0.027268166 0.13456942
000350 f4 8e db bb e9 1e 82 bd 10 b5 45 3e ce 94 80 3d
       -0.006700391 -0.06353552 0.19307351 0.06278382
000360 14 dc 39 bd 97 64 fb bb 7c 13 e1 3d 65 09 b8 3d
       -0.0453759 -0.0076719034 0.109900445 0.08986167
000370 15 67 e8 3d 0e 85 66 3b 0a 56 c3 3c a7 e0 25 3c
       0.11347786 0.0035174522 0.023844738 0.010124362
000380 f1 1d 1d 3d 8b 61 b9 bd d4 36 05 be db 23 0a 3e
       0.038358632 -0.09051808 -0.13009197 0.1349024
000390 4e 44 67 bd e0 8e 6a be dd d5 07 3d fa 4c d9 bc
       -0.056461625 -0.22906065 0.03316294 -0.026525963
0003a0 9b fc 6b 3d d1 65 9e bd 48 b3 9b bd 55 b7 a3 bd
       0.05761395 -0.07734264 -0.076025546 -0.07993952
0003b0 b1 63 e8 3d d4 e7 a8 3d 2a 90 bd bd 14 c2 14 be
       0.113471396 0.08247343 -0.09256013 -0.1452716
0003c0 0a 25 61 be e4 04 a0 bc 91 a4 0a bd a2 e1 ff bd
       -0.21986786 -0.019533582 -0.03384835 -0.12494208
0003d0 8e 79 58 3c 3b fe 78 bd b5 ac 12 3e 40 c8 57 3d
       0.013212575 -0.060789328 0.14323695 0.052681208
0003e0 bf 04 d6 bc c0 48 2c 3e 9b f5 b2 bc da 4c 03 3e
       -0.02612531 0.16824627 -0.02184563 0.12822285
0003f0 3d dc d4 ba 7b c4 08 3e 1a 29 02 3e 7b d1 15 3e
       -0.0016239953 0.13356201 0.12710992 0.14630692

layers.3.0.weight f4 [128, 256]
000000 2c 99 c4 bc fe 71 b7 bc 5a 7a f6 3b 0f 02 89 bd
       -0.02399882 -0.022393223 0.0075219097 -0.06689846
000010 fa 12 6b 3c 9a 83 90 bd d9 a6 77 bd af 2c 09 3d
       0.014347786 -0.07056351 -0.060461853 0.03348988
000020 c9 cd 1f 3d be 64 2f bd 80 60 29 3d 91 8c 54 bc
       0.03901461 -0.042820685 0.041351795 -0.012972967
000030 a3 29 49 3d fe 8f 25 bd 56 e9 56 bd 74 9b cd bc
       0.049111973 -0.040420525 -0.05246862 -0.02509854
000040 64 cc 95 bc 97 7a 94 3c f9 40 32 bd 50 35 55 3c
       -0.018285938 0.018124862 -0.043518994 0.013013199
000050 04 3c 88 3c 6c e7 84 bd 00 6a 0e bc 5f 0f 29 bd
       0.01663018 -0.06489453 -0.008692265 -0.041274425
000060 8f 12 3e bd 1f 51 88 bd a2 b6 ef 3b e4 82 b1 3c
       -0.046404418 -0.066560976 0.0073154727 0.021668859
000070 c7 de 9e 3c 8a 7e 18 bd 81 36 0b 3d 4c 2c 9d bd
       0.019393338 -0.037230052 0.033987526 -0.076744646
000080 d0 3b 11 3d 11 76 14 3d 68 d7 98 3a 57 f7 de 3c
       0.035457432 0.03624541 0.0011660876 0.02721755
000090 b3 a9 0a bd 4d 39 b7 bb 01 84 1f 3d 84 cb 7b bd
       -0.033853244 -0.0055915476 0.038944248 -0.061473384
0000a0 48 a5 78 bd 9b 22 1a bd 78 9b d3 bc 84 8a e2 bb
       -0.0607045 -0.03763066 -0.02583097 -0.006913485
0000b0 fd cc 8a bd de 42 5a 3d b5 2a f6 3c 41 73 91 bc
       -0.0677738 0.053286426 0.030049661 -0.017755153
0000c0 69 f7 38 3d 8c 1a 80 3c 00 1d f9 3c 59 c1 d3 bc
       0.045157824 0.015637659 0.030409336 -0.025849031
0000d0 71 45 b5 3c 9a 6c 63 bd e1 bc 77 bd f5 e7 9f bc
       0.022127839 -0.055523492 -0.060482863 -0.019519785
0000e0 d8 1f e0 bc cd 45 27 3d 15 87 69 bd 98 8c b9 bb
       -0.027358934 0.04083805 -0.05701359 -0.005662512
0000f0 a5 75 f5 bc 85 ec 93 bd 68 33 97 3c fd ae 2d bc
       -0.029963324 -0.07222847 0.01845713 -0.0106008025
000100 5a 72 b8 3c 4c 16 8e bd 14 fb 71 bd 8e d6 35 bd
       0.022515465 -0.069378465 -0.059077337 -0.04439407
000110 90 2e a7 3c bb d8 8d bb 22 a1 00 bd 9c ef 20 3d
       0.020407945 -0.004328815 -0.03140367 0.03929101
000120 a1 26 0f bc bd 08 e6 3c d4 60 f2 3a 59 c7 a4 bc
       -0.008737237 0.028080339 0.0018491992 -0.020114588
000130 de c2 c7 3c a5 97 53 bd 94 4d 61 bd 1d e7 5c bd
       0.024384912 -0.05165829 -0.055005625 -0.053931344
000140 d1 aa 5d bb cc 48 ed bc ea d6 4c bd ff db 6b 3c
       -0.0033823738 -0.028965376 -0.050009646 0.014395713
000150 24 03 6d bd 8c 4b 3e 3d 71 3c 1f 3d 4c 44 06 3d
       -0.057864323 0.046458766 0.038876 0.032779977
000160 27 42 04 3d da 41 72 bd 62 7b 48 3d bd 3a 73 bc
       0.03228965 -0.059144832 0.048945792 -0.014845547
000170 f6 a2 6a 3d 81 47 e6 bc 46 f9 26 bc cd 9a 85 bc
       0.057284318 -0.028110268 -0.010191267 -0.016309166
000180 ec 0b ee bc c3 6e 4b bd 0e c2 32 3d 75 67 36 bd
       -0.02905842 -0.049666177 0.043642096 -0.044532258
000190 02 c1 04 3d 0e 21 65 bd da 39 c3 bc 58 94 32 bd
       0.03241063 -0.055939727 -0.023831297 -0.043598503
0001a0 61 6d 0c bc 98 47 3a 3d e6 33 72 bd 36 ca 39 3d
       -0.008571 0.045478433 -0.059131525 0.04535886
0001b0 b6 3f f4 bb f9 dc a6 3c 4f e2 f7 bc 1e c8 6a bd
       -0.007453884 0.02036904 -0.03025928 -0.057319753
0001c0 03 a2 e9 bc 6f 5c 7b bd 66 b4 ea 3c d6 af 86 bc
       -0.028519636 -0.06136745 0.028650474 -0.016441267
0001d0 c8 d1 11 bd 93 9a e7 ba c1 99 11 bc a2 cd 45 bc
       -0.035600454 -0.0017669968 -0.008886755 -0.012072952
0001e0 b3 0a bd bc 33 6e 01 3d dd 50 3e bd 21 a7 85 bd
       -0.02307639 0.031599235 -0.046463836 -0.06526018
0001f0 49 06 3d 3d 97 a6 85 3c 02 0b d2 bc 6c db e9 3c
       0.046148572 0.016314788 -0.025640015 0.028547011
000200 69 4a 21 3d c7 59 42 bc 8f 5d 90 bd 6b 6c 07 bd
       0.039377604 -0.011862225 -0.07049095 -0.03306238
000210 e4 bb 03 3d 8f cb f6 3c 53 fd 12 bd 26 15 93 bd
       0.03216161 0.030126361 -0.03588612 -0.07181768
000220 de 00 f0 3c 6b fa 34 3d c1 c1 e2 3c db 2f dc 3b
       0.029297289 0.04418413 0.02768028 0.006719572
000230 4a 80 00 bd dd 30 0a 3d 26 7e 78 bd 5b 95 58 bd
       -0.031372346 0.033738006 -0.06066718 -0.05287681
000240 2a 27 22 3d 20 24 14 bd 60 92 63 3c 77 8c 92 bd
       0.03958813 -0.036167264 0.013889879 -0.07155698
000250 19 d9 31 3d 97 55 37 3d ac 88 e2 3c 42 17 ca 3b
       0.04341993 0.04475936 0.02765306 0.0061673233
000260 96 89 5e bd 38 f2 8e bd 9d 77 cf 3c 42 0c 8e bc
       -0.05433043 -0.06979793 0.02532559 -0.01733983
000270 47 19 39 3d 1a fe ee 3c d6 d1 4d bd 44 43 02 bc
       0.045190122 0.0291739 -0.050248943 -0.007950608
000280 82 f7 89 3c 0a 50 25 3d 40 64 5c 3c 45 9f 18 3d
       0.016841654 0.040359534 0.013451636 0.037261266
000290 b6 42 f8 3c 6d 09 a6 bc 5c 07 33 3d ca ac 57 bd
       0.030305248 -0.020268166 0.04370819 -0.05265502
0002a0 3f 7b 8b bd da b2 d9 bc 78 94 bf bc 84 92 24 3c
       -0.06810617 -0.02657454 -0.023386225 0.010044698
0002b0 ed 02 0f bd 1c 80 83 bd c5 7c 33 3d 3b 9f 21 3d
       -0.0349149 -0.06420919 0.04382016 0.039458495
0002c0 b9 13 8a bd c0 c6 d4 3c 81 6f 0d 3b 8b fb 1c 3c
       -0.06742043 0.025973678 0.0021581354 0.009581457
0002d0 f6 a9 a8 bb 87 d1 28 3d 7a 83 b6 bb 31 73 42 bc
       -0.005147214 0.041215446 -0.0055698724 -0.011868284
0002e0 03 37 2f bd e2 56 b1 bc 3a 09 b9 3c f1 22 90 bd
       -0.042777073 -0.021647874 0.022587407 -0.070379145
0002f0 1b d4 92 bd d9 29 08 bb 88 0b 9e 3c 80 aa dd bc
       -0.07169362 -0.0020776896 0.019292608 -0.02705884
000300 64 46 3f 3d 26 82 7b 3c 55 e5 06 3c f8 f1 45 bd
       0.04669799 0.015350854 0.008233388 -0.048326463
000310 36 d0 17 3d f6 ed 7b bd 32 10 ce 3b dd 03 0e 3d
       0.0370638 -0.061506234 0.0062885517 0.034671653
000320 d2 4d c5 bc a3 f2 c2 bc fb 42 c1 3c 57 cf 40 3c
       -0.02408496 -0.023797339 0.02359151 0.011768184
000330 61 6d 30 3d 24 11 8e bd 7f a1 27 bc 96 0d 70 3d
       0.04307306 -0.06936863 -0.010231375 0.058606707
000340 b2 14 f5 3b 59 2c 92 bd c9 89 88 bd aa 1b 90 bc
       0.0074792737 -0.07137365 -0.066669054 -0.017591316
000350 4c 1f 87 bd 2b ea 9c bd 76 2e db bc 6a 8a a3 3b
       -0.06597766 -0.076618515 -0.026755553 0.0049908655
000360 fd e7 bd ba 13 f2 4c 3d f0 74 c3 bb c6 58 64 bd
       -0.0014488694 0.050035547 -0.005964868 -0.055748723
000370 74 ad 27 3d bc a3 7c bd 19 4d d4 bc 6a ad b5 bc
       0.040936902 -0.061679587 -0.02591567 -0.022177417
000380 99 24 27 3c fc 1b 8c bd ce 4b 00 3b a4 d5 2b 3d
       0.010201597 -0.06841275 0.0019576433 0.04195179
000390 53 f4 b6 bb 9e 43 4e bd 91 4a 5a 3b 60 e0 33 bb
       -0.005583325 -0.050357454 0.0033308605 -0.002744697
0003a0 eb 7d e4 ba 91 35 04 bc 44 f5 d6 bc 5e 56 7a bd
       -0.0017432546 -0.008069412 -0.026239999 -0.061117522
0003b0 0b a7 5f bc 60 44 11 3c 66 7e c5 3b 50 5b 93 bc
       -0.013650666 0.0088663995 0.0060270308 -0.017987877
0003c0 75 60 48 bc 45 96 6e bc e4 9f fb 3b 8a 59 b9 3c
       -0.012230028 -0.014562194 0.0076789726 0.022625703
0003d0 9e 4c f6 3a 86 78 3d bd 50 8f a7 3c 12 cc 95 bd
       0.0018791144 -0.04625752 0.020454079 -0.07314314
0003e0 f4 d8 12 3d 96 38 3c 3d 96 cd c0 3c 0e ed 8f bc
       0.035851434 0.045952402 0.023535531 -0.017569091
0003f0 c3 60 13 3c 57 ea 0e bd ec cf ab 3b bf 17 8c bb
       0.008995238 -0.034891453 0.005243292 -0.0042752917

layers.3.0.bias f4 [128]
000000 eb 2b 61 bb a6 fa 5f bd 0b af 92 3b 47 da 49 3c
       -0.0034358453 -0.054682396 0.004476433 0.012320108
000010 a9 5b 8f 3c 0a 7d ef bd c4 80 d8 bc f1 a6 54 bc
       0.017499762 -0.11693771 -0.026428588 -0.012979255
000020 75 21 82 b9 96 ac d3 bd e1 6f ac 3b ad 1f c5 bc
       -0.0002482046 -0.103356525 0.0052623604 -0.024062956
000030 69 1f 9d 3d cf 1f 1a 3d 72 13 5e bd 52 d9 98 bd
       0.07672007 0.03762799 -0.054217763 -0.074633256
000040 6d b8 a6 3d f9 28 34 bd 23 4b 66 3d 6b a8 2e bd
       0.08140645 -0.043984387 0.056224 -0.042641085
000050 b8 10 0d 3e a8 72 05 3c 71 d2 85 bd 51 2f f2 bc
       0.13775909 0.008145012 -0.06534279 -0.029563578
000060 a8 d1 4c 3c d2 28 61 bc bf ff 42 bc 22 eb 15 bb
       0.012501158 -0.0137426425 -0.011901795 -0.0022875746
000070 9b 9d 4e 3c d9 10 63 3d a9 24 95 bc ee 01 05 bc
       0.012610818 0.05543599 -0.018205957 -0.008118136
000080 ae 7d 8c 3d 0d 1d ae 3d 0e a2 13 3e 7a 46 41 3e
       0.06859909 0.08501635 0.14417288 0.18874541
000090 62 61 56 3b 6c 1b 2c bd 5f 13 3f 3d a1 26 20 3d
       0.0032711853 -0.04201834 0.046649333 0.03909934
0000a0 33 1e c0 3d 9d 27 8e bc 55 99 3b 3d d0 39 53 3d
       0.0938076 -0.017352873 0.045800526 0.051568806
0000b0 72 ec b2 3d 2d 1c 4f 3d eb bc 6a 3d 35 73 95 3a
       0.087365046 0.05056398 0.057309072 0.0011402132
0000c0 f2 7b c1 3d 42 5b 9e 3c c6 4c 84 3d 4b 61 60 bd
       0.09447469 0.019330624 0.06459956 -0.054780286
0000d0 99 a6 8a 3d cb 3a e8 3c 61 62 3d bd bc 42 5a 3c
       0.06770057 0.028348347 -0.0462364 0.013321575
0000e0 75 bf c4 bc 03 e3 e7 3d d8 7a ad 3d 37 90 50 bd
       -0.024017075 0.11322596 0.08470696 -0.050918784
0000f0 65 66 93 3c 5d 74 99 bd e3 5b 97 bd f6 d1 8d bc
       0.017993161 -0.07492898 -0.07390573 -0.017312031
000100 85 ac 66 3d ab 82 bd bd a0 c3 34 be f1 35 73 bc
       0.05631687 -0.092534386 -0.1765275 -0.014844404
000110 97 dc aa bd db 2f 55 3d f2 67 4c bd 80 4c 48 bb
       -0.083428554 0.05204759 -0.049903817 -0.0030563176
000120 97 69 28 bd 4d b9 15 3d 18 b6 74 3c 59 e5 1c 3d
       -0.041116323 0.03655367 0.014935993 0.03830466
000130 cf d8 04 3e aa d4 6d 3c fc 32 42 3e ac 18 b5 3d
       0.12973331 0.014516035 0.18964761 0.088425964
000140 7c af e0 bd 16 38 f3 3b 17 26 ef bd 44 db f8 bb
       -0.10970971 0.0074224574 -0.11677187 -0.007594498
000150 ba 52 2f 3b 4f 10 87 bb fb c9 a0 3d 1a 63 9a bd
       0.002675219 -0.004121817 0.07851025 -0.075384334
000160 84 e8 85 bd 05 bd 00 bd 4c d4 78 bd fe 18 75 3e
       -0.065384895 -0.031430263 -0.060749337 0.23935315
000170 a3 bd 16 3d aa 39 a3 bc c9 8a 31 bc 4f 85 ad bd
       0.036801945 -0.019924957 -0.010836312 -0.08472692
000180 23 b7 a5 3d 93 cc 88 3d 2e eb 15 bb 5a d4 9c bd
       0.08091571 0.066796444 -0.0022875774 -0.0765769
000190 16 4f d2 bb c3 4d 23 bd d6 8a 17 bd c4 8d 34 3d
       -0.006418119 -0.03986908 -0.03699764 0.04408051
0001a0 64 1a 87 3d 81 27 18 bd bb f7 d6 3c 06 ed 43 bd
       0.065968305 -0.03714705 0.026241174 -0.047833465
0001b0 86 4b 07 be fc ad 5a 3e c2 6b a3 bd 6b 55 f1 3c
       -0.13212404 0.21355432 -0.079795375 0.029459676
0001c0 a3 34 35 bc 62 96 42 bd 32 ba b1 3d 43 b9 b6 bb
       -0.011059913 -0.047506697 0.08678092 -0.005576284
0001d0 82 b4 c1 bc 90 e3 b1 bd d9 5f 03 3d 94 b9 65 bd
       -0.023645643 -0.08685982 0.03207383 -0.056085184
0001e0 73 8b 76 bd a7 ed da 3d 17 f8 91 bd 99 ba e8 3c
       -0.060191583 0.1068986 -0.071273975 0.02840929
0001f0 92 cb 9a 3c c3 12 49 bc 78 38 50 bd 49 a3 53 bc
       0.018895898 -0.01227254 -0.050835103 -0.012917348
