scripts/learning/models/[64,128,256,128,64]_end-triple_task.pth (torch_old, 356622 bytes, 20 tensors)

layers.0.0.weight f4 [64, 12]
000000 dd c4 c2 3d ef a1 61 bd fd 13 d5 3c eb 9b b5 be
       0.09510205 -0.055086073 0.026010508 -0.35470518
000010 5e d7 c2 be 52 66 a5 bf e7 0d fd be 54 25 51 be
       -0.38054937 -1.2921851 -0.4942467 -0.20424396
000020 d7 1c 82 bc 50 6a b0 be 68 42 01 bd a5 5d b1 be
       -0.015882893 -0.3445611 -0.03155747 -0.34641758
000030 7b 90 85 3f a2 74 7c 3e b5 33 9f 3d a9 58 f0 bd
       1.0434717 0.24653867 0.07773534 -0.117356606
000040 b4 e3 44 3e f4 76 bd 3e 35 b0 bd 3d b8 3e a8 3e
       0.19227487 0.37004817 0.092621244 0.3286035
000050 e5 43 80 3e 99 17 e6 bd 45 53 cb bd 11 98 c5 3e
       0.250518 -0.1123497 -0.09927992 0.3859258
000060 64 b7 fb be 9d 3e 02 be 4d 8f 82 bc a2 4f 64 be
       -0.49163353 -0.12719198 -0.015937472 -0.22296003
000070 48 a3 a8 3e 75 0d 81 bf c8 ef 1d 3f 56 60 65 bd
       0.32937074 -1.0082232 0.61694 -0.056000076
000080 d8 7c 5a 3c 86 c8 89 be eb e7 4a be 11 4c 3b 3f
       0.013335429 -0.269108 -0.19815032 0.73162943
000090 a0 f9 87 be 16 e1 14 3f 41 36 cb be bb 08 93 3c
       -0.26557636 0.58155954 -0.3968983 0.017948499
0000a0 4a 99 af bc 05 be 60 be 68 61 08 3f ef 26 c7 3c
       -0.021435399 -0.21947487 0.5327363 0.024310557
0000b0 71 ce 64 3d 6c 10 b8 be 32 95 c0 3c 74 89 1c be
       0.05586094 -0.3595003 0.023508642 -0.15286809
0000c0 e8 a7 0c 3f 55 28 98 3d 58 87 08 be c2 56 34 be
       0.54943705 0.07429568 -0.1333288 -0.1761122
0000d0 b0 3c 33 3d 05 dd 03 c0 ab a4 bb 3f 44 b4 8a 3e
       0.043759048 -2.060365 1.4659628 0.27090657
0000e0 05 a5 a6 3c 34 b8 59 3d 29 a1 63 be 9b c0 60 3e
       0.02034236 0.053154185 -0.22229446 0.21948473
0000f0 3a ce 94 be be d8 70 3c 31 c2 f7 3c 96 b2 c6 ba
       -0.29063588 0.014700113 0.030243965 -0.0015159424
000100 a5 05 cd 3c c2 49 c7 be 53 a6 4d be 99 8a eb bd
       0.025027106 -0.3892346 -0.20082979 -0.11501045
000110 9e a3 db 38 5b af e5 3c d0 0b ae 3f 46 21 d9 be
       0.0001047321 0.028037718 1.3597355 -0.42408198
000120 36 b6 9b be ca f9 40 bf 5a 78 13 3e b4 fb 56 3b
       -0.30412453 -0.7538115 0.14401379 0.0032803835
000130 19 a0 79 bc 5f 2c 40 bf e6 25 86 bf 17 46 0a be
       -0.015235924 -0.75067705 -1.0480316 -0.135033
000140 83 1c 0f 3e c1 20 30 3e b3 68 f5 3b 98 e7 49 3e
       0.1397572 0.17199995 0.0074892878 0.19717252
000150 28 bb 05 3d 43 58 4c bf 13 3b 9c bd 36 a1 69 3d
       0.03264919 -0.79822177 -0.07628455 0.05703851
000160 b8 8c b5 3e 03 55 05 3f 4e a8 32 3f 96 a3 cc be
       0.35458922 0.5208284 0.6978806 -0.39968556
000170 4b 7f 11 be 5a 24 3d 3e f8 15 83 3d 03 b5 dd be
       -0.14208715 0.18470898 0.064006746 -0.43302163
000180 00 c4 82 3e a4 97 8a be 23 ba df bd 9e 56 6e be
       0.2554016 -0.27068818 -0.10924175 -0.2327523
000190 bd 8b 68 be 5c 5b d9 3f 44 d0 3c bf 62 ff f7 3d
       -0.22709556 1.6981006 -0.7375529 0.12109257
0001a0 04 70 9e bd ed 19 09 be 8e 9c 92 be 6a 82 bb 3e
       -0.07736209 -0.13388796 -0.28635067 0.36622936
0001b0 0a 46 68 3e 8f e1 ca 3d 35 5c 18 bf 5a a7 aa bd
       0.22682968 0.09906303 -0.59515697 -0.08332701
0001c0 89 5a 70 3e fd 35 58 3f 5a 04 81 bf 77 38 0b bf
       0.23472036 0.8445738 -1.0079453 -0.54383034
0001d0 70 0a c0 3d a6 c9 87 3e dc 07 bb 3e da 1c 2f 3e
       0.09376991 0.26521033 0.36529434 0.1710085
0001e0 33 3e b8 3b 23 d5 5e 3e 3c 9e 47 bd c5 ac 3a 3e
       0.005622649 0.21760993 -0.04873489 0.18229969
0001f0 b8 74 61 bd 9c 4f 2e c0 c6 0d b7 3f 1a a0 68 3c
       -0.055042952 -2.723609 1.4301078 0.014198327
000200 dd 77 d4 bd 5f b9 06 be c6 13 03 3e 95 39 fd be
       -0.103744246 -0.13156651 0.12800512 -0.49457994
000210 dd c7 92 be fd 89 fe 3e c6 82 8e be e0 99 8b bb
       -0.2866811 0.49714652 -0.27834147 -0.0042602867
000220 d1 34 59 bc fa 43 6a be 90 24 ac be 44 53 d5 bd
       -0.013257221 -0.22877494 -0.33621645 -0.10416272
000230 20 43 3a 3d ec 63 c1 bd 60 04 01 3f 4c a0 36 3f
       0.04547417 -0.09442887 0.503973 0.71338344
000240 a6 a2 d2 be 66 e7 9c bd c7 4c ff 3e e7 d9 20 3e
       -0.41139716 -0.07661323 0.49863264 0.15708123
000250 68 ec ee be 76 25 d5 bf 03 76 8e 3f 2c 2c b0 3e
       -0.4666474 -1.6652057 1.1129764 0.344087
000260 fa da 27 be c7 da ca 3d a7 53 2d bd a0 5a 1d be
       -0.16392127 0.0990501 -0.042316105 -0.15366602
000270 78 f3 22 3f 18 7c 01 bf e7 aa c6 3d 62 c6 b0 ba
       0.63652754 -0.5057998 0.09700566 -0.0013486857
000280 6a 59 5e 3d cd ce bf be 57 26 24 bf 0b de 48 3e
       0.05428449 -0.37462464 -0.64121 0.19615953
000290 7f 2a 07 3d 1b d1 9d 3d 85 2f 10 bf 92 52 48 3d
       0.03299951 0.07705899 -0.5632251 0.04890687
0002a0 4b 00 ee 3d 35 9c 06 bf e1 14 1b 3e 95 f8 2a 3c
       0.1162115 -0.52582103 0.15144683 0.010435243
0002b0 51 cf 9d 3d 79 4f cc 3e f0 98 18 3f 71 ae 6e 3e
       0.07705558 0.39904383 0.59608364 0.23308732
0002c0 20 3c 01 bd 77 b5 33 3e c5 94 cc be 70 15 23 3f
       -0.03155148 0.17549692 -0.39957252 0.63704586
0002d0 45 d9 06 3f 13 4f 33 bf f1 fa 31 3e 33 32 d5 3b
       0.52675277 -0.7004253 0.17380883 0.0065062284
0002e0 3d 1e dd bd 6d 6f ec 3e b6 92 81 3f ce d3 1d 3e
       -0.10796783 0.4617876 1.0122898 0.15412828
0002f0 18 31 d3 3d 3d 15 9d bb 11 68 93 3c a1 28 33 be
       0.10312098 -0.0047937916 0.017993959 -0.17495967
000300 4f 63 53 bf dd 52 03 bd cf b0 f5 bc d0 45 e6 3b
       -0.8257341 -0.032061446 -0.029991535 0.0070273653
000310 69 12 15 3c 2f ba 80 be 60 db f1 3d 66 a1 00 3c
       0.009098628 -0.25142047 0.118094206 0.00785098
000320 55 84 8f 39 6b 72 a8 bc c0 f2 a8 3f 23 f4 14 bf
       0.0002737368 -0.020562371 1.3199081 -0.58185023
000330 8d 9b 6e 3f 69 be 8f be 51 96 d2 bd 51 e1 3a bd
       0.932061 -0.2807496 -0.10282577 -0.045625035
000340 08 f8 2c 3e 23 4b 8d 3e 8d 13 85 3f 6e 97 42 3d
       0.16891491 0.27596387 1.0396591 0.047507696
000350 73 4c 32 be b4 9b bd 3d 84 12 75 bd 4a ef 96 3e
       -0.17411976 0.09258214 -0.05983211 0.29479438
000360 bb 63 cf be d6 86 5a bd 25 63 23 bf 75 6d c4 3d
       -0.40505776 -0.053351246 -0.6382316 0.0959119
000370 a0 6d e6 bd c1 a8 2e 3f e2 c3 0d bf a6 bf 6e be
       -0.11251378 0.6822625 -0.5537702 -0.23315296
000380 2b 6b 6f 3d 0e b6 c0 3d c7 10 6f 3e d7 52 3f 3e
       0.058451813 0.09409724 0.23346244 0.18683945
000390 37 4b 6f 3f 6c 1a 8a be 89 1f 14 3d 84 a9 0b 3d
       0.93474144 -0.26973283 0.036162887 0.03409721
0003a0 2e d1 40 be 9d 7a e6 3e 01 a0 69 3e af 4d 72 3e
       -0.18829796 0.45015422 0.22814943 0.23662446
0003b0 6a 2c de bd 40 06 33 3e bf 97 9c 3e 8b c0 8b bd
       -0.10848315 0.17482853 0.30584523 -0.06823834
0003c0 92 6d 00 bf e1 e7 02 3f a9 d7 90 be a5 3e c0 bd
       -0.5016719 0.5113507 -0.28289536 -0.093869485
0003d0 c3 4b c7 bc 3c 97 ac 3f a5 93 ae 3e 51 4e 44 3e
       -0.024328118 1.3483653 0.3409702 0.191705
0003e0 79 db 33 bc c1 a7 38 3e 87 d2 02 3f e8 55 92 be
       -0.010977619 0.18032743 0.5110249 -0.28581166
0003f0 4f 92 14 bf 58 74 6c 3d db 2e cf be 8b 9e 30 3d
       -0.5803575 0.05772814 -0.40465435 0.04311995

layers.0.0.bias f4 [64]
000000 58 9b bb 3c 59 8f 5e 3d f3 05 60 be 42 56 ad 3e
       0.022901222 0.054335926 -0.2187727 0.33854872
000010 81 a6 01 be c4 e7 a3 bd a2 c9 0e 3e 7d 56 62 be
       -0.12661172 -0.0800319 0.13944104 -0.22103305
000020 61 85 86 3c 89 36 24 be 17 5b 02 3e 7a 10 bc bd
       0.016421022 -0.16036429 0.1273006 -0.0918283
000030 e1 8a 4e bc 2e 91 03 3e 1a a6 0b bd 7a e2 34 3e
       -0.0126063535 0.1284835 -0.034093954 0.17664519
000040 5a a5 4e 3d 10 3b cf 3d 66 bf ea 3d 36 c7 64 3e
       0.05045066 0.10118687 0.114622876 0.22341618
000050 ed 13 84 be 50 6b 9c 3e 6e bb 29 bd 60 e3 5d 3e
       -0.25796452 0.30550623 -0.041438513 0.21668768
000060 21 e7 ae bb 1d 44 94 3d d2 43 02 bd 9c 83 35 bd
       -0.0053376113 0.07239554 -0.03180296 -0.044314966
000070 c9 d9 0d be ac ba 33 be 33 1a 3e be be af fc bc
       -0.1385261 -0.17551678 -0.18564682 -0.03084552
000080 f2 6d ae 3e 45 47 81 3e 4c a9 d9 bd 7a b0 a5 3e
       0.34068257 0.25249687 -0.10627994 0.32361203
000090 e5 57 84 bd 96 40 8a 3e f4 15 83 bd 1e 24 91 be
       -0.06462077 0.270024 -0.064006716 -0.28347868
0000a0 50 ce 4a be bb ce 5d 3e 29 36 b8 be 51 9d 3d 3d
       -0.19805264 0.21660893 -0.3597882 0.046292607
0000b0 80 9f 9f bc 78 0d d3 bd 94 c2 95 3e 2d 82 e2 be
       -0.019485235 -0.10305303 0.29250014 -0.4423994
0000c0 d0 d0 90 3d 75 17 2f 3d fe 4d 85 be a8 a0 83 3e
       0.07071078 0.04274698 -0.26036066 0.25708508
0000d0 33 99 4e 3d 52 f8 ef 3d 5a 6d 8a 3e 83 0d 84 be
       0.05043907 0.11717285 0.27036554 -0.2579156
0000e0 48 56 7e bd a1 45 88 be c6 de b6 3e 3c ff a4 be
       -0.062094003 -0.26615623 0.35716838 -0.32225978
0000f0 e5 96 64 be 43 ce 82 be 65 99 4e 3d ef 03 6e bc
       -0.22323187 -0.2554799 0.050439257 -0.014527305

layers.1.0.weight f4 [128, 64]
000000 1a 9a b3 be 3b 4e d8 3b 0a 9c 25 3e 99 b9 7f 3e
       -0.35078508 0.0066011227 0.16172805 0.24973144
000010 62 13 0c be 29 2f cc be 1d 63 6a 3e f9 1e 83 be
       -0.13679269 -0.3987973 0.22889371 -0.25609568
000020 ca 67 ac 3c 72 fc de bd df 8f 46 be a1 5e 58 bd
       0.021045584 -0.10887994 -0.1939082 -0.05282462
000030 57 f5 6e 3d 55 3a c7 bd be 2d d6 bd bd 5f 44 bd
       0.058339443 -0.09727923 -0.104579434 -0.047942866
000040 ae 61 02 3e f7 36 75 be 8b 38 3f 3e 10 92 65 3d
       0.12732574 -0.23946749 0.18673913 0.0560475
000050 ea 59 ff 3d 5a 67 16 be 6f 39 4c be a8 02 17 3e
       0.124683216 -0.14687863 -0.19943784 0.14747107
000060 59 fc ec 3c b5 fa 51 be 84 ba 14 3d 04 bc d3 3d
       0.028928922 -0.20505793 0.036310688 0.103385955
000070 f7 43 bf bd d8 a4 81 3c 4b 8a 5f 3e 97 bb ce 3d
       -0.09339135 0.015825674 0.21830098 0.10094374
000080 a1 12 c5 bd 22 e3 87 3d 75 dc 5b 3e c8 0b 0a 3e
       -0.09622694 0.06635119 0.21470816 0.13481057
000090 e4 04 9f bd 9d ca 39 bd 40 24 f6 3d 64 af 61 bd
       -0.07764605 -0.045359243 0.12018633 -0.055098906
0000a0 10 83 bb bc ae 84 6a bd b5 92 98 be ae 4c 56 be
       -0.022889644 -0.05725544 -0.2979943 -0.20927688
0000b0 04 f9 af bd ca fc 71 3e f1 bc 2d ba aa c1 9f be
       -0.08592418 0.23631588 -0.0006627581 -0.3120244
0000c0 55 8d 14 bc ae 55 a9 be bd 4f 69 3e 18 68 e5 bd
       -0.009066899 -0.3307318 0.22784324 -0.11201495
0000d0 d6 e4 bc bd 09 ae 67 3e 06 f2 82 3c 81 d5 4e 3d
       -0.092233345 0.22624983 0.015984546 0.050496582
0000e0 72 13 1c 3e c4 14 f4 3c fb 77 2b 3e ad 66 02 be
       0.15241793 0.029795058 0.16744988 -0.1273448
0000f0 b3 f7 d5 3b ee 1a d4 3e 39 08 29 3e 08 bf 7b 3e
       0.006529772 0.41426796 0.16507043 0.24584591
000100 46 5e 4a bd 2d 48 64 3e 65 c8 16 3e 55 56 5f be
       -0.049406312 0.22293158 0.14724882 -0.21810277
000110 19 81 c4 3d 71 b5 30 3e 97 99 83 be 78 d5 2e 3e
       0.09594936 0.17256714 -0.25703117 0.1707362
000120 9f cb ac be 64 2b a3 3c f2 85 ab 3e 7a cc 74 3d
       -0.337491 0.019918151 0.3350063 0.059765317
000130 8b e4 15 3b 93 2d b1 bd 0b 1d 2f 3e 4f 98 77 3d
       0.0022871818 -0.08651271 0.17100923 0.060447987
000140 eb 0b 5b 3e 1b 5a 37 3e 26 f8 7f 3c e1 c0 10 3e
       0.21391265 0.17905466 0.015623128 0.14136077
000150 de 57 d2 bc 7f 03 4f 3e 7d 85 4d 3e 4c ab bf bb
       -0.025676664 0.20216177 0.20070453 -0.0058492776
000160 5a 2f 03 3a 3e 3c 8d 3e cb 2e 9f 3d 85 7d 42 bd
       0.00050043094 0.27585024 0.07772597 -0.047482986
000170 44 ed 0f 3e 76 27 22 3e b5 f6 ce bc 8d 9c 08 3e
       0.14055353 0.15835366 -0.025264123 0.1334097
000180 ae 16 5f be 3b 7e 00 be 41 e3 0f be 26 17 65 3d
       -0.21785995 -0.12548153 -0.14051534 0.05593028
000190 76 77 7a 3e 28 43 e0 be 18 25 ad be d0 9f 87 bd
       0.24459633 -0.43801236 -0.33817363 -0.06622279
0001a0 84 52 4c bd b9 e6 31 3c d9 72 fb 3d 8a 03 9c bc
       -0.04988338 0.010858231 0.12277765 -0.019044656
0001b0 13 66 01 be 3d e9 1d be 55 a5 80 bd 09 2e 1a 3d
       -0.12636594 -0.15421005 -0.062815346 0.03764156
0001c0 84 59 25 3e af 16 55 3e 49 7d e2 3d 74 20 f6 3d
       0.16147429 0.20809434 0.110590525 0.12017909
0001d0 93 94 a3 3b ca c7 28 bd e3 ff b4 3d f4 69 8e 3d
       0.0049920767 -0.04120616 0.08837869 0.06953803
0001e0 c8 41 b1 3c b9 4b 2f be 5a cb ad bd 64 b0 b7 3c
       0.021637812 -0.1711873 -0.08486052 0.022422977
0001f0 64 af 4b bc d9 58 80 be 94 3f ec bd de a6 a0 3c
       -0.012431953 -0.25067785 -0.11535564 0.019610818
000200 fb 09 35 3d fe 61 a5 3d e6 5e e7 3c 4e 30 d7 3d
       0.04419897 0.08075331 0.028243493 0.1050726
000210 b5 73 70 be f2 77 50 3e 17 64 84 bd 48 aa cd 3d
       -0.23481639 0.20358256 -0.06464403 0.10042244
000220 f9 be 2f 3e bd 24 8f 3d 7a 69 27 bf ef 25 a2 bd
       0.17162694 0.06989429 -0.6539532 -0.079173915
000230 a5 af 0f 3e 82 17 10 be 0c c4 73 bd 2c 30 1e be
       0.14031847 -0.14071468 -0.059513137 -0.15448064
000240 77 93 51 3e 4d bb 9a 3d 91 6b fc 3d 6c 26 08 bd
       0.2046641 0.07555256 0.12325204 -0.033239767
000250 f8 de 68 be b3 fe 10 be 26 ff 14 bd a0 2b 2a 3d
       -0.22741306 -0.1415966 -0.03637614 0.04154551
000260 cc 3c 53 3e 99 52 eb bd aa f0 77 bd 7d 40 22 be
       0.20628661 -0.11490364 -0.06053225 -0.15844913
000270 de 4e fb 3e 31 45 02 be bb 8b 12 be bb 72 75 be
       0.49083608 -0.12721707 -0.14311115 -0.23969547
000280 89 06 72 3d 2c b3 88 3d 45 2c bf bb c4 78 96 3c
       0.059088264 0.06674799 -0.0058341348 0.018368132
000290 f9 b5 21 bd f9 bc 46 bd e1 8f b4 be d0 1f 10 3c
       -0.039480183 -0.048520062 -0.3526602 0.008796647
0002a0 24 b2 57 bd 3e 74 9b 3d 0d 39 53 be bc 5a d0 3c
       -0.052660123 0.07590531 -0.20627232 0.02543389
0002b0 68 67 b2 bd f4 30 02 be 38 47 60 be 23 75 44 bf
       -0.087111294 -0.12713987 -0.21902168 -0.76741236
0002c0 a9 1d a6 3d 47 23 6b 3f 14 9c e0 3d 21 26 8f 3d
       0.08111126 0.91850704 0.109672695 0.069896944
0002d0 1d ff 8f 3d 95 e2 9b 3d 64 7f f4 bd 3e 69 2b bc
       0.07031081 0.076115765 -0.1193836 -0.010462103
0002e0 ee 12 6f 3d 92 16 9d 3d 87 96 7a 3e 2c dc a2 bc
       0.058367662 0.076703206 0.24471484 -0.019880377
0002f0 bd 1e 39 3d 9d c4 fc be 78 93 e6 bc a5 98 2e 3d
       0.04519533 -0.49368754 -0.02814649 0.042626042
000300 83 86 ca 3d fb 79 a7 bd c6 e4 32 3c e1 4b 74 3e
       0.09888937 -0.08177563 0.010918802 0.2385707
000310 5a ea 98 be eb 63 98 bd 6a 01 1b be f9 ec 1f 3e
       -0.29866296 -0.07440933 -0.15137258 0.15617742
000320 ea e5 72 3e e1 7d 29 3e 85 a3 24 bc 28 a3 a4 be
       0.23720518 0.16551925 -0.010048752 -0.32155728
000330 01 92 8c bd 5a e7 d8 bd 72 d2 59 be 12 df 8f bd
       -0.068637855 -0.10591002 -0.21271685 -0.07024969
000340 6e e0 27 bd db fe 64 3d a5 bf 13 3e 5b d2 00 bb
       -0.040985517 0.05590711 0.14428575 -0.0019656632
000350 86 02 77 3d 77 2e 26 3e dc c0 58 be a0 4b a8 3d
       0.06030514 0.16228662 -0.2116732 0.08217549
000360 1d 68 b4 3d 63 97 0a be 72 f9 e5 3c 98 cf 50 bd
       0.088089205 -0.13534312 0.028073046 -0.050979227
000370 38 26 25 be 8e 86 23 bd a0 d8 82 bd 72 73 53 bd
       -0.1612786 -0.039923243 -0.06388974 -0.05162377
000380 1d 1a 6a 3e 6e 5e 6c 3c b1 63 25 3e 64 52 45 3d
       0.22861524 0.014426811 0.1615131 0.048174277
000390 1b 9e d2 3d ce bb 0b be 5f be b3 3d f6 6d d3 3d
       0.102840625 -0.1364586 0.08776545 0.10323708
0003a0 88 42 e6 bc 70 5c bc 3d a7 1f db 3b 09 fd 8a 3d
       -0.028107896 0.091973186 0.006687123 0.06786544
0003b0 62 1c 84 3e 8e 07 89 3e f6 9d f1 3d 73 ef d1 3d
       0.25802904 0.26763576 0.11797707 0.102507494
0003c0 cd a1 4f bc 47 e7 47 3e 4e 23 22 be 15 44 b8 bd
       -0.012672854 0.19521819 -0.1583378 -0.089973606
0003d0 14 19 0d 3e b4 97 08 be 0e a0 bd 3d 49 79 3f be
       0.13779098 -0.1333912 0.09259044 -0.1869861
0003e0 05 ca c9 3e ad c7 05 3d a9 14 43 be 72 b8 15 3e
       0.3941194 0.03266113 -0.1905085 0.14621142
0003f0 39 f5 63 3a c2 d5 c4 bd 81 22 c1 3d b8 61 e8 bd
       0.0008695904 -0.096110836 0.09430409 -0.11346763

layers.1.0.bias f4 [128]
000000 43 99 ab bc 22 f8 22 3d 79 32 81 3e 5b 90 34 3d
       -0.020947104 0.03978742 0.2523382 0.04408298
000010 bf 0a 6d 3c 4a a0 a9 bd a4 5b 11 bd 90 c2 56 3d
       0.014467894 -0.08282526 -0.035487786 0.052431643
000020 30 ec 27 3c fb ee 33 3e 5f 77 11 3e 7b 0f 3a 3c
       0.010249183 0.17571633 0.14205693 0.01135623
000030 ab 9d 8a bd 45 ad 68 3d a6 73 6d 3d db 0f 6c bd
       -0.06768354 0.056805868 0.05797162 -0.05763231
000040 32 34 26 3e 0f 1f 84 3c 29 65 09 bd 13 82 c8 3d
       0.16230848 0.016128091 -0.03354374 0.09790435
000050 26 73 ee bd dd 48 d6 bd 8e 8e 2c bc d4 09 c8 bd
       -0.116430566 -0.10463116 -0.010532035 -0.097674996
000060 f0 c2 13 3e 23 c5 0c be 21 9b 62 3c 98 13 eb bc
       0.14429832 -0.13747077 0.013830931 -0.028695866
000070 84 77 16 3e 37 fe 93 3d 12 1f 3d 3e 7d 16 3c 3e
       0.14694029 0.07226222 0.18468884 0.18367954
000080 3b d9 77 bd 87 ba f5 bd 46 5d 18 bc 0c 81 4e bd
       -0.0605099 -0.11998468 -0.009299582 -0.050416037
000090 61 12 44 3e e4 5a a4 bd ee 24 95 3c 88 77 44 bd
       0.19147636 -0.080251485 0.018206086 -0.047965556
0000a0 8d f8 00 be 57 29 b0 bd 0e 87 a3 3d ce 2e 11 3e
       -0.12594815 -0.08601635 0.07984744 0.14178011
0000b0 cb 53 ad bd 46 51 0c 3d ae 1c c6 3d d6 03 e7 bd
       -0.08463248 0.034257196 0.09673439 -0.112800285
0000c0 5b 48 bf bc 7d dc d7 bd 6d 94 1a 3c 58 b8 75 bd
       -0.023349931 -0.10540102 0.0094348015 -0.059990257
0000d0 ce 70 23 be 24 c6 00 be 57 c8 0b 3e 1b ce 9b bc
       -0.15961 -0.12575585 0.13650642 -0.019019177
0000e0 fd f5 67 bd ae 0a 40 bd 06 e6 ec bd 97 a4 c8 bc
       -0.056631077 -0.046885185 -0.11567311 -0.024492545
0000f0 60 e3 5f 3e 8a fc fb b9 4b e7 79 3d c5 03 38 3d
       0.2186408 -0.00048062607 0.061011594 0.04492547
000100 85 48 a4 bd d1 d4 a6 bc 3e 0f 25 be 63 3d 24 bc
       -0.080216445 -0.02036515 -0.16119096 -0.010024401
000110 63 30 e2 bd bf 26 45 be 2e 02 2a 3e f8 1c ac 3d
       -0.11044385 -0.19253062 0.16602394 0.08403963
000120 bf d5 a3 3d d4 29 24 3e bf 3d ea 39 ac a3 51 bd
       0.07999753 0.16031581 0.00044677962 -0.05118148
000130 3e 39 1b bd c7 a4 44 3c 9a b7 d5 bd 33 cd 50 bd
       -0.037896387 0.012002177 -0.1043541 -0.050976943
000140 32 c8 75 3c 81 11 9e 3d 2a 1e a8 3d f2 b0 db bc
       0.015001344 0.07718182 0.08208878 -0.026817773
000150 5e 5a 1f be e8 98 88 bd 78 a5 99 bd 10 8b 2d 3e
       -0.15561816 -0.066697896 -0.07502264 0.1694758
000160 d5 eb 5a bd 84 e2 30 3d ae 55 d3 3d 74 c6 71 bd
       -0.053447563 0.043184772 0.103190765 -0.05902715
000170 f8 7d 9f bd d4 4f 1c bd 24 08 01 be b5 e6 30 3e
       -0.077876985 -0.038162068 -0.12600762 0.17275508
000180 44 ec b7 bd ec b8 93 3d ad d0 d2 bd 1a 75 0b 3e
       -0.08980611 0.072130054 -0.10293708 0.1361889
000190 d0 86 fd bd 26 66 8e be e1 5e 42 be 0b e8 37 3d
       -0.12379229 -0.27812308 -0.18981506 0.044899028
0001a0 46 45 37 be 59 88 ad bd ea b9 27 3e 68 cc 39 bc
       -0.1789752 -0.08473272 0.16379514 -0.011340238
0001b0 57 2c 00 3e 02 18 4d 3e 71 f9 3b be 50 8f 02 3d
       0.12516914 0.2002869 -0.18356873 0.031874955
0001c0 57 6f b7 3d cc 7d 39 be e3 2b ea 3c cd 74 73 3d
       0.08956783 -0.18114394 0.02858538 0.05943756
0001d0 6d 4a 0c be 23 b5 8c bc 7a c6 12 3e 54 a8 12 3e
       -0.13700266 -0.017176216 0.14333525 0.14322025
0001e0 ba a4 80 3e b4 80 d0 bd d0 59 d7 3c e1 2c 65 be
       0.25125676 -0.10180798 0.026287943 -0.22380401
0001f0 0a 36 c3 bd a2 aa ce bd a2 05 91 bd 73 a4 ce 3c
       -0.095317915 -0.100911394 -0.070811525 0.0252249

layers.2.0.weight f4 [256, 128]
000000 9a 39 dc 3d 01 63 a5 3d b5 4b 60 3e 4f fb 80 3d
       0.10753174 0.08075524 0.2190388 0.06297933
000010 e1 3a 7d bd 18 08 7e 3e ba e0 87 be 53 56 8f 3e
       -0.06182373 0.24807775 -0.2653864 0.27995548
000020 ff 01 08 bd 81 53 8a 3e 24 ff 64 be 35 7a 4d bd
       -0.03320503 0.27016833 -0.22362953 -0.050165374
000030 14 94 6e 3e a5 7b 5f 3d 64 73 ed 3d 2c 78 03 3e
       0.23298675 0.054561276 0.11594275 0.1283881
000040 7d cb c3 bd 8a 02 f8 be 2b 1a f8 be 52 fb 6d 3d
       -0.09560297 -0.48439437 -0.48457465 0.058101006
000050 31 16 46 bc 4b 9a 89 3c 9d fd 52 be 52 10 f3 3d
       -0.012090252 0.016797205 -0.20604558 0.11868347
000060 45 72 21 be 88 a4 3c 3e a0 3a 1a 3e 82 3f b0 3d
       -0.15766247 0.18422139 0.15061426 0.08605863
000070 53 94 4e be 13 70 0c be e8 84 58 be fa 9b dd 3d
       -0.20173769 -0.13714628 -0.2114445 0.10820766
000080 78 d5 a5 bd 38 6f 40 be 30 3b 9c 3c 04 22 bc bc
       -0.080973566 -0.18792427 0.019071192 -0.022965439
000090 29 38 75 3e d3 0f 0a 3e 53 e0 67 3e 37 42 2e be
       0.23947205 0.13482599 0.22644167 -0.17017446
0000a0 a8 2b cd 3d cf 5b 13 be 85 19 bc 3e b0 40 48 bd
       0.100180924 -0.14390491 0.3673822 -0.048889816
0000b0 d8 25 ae 3c 7e 6a ac 3c 08 93 3e 3e 42 a2 04 3d
       0.02125828 0.021046873 0.18610775 0.032381304
0000c0 84 75 98 3d 59 5b dd 3f ca 5c dc 3d 1d c1 61 bd
       0.07444289 1.7293502 0.107598856 -0.055115808
0000d0 e4 dc 69 3e 91 fa dc be 20 b1 58 3e a6 a1 44 bd
       0.2283817 -0.43159917 0.21161318 -0.048005722
0000e0 73 d9 a4 bb c0 5a 3b 3e 25 77 1b 3c 70 39 ea 3d
       -0.005030805 0.18296337 0.0094888555 0.114367366
0000f0 f3 18 91 3e 90 01 65 3e b6 e1 67 bb 24 a2 60 3e
       0.28339347 0.22363877 -0.0035382337 0.21936852
000100 5d e2 7c 3c bc 2d 13 3e 62 c4 9b be 12 cd 4d 3e
       0.015434829 0.14372915 -0.30423266 0.2009776
000110 dc 28 1b be 28 df f8 be 43 a2 cc 3c 8c 6c d1 3e
       -0.15152305 -0.48607755 0.024979716 0.40903127
000120 95 46 93 3e ec 15 1d 3d 89 f5 0f bd 40 04 d6 bc
       0.28764787 0.038350984 -0.03514627 -0.026125073
000130 6e aa 02 3d f5 a2 8b 3e a8 75 65 bc b0 4d a1 3d
       0.031900816 0.27272764 -0.014005102 0.07876146
000140 14 b8 4f 3e 09 8f 9e be 90 e0 9c bd 28 5a 9e be
       0.20285064 -0.30968502 -0.076600194 -0.3092816
000150 cf 8d 2e be 51 55 83 3c 5b 1b 29 bd de 57 ae be
       -0.17046283 0.016031893 -0.041285854 -0.34051412
000160 c1 98 d5 3d 38 ee 04 3e 7a 73 16 be 85 38 07 3e
       0.10429526 0.12981498 -0.14692488 0.13205154
000170 59 0f c3 bd e7 6c 98 3d 98 9f c6 3c 99 13 34 be
       -0.09524412 0.074426465 0.024246022 -0.17585601
000180 b7 1f 42 3d ac 6d 3d 3e 7e 66 73 bb 62 c2 44 3d
       0.047393527 0.18498868 -0.0037139948 0.04803694
000190 db 2a e7 bd 80 2f 2d bf dc 9d 48 be 10 de 84 3e
       -0.11287471 -0.67650604 -0.19591469 0.2595067
0001a0 bf 65 2d 3f 55 52 da 3e 42 ef 9b be f7 09 12 be
       0.6773338 0.4264094 -0.30455977 -0.14261614
0001b0 68 bd 0d 3e 6f b5 62 3e c3 a3 22 bd cb c2 50 3e
       0.13841784 0.22139524 -0.039706957 0.20386808
0001c0 82 78 0e bc d5 22 99 bd db e7 5d 3d 50 a3 47 3d
       -0.0086957235 -0.07477347 0.054176193 0.04873973
0001d0 dd fb 26 be 0a aa 4c 3e f0 a5 a0 bd 55 b8 9d bd
       -0.16307016 0.1998674 -0.0784415 -0.07701174
0001e0 40 32 19 3e 48 d5 84 3c b3 d4 9c bd 64 ba 40 be
       0.14960575 0.016214982 -0.07657757 -0.18821102
0001f0 99 9d 9c 3d cc 69 ce 3c 2f 9f 90 3d ce c5 48 3d
       0.07647247 0.025196932 0.07061612 0.049016766
000200 ff e6 0b 3e 83 e7 88 38 7d a8 22 bd 04 00 0d bd
       0.13662337 6.528108e-05 -0.039711464 -0.034423843
000210 b3 da 82 3d de d0 78 bd 86 9e 9d 3e 10 d2 cb be
       0.0638937 -0.060746066 0.30785006 -0.39808702
000220 2c d6 2e be 10 42 23 be e3 33 2a 3d b9 f8 7f be
       -0.17073888 -0.1594317 0.04155339 -0.24997224
000230 39 1b c4 3c 62 7c 10 be 38 e4 35 bd 32 ff ac 3c
       0.023938762 -0.14109948 -0.0444071 0.02111778
000240 35 70 1c 3d 48 cb df bd e9 e5 4e be 74 88 d6 3d
       0.038192946 -0.10927445 -0.20204891 0.10475245
000250 58 75 33 3d 5f 74 41 be 89 86 50 3d c7 7d de 3d
       0.04381308 -0.18892048 0.050909553 0.10863834
000260 ba 1c 5c 3d cd 2a 28 be 69 72 5a be cb 5e 92 bc
       0.053738333 -0.16422577 -0.21332707 -0.017867466
000270 a5 29 73 3d af 2f da bd eb f1 4e be 37 b7 8d bd
       0.059365887 -0.10653626 -0.20209472 -0.06919711
000280 1a 30 89 3b ae bd d0 bd 24 92 cc bd 1a 14 23 bd
       0.0041866424 -0.101924285 -0.099888116 -0.039814092
000290 7c 4e 47 be 29 f1 4c 3e 3c 60 91 bc 97 6e ad 3c
       -0.19463533 0.2001387 -0.017746083 0.021170897
0002a0 96 7d fc 3c 76 a2 9b 3d 4d c5 37 be 20 ea 09 3e
       0.030821603 0.07599346 -0.17946358 0.13468218
0002b0 49 e4 b1 3a b7 75 7f bd 99 68 9d bd c0 86 06 3c
       0.0013572063 -0.06236812 -0.07685966 0.008210838
0002c0 51 c6 a7 3d 85 f6 64 3c d1 48 1b bd d4 fc 16 3e
       0.08192123 0.01397479 -0.03791124 0.14744884
0002d0 8c 49 93 3d 7c 85 a1 bd a7 f7 5c 3d 77 dc 8c 3e
       0.07191762 -0.07886788 0.053947117 0.2751195
0002e0 82 8d af 3c 18 1c a2 3d b9 87 66 bd 11 c4 66 3d
       0.02142978 0.07915515 -0.05628178 0.056339327
0002f0 69 56 e7 bd c0 49 e2 3d 62 76 5c 3d fb b6 cd bd
       -0.11295778 0.11049223 0.053823836 -0.100446664
000300 cc 9f 30 3d ec 52 a2 3b 53 4a 20 be b2 1f bd bd
       0.043121144 0.0049537327 -0.15653352 -0.09234561
000310 31 e4 01 3d 92 65 26 be 7a 47 32 3e 1e 14 98 3d
       0.03171176 -0.16249683 0.17410079 0.07425712
000320 25 28 d2 3d 6b d6 fb 3d 85 ce 9c 3e 1d 39 aa bd
       0.10261563 0.12296756 0.30626312 -0.08311675
000330 7f c5 20 3e 63 24 06 3e c0 bf dc bc 46 b7 fd bc
       0.15700339 0.13099818 -0.026946902 -0.03097118
000340 9c 1a 53 3e d0 45 58 bd 7a 2d 6d 3d d0 1d 8c 3d
       0.2061562 -0.052800953 0.057904698 0.06841624
000350 95 35 27 3e 47 56 d1 3c ae be 36 3d 32 8c ef 3d
       0.16329034 0.025553836 0.04461544 0.11696662
000360 cf a8 b2 bc 60 d0 82 bd c9 6e a5 3d 90 38 fa 3c
       -0.02180901 -0.063874006 0.08077771 0.03054455
000370 05 41 8e be 1e 91 31 be b7 3b ad 3e 52 4a e0 3d
       -0.2778398 -0.17340514 0.3383462 0.109516755
000380 f0 b4 eb 3d ac 53 a1 bc 61 26 ab 3c 21 02 07 be
       0.115091205 -0.019693218 0.020892324 -0.13184406
000390 d1 b8 25 bf bf 21 e4 3d 98 86 8c bd a3 53 22 3e
       -0.6473513 0.11139249 -0.06861609 0.15852217
0003a0 3c ba 1a 3d 98 46 3a bd dd a5 e6 bc 67 36 a2 3e
       0.037775263 -0.04547748 -0.028155262 0.3168213
0003b0 bd 17 39 3e e5 45 0a 3e db 46 19 bf ac a7 a5 3b
       0.18075462 0.13503225 -0.5987374 0.0050553884
0003c0 43 93 e3 bd 1c 9c d3 3c 41 96 89 be 1e 12 77 3d
       -0.11112072 0.025831275 -0.26872447 0.060320012
0003d0 a8 92 4d be 14 ee 82 bd 94 a2 11 3e b2 31 c1 3d
       -0.20075476 -0.06393066 0.14222175 0.09433307
0003e0 2c 4c 19 3d 2b a5 0b 3e 54 17 26 3e f1 8f 10 bd
       0.03742616 0.13637225 0.16219836 -0.035293523
0003f0 90 df 3e bd fb e7 00 3d f6 82 1e 3e 46 18 b1 3d
       -0.046599925 0.031471234 0.15479645 0.08647208

layers.2.0.bias f4 [256]
000000 69 32 92 ba c4 05 90 3d 5e 6a b3 3d a7 20 c5 bd
       -0.0011153939 0.0703235 0.08760522 -0.096253686
000010 89 ed 46 be bf 10 0e be 1f d6 67 bd dc 4a b3 3d
       -0.1942655 -0.13873576 -0.056600686 0.08754513
000020 33 f1 bb 3c 08 44 ec bd 37 63 2c 3e 7a 92 19 3e
       0.022942161 -0.115364134 0.16834722 0.14997283
000030 c7 bf 2b bd e6 09 27 bd 8f 49 54 bd b5 55 22 3d
       -0.04193094 -0.040780924 -0.051827963 0.039632518
000040 90 ea d9 bd 1f d3 42 3d cc 2a ed bc 3a 2e 86 3d
       -0.10640442 0.047564622 -0.028951071 0.06551786
000050 d6 47 cf 3d ff 03 03 3e a6 19 fb b9 4f 66 0f 3e
       0.101211235 0.12794493 -0.0004789356 0.14003871
000060 39 85 0b 3d 48 05 94 bc 74 03 e5 bd dd bd 96 bc
       0.034062598 -0.018068925 -0.11182299 -0.01840108
000070 ad 1f 86 3d d8 d2 23 bd 56 c4 1e be d5 f9 66 3d
       0.065490104 -0.039996 -0.15504584 0.056390602
000080 82 60 9a 3d 63 62 f7 3d 71 24 58 3e f6 7e df bd
       0.07537939 0.12079313 0.21107651 -0.10912888
000090 91 e0 23 be b5 9f d5 3d 7a 61 b7 3d f8 c4 3a 3e
       -0.16003634 0.10430852 0.08954139 0.182392
0000a0 91 93 9c bc 6e 54 10 3e c5 5e 9a 3e bf 5f b3 3d
       -0.019113334 0.14094707 0.30150428 0.087584965
0000b0 1b dd db bd 7d 61 dc 3d c7 65 f9 3c 54 22 5a 3e
       -0.10735532 0.10760782 0.030444039 0.21302158
0000c0 ed 3c e9 3d c0 fa dc 3b 67 f6 a9 bd 21 26 b0 3c
       0.11388574 0.006743759 -0.08298951 0.021502556
0000d0 b8 20 f1 3d fa f8 76 3e dc 06 c5 bd 05 3d 11 be
       0.11773819 0.24118415 -0.09620449 -0.14183433
0000e0 81 94 09 bd 75 e0 9f 3d 2a 3b 12 be f3 cd df bc
       -0.03358889 0.07806484 -0.14280382 -0.027319884
0000f0 6a 94 1e b9 af 86 46 ba 9d 95 15 be 88 ee 02 3c
       -0.00015123343 -0.000757317 -0.14607854 0.007991441
000100 6b c8 0b 3e 3e c2 25 3e 62 57 02 3e 28 09 b2 bb
       0.13650672 0.16187379 0.12728646 -0.0054332204
000110 a7 b0 0c 3e e4 f1 ba bc 08 fa 90 bb f7 39 42 be
       0.13739263 -0.02282042 -0.0044243373 -0.18967424
000120 05 a1 c0 3d b7 93 97 bc 3c 7b 0e bb 15 ec 5c 3b
       0.09405712 -0.018503053 -0.0021740934 0.0033710052
000130 e9 80 1b be 61 43 dd 3c 91 a8 43 3e b5 0a 59 3b
       -0.15185894 0.027009668 0.19107272 0.0033117954
000140 fd 2f f0 bb 3b 8a d5 bd 26 a9 6c bc 57 5d 39 3d
       -0.0073299394 -0.10426756 -0.014444625 0.04525503
000150 62 15 1b 3e 01 a9 b7 3c eb e1 f9 3d 63 5f bd bd
       0.15144876 0.022419455 0.122012936 -0.09246709
000160 6a 3f 7d be 84 41 3b 3c 59 7b 8d bd 35 1d ae bd
       -0.24731222 0.011429194 -0.06908292 -0.085016645
000170 8c 5e 76 3d 37 68 12 3e 58 ee 11 3e b1 00 27 bd
       0.06014876 0.14297567 0.14251077 -0.040772144
000180 7a b3 78 bd 8d 18 7b bc c4 ce 70 be cb 72 9a b9
       -0.060718037 -0.015325678 -0.23516375 -0.00029458696
000190 2e 4b 06 3e 6e b5 43 3d 44 c4 25 3e f2 8b 4f bc
       0.13114616 0.047780447 0.1618815 -0.012667643
0001a0 7e 01 96 be 29 cb 17 3e fd da 32 3b 66 39 1b bd
       -0.29298013 0.14823593 0.0027291172 -0.037896536
0001b0 a8 df 2c 3d be ca 8c 3c 7d 3b b1 3c 85 87 50 3e
       0.042205483 0.017186519 0.021634812 0.20364197
0001c0 08 fc 4e 3e 62 42 f3 3d c3 7b 14 3e ac a5 86 3d
       0.2021333 0.11877896 0.14500336 0.06574568
0001d0 c8 38 a6 bd e9 22 4f bd 5c 60 19 bd 6e a7 8b bd
       -0.08116299 -0.050570402 -0.03744541 -0.06819044
0001e0 ac 60 13 be a1 39 1f be c8 2f 1f bc cf 4b a1 3d
       -0.14392346 -0.15549327 -0.009715982 0.078757875
0001f0 69 a6 fe 3c e6 c0 52 3d 42 bc 04 be 9e f6 c9 bc
       0.03108521 0.051453494 -0.1296244 -0.024653729
000200 0b b6 7b bd 0e 5c 6e bc 68 f7 08 be 1f 65 2e 3e
       -0.061452907 -0.014548315 -0.13375628 0.17030762
000210 c9 00 42 3e e6 14 06 be ee e9 a0 3d 21 2c 9e bd
       0.18945612 -0.1309391 0.078571185 -0.07723261
000220 e7 78 90 bc 7c eb 82 3a 31 44 02 3d 28 05 0a 3c
       -0.017635776 0.0009988393 0.031803314 0.008424081
000230 c8 57 41 3c 3c b3 e6 bd 3f 75 cb 3d c8 0d 55 bd
       0.011800714 -0.11264655 0.09934472 -0.052015096
000240 3a e4 1c 3d b3 39 94 bd f3 ef e3 bd cc 00 95 bd
       0.03830359 -0.07237568 -0.11129751 -0.072755426
000250 2a e1 ae 3d 23 ce 41 3d 44 aa ad 3d 1a 63 de 3d
       0.085390404 0.047315728 0.08479741 0.10858746
000260 65 5d a6 3d 87 74 17 be d4 e5 d1 3d 97 c4 00 bc
       0.08123282 -0.14790545 0.10248914 -0.007859371
000270 0e c9 a3 3b 62 ef be bd e7 e4 d5 3c 38 ee 15 bd
       0.004998333 -0.093230024 0.026110126 -0.036604136
000280 96 c9 92 3d 5f da 1f 3d c2 c4 65 bd d1 95 4a 3d
       0.07167356 0.039026614 -0.056095846 0.049459282
000290 98 32 1b be bb 49 84 3c ef 1e 84 bc 92 f8 b3 3c
       -0.15156019 0.016148439 -0.016128032 0.021969113
0002a0 cc af bd bd d4 c1 5b 3e 42 b7 eb bc 4c 9a f6 bd
       -0.09262046 0.21460658 -0.028773908 -0.120411485
0002b0 4b f4 9b 3d 27 c4 65 be 95 45 28 be 9a 4e 84 ba
       0.076149546 -0.22438107 -0.16432793 -0.0010094226
0002c0 59 ed bf 3d 88 b4 81 bc bf da 69 3d 7d 1c 9e bd
       0.09371442 -0.015833154 0.05709338 -0.077202775
0002d0 b9 47 a5 bd 00 6e a7 3d cc 41 28 3e 85 63 78 bd
       -0.08070321 0.08175278 0.1643135 -0.060641784
0002e0 4f 29 32 3e cf 26 82 bd 1c 5b d1 3d 6e 94 ec 3d
       0.1739857 -0.063550584 0.10222456 0.11551748
0002f0 9f 9c 69 be 00 58 4b 3c 9f f3 5b bd cc fb cc 3d
       -0.22813652 0.012411118 -0.053699132 0.10008964
000300 03 bf 1c 3e 88 f0 0c be a3 04 15 be ec 7d 08 3e
       0.1530724 -0.1376363 -0.1455255 0.13329285
000310 bb 9f 83 3d 6a e3 3b bc 23 89 7f 3d 74 b2 58 3e
       0.064269505 -0.011467794 0.062386643 0.21161824
000320 17 6a 03 3c 77 b3 24 be 1b f4 88 bc 68 4b 40 3c
       0.008020899 -0.16084085 -0.016717961 0.011736728
000330 0e 53 ed bd 34 70 d7 bd 1c a4 a9 bc 59 cc a1 bd
       -0.11588107 -0.10519448 -0.020708136 -0.07900304
000340 ae 50 f8 bd e2 8f 1b 3d 71 5d 1f be 8c e8 93 bd
       -0.121247634 0.037979014 -0.15562989 -0.07222089
000350 a1 5e d9 bc 59 eb 1a 3e a5 56 41 bd 36 af 0d 3e
       -0.02653438 0.1512884 -0.04720177 0.13836369
000360 fd 1f c7 3d 30 7d 92 bd 49 43 49 3e 0b 61 66 bd
       0.09722898 -0.07152784 0.19654574 -0.05624489
000370 9f 60 1c bd 9e 4f 82 bd b6 77 8f 3d a6 fc 0e bd
       -0.038178083 -0.06362842 0.07005255 -0.034908913
000380 14 0f 88 bd 1a 27 00 3e 65 f8 b1 bd 50 d4 e2 3c
       -0.06643501 0.12514916 -0.086899556 0.02768913
000390 a0 4f 26 3e 68 51 b8 bd 2b de a9 bd b4 6f 7d 3d
       0.16241312 -0.08999902 -0.08294328 0.061874107
0003a0 01 b8 38 3c bb f0 bc 3c af 93 b8 bd fa 55 d2 bd
       0.011274339 0.023064008 -0.090125434 -0.10270305
0003b0 71 7d bd 3d 13 8e 46 bd 93 f1 d2 bb 2e 74 79 3d
       0.09252442 -0.048475336 -0.0064374893 0.060901813
0003c0 ba 69 00 be 28 01 61 bd d1 bd d0 3d bf 82 b8 bd
       -0.12540331 -0.054932743 0.101924546 -0.09009313
0003d0 e5 90 f3 bd f8 12 3f 3e 3c cb a0 bd a5 af 69 3e
       -0.11892871 0.1865958 -0.07851264 0.2282091
0003e0 3a 60 24 3e 24 de e8 3c 3f 5a 98 be 15 f3 a0 bc
       0.16052333 0.028426237 -0.29756352 -0.01964716
0003f0 08 8d 6b be e9 0e 00 be d6 6c 19 3d 61 3a cc 3d
       -0.23003018 -0.12505688 0.03745731 0.099720724

layers.3.0.weight f4 [128, 256]
000000 ba b6 52 3d 90 ec 6c bc f6 b0 60 bd 04 4f 3f 3d
       0.051443793 -0.014460698 -0.054856263 0.046706215
000010 c8 1b 1c 3c 54 17 a0 3c 74 66 4e bd e0 97 1c bc
       0.009528108 0.019542374 -0.050390676 -0.009557694
000020 ba 0f 7e 3d d0 ec 3d bd a8 ed 5c bd 20 0f 63 3d
       0.062026717 -0.04636842 -0.053937584 0.055434346
000030 fc 10 58 bd 0c 15 83 3c 6e 29 71 bd 60 0b a7 bc
       -0.052750573 0.016001247 -0.0588774 -0.020391166
000040 58 35 24 3c 78 9a 10 3d 7c 54 6a bd 60 db 3d bb
       0.010022484 0.035303563 -0.057209477 -0.002896987
000050 7c 7d 91 3c 34 e7 2c bd c0 29 a9 3a 9e a5 1b bd
       0.01776003 -0.04221268 0.0012906119 -0.03799974
000060 cc 33 cb bc b0 ef d5 bb 90 70 6e bc 24 62 61 3d
       -0.024804972 -0.006528817 -0.014553204 0.055025235
000070 00 5a e0 3c e4 cf a7 3c c0 d5 3e bb 5e b4 0c bd
       0.027386665 0.020484872 -0.0029119104 -0.0343517
000080 00 87 e7 b9 e8 98 07 bc 96 19 33 bd 22 70 4f 3d
       -0.00044160336 -0.008276202 -0.043725573 0.050644048
000090 be e0 14 3d 82 7a 10 bd 5c bc b9 bc 50 66 01 bc
       0.036347143 -0.035273083 -0.022672825 -0.007897928
0000a0 68 3a e2 3c c8 3a 1e bd 12 b4 5d 3d 00 2c 4f 3b
       0.02761574 -0.038630277 0.054126807 0.003161192
0000b0 66 09 21 3d a0 4a dc 3b de 89 58 3d ba 5a 36 bd
       0.039315604 0.006722763 0.052865855 -0.044520117
0000c0 c0 58 dc 3b 5a be 22 3d 48 75 45 bd ec 24 b5 bc
       0.006724447 0.039732315 -0.04820755 -0.022112332
0000d0 a0 46 da bb ba a4 77 bd 38 87 74 3d 80 0d a5 bb
       -0.006661251 -0.06045983 0.059699267 -0.0050370097
0000e0 86 39 62 3d 00 ef 6f 3b d0 48 9b 3c bc 9b 44 3d
       0.05523064 0.003661096 0.018955618 0.048000082
0000f0 00 49 cf 3a a0 95 65 bd 48 c2 e4 3c b8 46 36 3d
       0.0015814602 -0.056050897 0.027924672 0.044501036
000100 40 b5 d2 3c 2e c3 42 bd 50 7a b3 3b 24 97 d1 3c
       0.025721192 -0.04754942 0.0054772273 0.025584765
000110 e8 3c df bc bc c9 19 3d dc 69 0b 3d e0 fc 35 3c
       -0.027250722 0.037545905 0.034036502 0.011107653
000120 80 39 6b 3a 96 d8 72 3d 10 6d 7a 3c ea bf 46 bd
       0.0008973107 0.059288584 0.015284792 -0.048522867
000130 f4 48 5c bd b4 2b cd bc 10 07 11 3d 60 60 94 bc
       -0.05378051 -0.025045253 0.035407126 -0.018112361
000140 2c ce 6a 3d 9e bf 3c bd e2 91 75 3d 26 bd 6e 3d
       0.057325527 -0.046081178 0.059953578 0.058285855
000150 84 6f 71 bd 72 42 6f bd 52 75 73 bd f0 74 fb bb
       -0.05894424 -0.058412977 -0.059438057 -0.007673852
000160 12 9f 2c 3d e0 20 29 bb f2 2c 4a 3d 38 b9 97 3c
       0.04214389 -0.0025806949 0.04935927 0.018520936
000170 ac dc 71 bd 10 d4 d6 3c e8 ed c2 bc 80 05 17 3a
       -0.05904834 0.026224166 -0.023795083 0.00057610124
000180 3a a8 09 bd be 82 60 bd 10 e5 07 bd e0 fc ce bc
       -0.0336077 -0.054812185 -0.033177435 -0.025267065
000190 64 f4 d4 bc c0 c4 de bb 80 14 92 bc 00 9e 22 3a
       -0.02599544 -0.006798357 -0.01783204 0.00062033534
0001a0 32 d6 69 bd e4 8e 09 3d 9a 05 05 bd a0 f2 f1 3b
       -0.05708904 0.033583537 -0.032476045 0.0073836595
0001b0 8c 8c 24 3d 82 e3 17 bd 84 cf e9 bc 1e f0 43 bd
       0.0401731 -0.037082203 -0.028541334 -0.047836415
0001c0 d8 d2 73 3c f2 e4 78 bd c4 76 fe bc 98 e3 4b 3d
       0.014881812 -0.060765214 -0.031062491 0.049777597
0001d0 3a 0f 68 bd 4a 04 13 3d 38 5e 82 bc 90 24 40 bd
       -0.056655146 0.035892762 -0.015914068 -0.04690987
0001e0 c0 a8 d7 3c 46 68 08 bd 00 f6 dd 3c f0 44 3c bc
       0.026325583 -0.033302568 0.027094841 -0.011491045
0001f0 8c b3 68 3d fa 1e 0a bd a4 40 8b 3c 18 61 2c 3d
       0.056811854 -0.033720948 0.016998596 0.042084783
000200 18 1c a8 3c 20 23 9e bb c4 94 76 3d 62 92 36 bd
       0.020521209 -0.0048259646 0.060200468 -0.044573195
000210 a0 33 67 bb f8 e6 fe bc 08 39 45 3d 2c 5d 7e bd
       -0.0035278574 -0.031115994 0.048150092 -0.062100574
000220 f0 e9 53 bd c8 6d 18 3c 70 bd a0 3b 3c df d6 bc
       -0.051736772 0.009303518 0.004905395 -0.026229493
000230 70 05 9c bb 40 3d 13 3c f8 6a e7 bc d4 14 c2 bc
       -0.0047613904 0.008986771 -0.028249249 -0.023691572
000240 70 33 6b bd 04 4f b2 3c 24 c9 dc 3c cc c9 5a 3d
       -0.0574221 0.021766193 0.02695138 0.053415105
000250 90 cc ef bb 40 bc 6a bc 2a 98 5f 3d 7c 16 b1 bc
       -0.007318087 -0.014327109 0.054588474 -0.021617167
000260 b8 21 d2 bc 64 d9 ca 3c bc 13 9b bc da da 1a bd
       -0.025650844 0.024761863 -0.018930309 -0.03780637
000270 60 1a 30 bc f8 3c 06 bd b4 21 99 bc 0c 17 d3 3c
       -0.010748476 -0.032772988 -0.018692829 0.025767826
000280 98 42 48 bc bc 26 d2 bc ca af 09 3d 78 44 6f bc
       -0.012222908 -0.025653236 0.03361491 -0.014603727
000290 4c 88 f4 3c 12 d1 38 3d f0 23 0e bc 78 d6 fd 3c
       0.029850148 0.04512126 -0.00867556 0.030986056
0002a0 bc 48 dd bc 30 b5 b0 3c f0 3b db bb 06 6f 72 bd
       -0.027012222 0.021570772 -0.0066904947 -0.05918791
0002b0 ce ab 0e bd 68 b6 9d bc fc 13 c5 bc 00 00 6f 3c
       -0.034831814 -0.019252017 -0.02405738 0.014587402
0002c0 14 8c fc bc 22 8a 02 3d a0 ce 0d bd ca 49 11 bd
       -0.030828513 0.031870015 -0.03462088 -0.03547076
0002d0 56 9b 34 3d 80 3a d3 ba b2 dd 1f bd 7a c4 5c bd
       0.044093452 -0.0016115457 -0.039029785 -0.053898312
0002e0 96 05 3e bd 40 60 27 3c 74 d7 e8 3c 4c 74 81 3c
       -0.046392046 0.010215819 0.028423049 0.015802525
0002f0 c0 de 58 bc ba b7 31 bd 58 a0 4e bc 3c 31 cf bc
       -0.0132367015 -0.043388106 -0.012611471 -0.025292031
000300 70 e4 4c bc 70 67 cc 3c 00 0d 21 ba 64 8d 38 3d
       -0.012505636 0.024951667 -0.00061436 0.045056716
000310 62 da 48 3d ae ec 3c 3d a0 fc 4b bd 48 74 92 3c
       0.04903639 0.046124153 -0.04980147 0.017877713
000320 08 cc 12 3c 0a 29 49 bd 58 4a 4c 3d 00 43 bf 3a
       0.008959778 -0.049111404 0.049875587 0.0014592111
000330 c0 11 d2 bb 42 35 30 bd 68 e2 1f 3c 38 71 50 3d
       -0.0064108074 -0.04301954 0.009758569 0.050889224
000340 a0 6e b0 bb 54 28 a8 3c 9c 87 5c bd 2e 41 66 bd
       -0.0053842813 0.020527042 -0.053840265 -0.056214504
000350 a6 d0 61 bd 1c dc 89 3c 2c 6d 55 3d fa a9 1a bd
       -0.055130623 0.01682859 0.052106068 -0.03775976
000360 fc 52 e5 bc 44 48 6e bd 26 0d 7c bd 60 87 b9 3b
       -0.027993672 -0.058174387 -0.061535977 0.00566189
000370 5c 5e d8 3c 00 d7 02 3b 68 22 36 3d 00 8d 44 bc
       0.026412182 0.0019964576 0.044466406 -0.011996508
000380 46 2e 1e bd 70 e0 e5 3b 76 26 3f 3d 00 da ce ba
       -0.03861835 0.0070152804 0.04666754 -0.0015781522
000390 24 87 04 bd c0 2a 74 3c 4c 28 3d 3d d4 49 7a 3d
       -0.032355443 0.0149027705 0.04618101 0.061105564
0003a0 80 e5 21 3b 62 c3 40 3d c4 4c d4 3c a0 10 e8 3b
       0.0024703443 0.04706133 0.025915511 0.00708206
0003b0 9e 8a 40 3d 98 4c 33 3d 72 b5 10 3d 52 97 12 bd
       0.047007196 0.043774217 0.03532929 -0.03578884
0003c0 5e 5a 03 bd f0 01 ba bc e0 33 56 bd 98 c6 01 bd
       -0.032068603 -0.022706002 -0.052295566 -0.031683534
0003d0 3c 33 c3 bc e4 1c 83 bc 18 66 fd 3c cc eb 29 3d
       -0.023828141 -0.016004987 0.030932471 0.04148464
0003e0 a0 af 5e bc b8 61 f3 bc 70 ea 0b bd 5c c8 ac 3c
       -0.013591677 -0.029709682 -0.034159124 0.021091633
0003f0 5a e6 26 3d 22 4e 4b bd 90 7f 8d bc 06 d1 66 3d
       0.040747024 -0.04963506 -0.01727274 0.056351684

layers.3.0.bias f4 [128]
000000 96 47 18 bd 00 d1 89 bd a4 55 80 bd fa f0 57 3d
       -0.037177645 -0.06729317 -0.06266335 0.052720048
000010 96 9d e7 bd 95 48 4d bd 1a aa 7c 3d 00 cf 3a bd
       -0.11309354 -0.050118048 0.06168566 -0.045607567
000020 cf d6 bf bd e6 20 17 bc fe 5a c5 bd 18 e5 74 3c
       -0.09367143 -0.009224152 -0.09636496 0.014947198
000030 46 c2 f5 bc f2 37 7e 3b b0 10 26 bd b9 4d 69 bd
       -0.029999863 0.003879067 -0.04054326 -0.056958888
000040 1a 76 4b bd a4 25 13 3e 65 49 e7 3b 48 c7 96 bc
       -0.049673177 0.14369828 0.00705831 -0.018405572
000050 d5 f1 7a bd 21 63 14 bc 38 57 1a 3c 0b 9c 22 3d
       -0.061265785 -0.009056837 0.009420209 0.039699595
000060 5f 00 b5 be 57 f8 d9 bc 86 0b 1a be da e4 23 3d
       -0.35351846 -0.026607675 -0.15043458 0.04001317
000070 20 76 5c 3e 2a d5 40 bd a0 51 c7 3c 93 71 df 3c
       0.21529436 -0.04707829 0.024330914 0.027275836
000080 97 f5 71 3d e1 02 39 bd 03 cb 9c 3d dd d6 3a 3d
       0.059072103 -0.04516876 0.07655909 0.045615066
000090 c3 5a 82 bd 03 db b8 3b 7f 78 c4 bc 34 5a ff 39
       -0.06364968 0.0056413426 -0.023983238 0.00048704597
0000a0 a7 c4 81 bd bc 20 0c bd 53 93 99 3d a3 32 fb bd
       -0.063363366 -0.034210905 0.07498803 -0.122655176
0000b0 4a d2 67 3d 33 97 6c 3e aa 0c e9 3d b2 06 fb bb
       0.05659703 0.23104553 0.113793686 -0.0076607103
0000c0 21 4e 2d bd 0a c3 52 bc 82 69 98 3c f9 52 6d bc
       -0.042310838 -0.012863884 0.018604998 -0.014485114
0000d0 d9 5c 60 3d 19 88 b9 3d d6 cb ad bb f9 10 24 bd
       0.054776046 0.09059162 -0.00530384 -0.04005525
0000e0 0c 8f a4 3c 30 6e 8a bd 14 c8 a8 3b d6 6a 03 3d
       0.020087741 -0.06759298 0.0051508043 0.03208431
0000f0 e9 1b 0e 3e 70 d9 0f 3d 08 9f af bd 61 bd 31 3e
       0.13877834 0.035119474 -0.08575255 0.17357399
000100 ca ab 54 3d 34 3d 93 3c 21 6f 08 3e cf b4 f5 bc
       0.051921643 0.01797352 0.13323642 -0.029993443
000110 a2 e5 8f bd 77 f4 31 3e 59 1c 96 bd 95 19 c9 bd
       -0.07026221 0.17378412 -0.07329626 -0.098193325
000120 55 41 2a 3d 46 71 ba bd 0f 2a 72 3a c5 7c a7 bc
       0.04156621 -0.091036364 0.00092378346 -0.020445237
000130 45 be 8f bd ed fb 12 bd c3 54 b5 3c d6 db a3 bc
       -0.07018713 -0.035884786 0.022135144 -0.020002287
000140 92 a2 a5 bd 27 83 1b 3e 33 f4 f7 3b 8f 75 17 bd
       -0.080876485 0.1518675 0.0075669526 -0.036977347
000150 e2 07 94 bc 27 60 19 3d a0 68 b3 3d ef 3a 16 3d
       -0.018070165 0.037445214 0.0876019 0.036677297
000160 f6 1c 73 bd cf 44 16 3d 41 90 dc 3d 6e 48 3c bd
       -0.05935379 0.036686715 0.10769702 -0.04596751
000170 0b fa ba bd 57 5b ac bd 7b e2 06 3b 24 76 0b be
       -0.09129723 -0.08415859 0.002058177 -0.13619286
000180 fa 26 b2 bc 92 a7 7c be 5b 6e 1a bb 2d e6 84 3d
       -0.021747101 -0.24673298 -0.0023564312 0.06489215
000190 8c 71 32 bd 6a 3d 33 3c bf 9d 03 3d 28 4d ae bd
       -0.043565318 0.010939935 0.03213286 -0.0851081
0001a0 e2 8d cd b9 37 42 cb bc 3b 70 8e bc bb 8b 16 3e
       -0.00039206358 -0.024811847 -0.0173875 0.1470174
0001b0 e7 f0 04 bd 73 cb b8 bd 7b c0 43 bd 7e 80 1a 3e
       -0.032456305 -0.0902318 -0.047790986 0.15088078
0001c0 74 87 f7 3c c6 84 26 3d 2c 43 0c 3e 5c 21 05 be
       0.030215956 0.040653966 0.13697499 -0.13001007
0001d0 20 12 70 bd 58 10 97 3b 0c b1 60 bd 0a bb 97 bd
       -0.058611035 0.0046101026 -0.054856345 -0.07408722
0001e0 05 aa fd bd cd fd 5d 3c b3 60 d9 3d ee a0 0c 3c
       -0.12385944 0.01354928 0.10614147 0.0085832905
0001f0 49 6e 43 bd 99 f8 e9 3c e1 3e b3 3d 1d a1 03 bc
       -0.047712598 0.028560923 0.087522276 -0.008034018
