scripts/learning/models/[64,128,256,128,64]_best-triple_task_GSON.pth (torch_old, 356626 bytes, 20 tensors)

layers.0.0.weight f4 [64, 12]
00000000: 7b97 973e 1485 91be 283b 40be b196 efbd
00000010: bb75 42be 2c48 563f 94f2 a83f 2e7d c9be
00000020: f302 b6bd 1cba 5d3e 3045 23bb ba02 7bbe
00000030: 72bc bdbe fd15 9f3e f789 fa3d 7ecf a9bd
00000040: 7867 45bb 0098 95be 6c83 873f 3a26 f2bb
00000050: 59dc 503e 09ce 0b3e d167 c83e 3371 9dbd
00000060: 54ca 853e 607c afbe 45a2 f5bd 20ac 1cbe
00000070: 24a2 4a3e 03f9 303f fdd3 013f 73dc a13e
00000080: 3a2f ba3d 47fd 893d 64e5 35bf bb04 aa3d
00000090: 9d60 433f 3b2a d1bd 3869 65bb 0805 703e
000000a0: 73a1 363d 22c0 f83d e1aa 1a3f 7eca a8bd
000000b0: aa23 2dbe 2bb4 6fbe 2d0b 6bbf 67b9 46bd
000000c0: ca01 9fbe c40c 82bf 28ff e7be cc8d 013e
000000d0: 674f 003e 398f 553f 01f9 6f3f 2bd7 e4be
000000e0: 1831 3cbe 8a22 733d 623f 32bf b556 693e
000000f0: 05d0 8e3c 41f5 82be 724b 2ebf 5d9c 953e
00000100: 2b0f 0a3e 59e7 11be 915b 82bf be8f f93d
00000110: 383e d23d b12d a8be 1283 1b3e e2c7 da3e
00000120: 0707 063e a67d f03e 30a9 b53c c615 73be
00000130: bd92 493e 9096 f53e 858a a03e 0c89 43be
00000140: aa05 093e 5986 75bd b08a 12bf 7a34 093f
00000150: 808e f0bd 854d 2b3f efe1 913d 83f0 1dbe
00000160: d5db 6c3e 1c09 833f 40b6 6abf 823b 41be
00000170: 4acc 3a3e 6b8a 9ebd 1c4e 03bf d5df 873e
00000180: 1847 b4be baed 213e b1ce e43d 48de 15be
00000190: 2630 73bd a06c c5bf 8294 243f 8b54 a93d
000001a0: 0ba6 a739 1876 993d a0e4 d43e 4ab0 583d
000001b0: bbce ba3d f9fa 1dbf 1e88 a33e fb5d 17bb
000001c0: 5901 c83a c2c3 13bf 3614 29bf f0ab 093f
000001d0: 6782 8e3e b68c 56bb ef0e eabe 14e0 14be
000001e0: 4dde a8bd 050a 8abe f425 69be 5d5e 06be
000001f0: a48f c8bd 9156 6bbc 79f5 c63f 4cef 303e
00000200: 87e1 b3bd a6d2 58be d10f 0bbf ed63 a43d
00000210: dfe5 ddbe e016 39be fa32 5c3a eda7 8a3e
00000220: cf7b 99be 7f3b f33f 590c cfbf 378b 5b3c
00000230: 6adb e9bc 47e7 b0bd 63eb e13e 6174 0fbd
00000240: d80c eebe ab9a 893e 141b 8ebe 6e65 56bd
00000250: a9af cf3d a6ae 883f 9151 a03f 6f4c 873e
00000260: fb0a 30be 96cc ad3d 7ec7 143e 20d3 c4bc
00000270: 4059 02be e9f1 84bd e9f6 03bf 9c21 9e3e
00000280: c7d0 0e3e 3a6e 9abf fd20 0a3e 86d6 68be
00000290: affc 3a3e 6ef6 843d 444c a83e c12f 603e
000002a0: 4acc b63e 97d7 1c3f f2a7 82bd 8a09 2f3d
000002b0: 20ec fc3c 0dde 6c3f fbc2 133d 35a4 d2bd
000002c0: 2b73 6e3e 35b1 20be 6068 b73e 4fd9 b43d
000002d0: d9cc 353d db12 603e 3d35 01be 58c8 35be
000002e0: c1d7 673e 4004 aabf 2cee 6a3f 7000 a6be
000002f0: f12d ab3c df0e a9bd 7b61 aebe 6209 aabe
00000300: bbcc 393f 59c8 0b3f 38c0 37be 419f e43b
00000310: 081b b43c 55f6 613e a2de 933f ee9a ef3d
00000320: 12d4 ccbb 8a33 1a3c a33e dc3d 03bc f3be
00000330: e8e4 d8be 49ba b93e 12bb d23e b1bf 03be
00000340: 9b4f 963e e58c 8b3f 2eee ea3e 654e d73e
00000350: 9449 98bd 21a3 5bbc 11b4 3c3e 38e8 a6be
00000360: 83a0 08be f6d7 f1bd 4a08 a33e 1396 2e3e
00000370: bcfa 093e 2882 ab3e 3914 ec3e 8746 ac3e
00000380: 3b97 26be a019 67be 04d2 a1be 2a08 813e
00000390: 8305 1bbe fdf5 87be 57a5 debc f3a9 33be
000003a0: 74fd 5c3e ea2a f03e 3e31 8dbe b58d 883d
000003b0: dac1 28bc 7559 36bd 65f9 a93e 865a b63e
000003c0: b714 6dbe b0e5 da3d 35e9 a2bd 2b20 02be
000003d0: 8270 8f3e a6f9 9abf 583d 2f3e eba5 0c3e
000003e0: 7bfe 9b3d 0ee0 0abe 956d 4d3f 326a f13e
000003f0: 509e 043f eaae 87bb f43e 6cbe a4a8 4abe
0.29607758 -0.28421843 -0.18772566 -0.11698664 -0.18990223 0.83703876 1.3199029 -0.39353317
-0.08887281 0.21653026 -0.0024913065 -0.24512759 -0.37057835 0.31071463 0.12233346 -0.08291529
-0.0030121487 -0.2921753 1.0586982 -0.007389811 0.20396556 0.13652815 0.39141706 -0.07687607
0.26130927 -0.34274578 -0.11993841 -0.15300035 0.19788414 0.6912996 0.50714093 0.31613502
0.09091039 0.06737762 -0.7105315 0.083016835 0.76319295 -0.10213133 -0.0035005342 0.2343942
0.044587564 0.121460214 0.6041699 -0.08241747 -0.16908136 -0.23408572 -0.9181393 -0.048516657
-0.31056052 -1.0160146 -0.45311856 0.12651747 0.1253029 0.83421665 0.93739325 -0.4469541
-0.18378103 0.05935911 -0.69627964 0.22786982 0.017433176 -0.2557774 -0.6808387 0.29220858
0.13482349 -0.14248408 -1.0184194 0.1218562 0.102657735 -0.3284736 0.15186718 0.42730623
0.13088618 0.46970862 0.022175401 -0.23738775 0.19684882 0.47966433 0.31355682 -0.19095248
0.13381067 -0.059942577 -0.5724287 0.535957 -0.1174593 0.6691516 0.071231715 -0.15423779
0.23130734 1.0237155 -0.9168434 -0.18870357 0.18241993 -0.07741245 -0.5129106 0.26537958
-0.3521049 0.15813342 0.11172236 -0.14635575 -0.05937209 -1.5423775 0.64289105 0.082680784
0.00031976434 0.07493228 0.41580677 0.052902497 0.09121462 -0.6171108 0.31939787 -0.0023096788
0.0015259191 -0.5772058 -0.66046464 0.5377798 0.27833864 -0.003273768 -0.45714518 -0.14538604
-0.082455255 -0.2696077 -0.22768384 -0.13121934 -0.09793022 -0.014363901 1.5543662 0.17278785
-0.0878325 -0.21174106 -0.5432101 0.08026872 -0.4333944 -0.18075132 0.000839993 0.27081242
-0.2997727 1.9002532 -1.6175643 0.013399891 -0.028547008 -0.08637863 0.44124898 -0.035023097
-0.46494174 0.26875815 -0.27755034 -0.052342825 0.101409264 1.0678298 1.2524892 0.26425502
-0.17191689 0.08486287 0.14529225 -0.024026453 -0.12729359 -0.06491453 -0.5154863 0.30885017
0.1394683 -1.2064888 0.13489147 -0.22738084 0.18260454 0.06492315 0.32870686 0.21893217
0.35702735 0.61266464 -0.06379689 0.042733707 0.030874312 0.9252632 0.03607462 -0.10285226
0.2328612 -0.15692599 0.3582182 0.08830511 0.04438481 0.21882193 -0.12617965 -0.17752206
0.22640897 -1.3282547 0.9176967 -0.3242221 0.02089593 -0.082547896 -0.34058747 -0.33210284
0.7257802 0.5460258 -0.1794442 0.0069769924 0.021985546 0.22066624 1.1552317 0.11699472
-0.0062508667 0.009411702 0.107541345 -0.4760438 -0.42362142 0.36274937 0.41158348 -0.12866093
0.2935761 1.0902373 0.45884842 0.42051998 -0.07435909 -0.013405592 0.18428065 -0.32599044
-0.1334248 -0.118087694 0.31842262 0.17049436 0.13474554 0.3349774 0.4610918 0.33647558
-0.16268627 -0.22568369 -0.31605542 0.2520154 -0.15138821 -0.26554862 -0.02717845 -0.17545299
0.2158106 0.4690774 -0.2757663 0.066676535 -0.010300124 -0.044518907 0.33198085 0.3561594
-0.23152433 0.10688341 -0.07954637 -0.12707584 0.28015524 -1.2107437 0.17113245 0.13735168
0.07616898 -0.13562033 0.80245334 0.47151333 0.51804066 -0.0041407244 -0.2307089 -0.19790894

layers.0.0.bias f4 [64]
00000000: 91b4 4e3e 245e 68be 5454 f8bd 6773 913d
00000010: e029 a6be db3e c9be eec2 60be 4386 c8bc
00000020: ba21 3e3d 74d4 383e de1e 9e3e 3f37 c3be
00000030: 9803 e5b9 b209 f6be 4765 e23d c5fb 903d
00000040: 2bb9 7f3e b2ea c4be 17c0 b13d 026d 34be
00000050: 04f2 0cbd 4bae 133e d5e4 1e3e 677b b53e
00000060: 78af 3d3e 86d0 7fbe 0ebf d3bc 9880 82be
00000070: db0d 2ebe 46a0 e43d 5127 82bd b090 033e
00000080: 837e 8e3e 47dd 813e 0fbc 9bbe c3fe ae3d
00000090: 6daf a1bd cd91 3e3e 23ff ae3c 8f55 21be
000000a0: 60f8 d73b d575 41be f9d2 14be 4127 2e3e
000000b0: b0e4 0cbe aeb8 3d3e 26d0 5d3e 7728 82be
000000c0: d6dd 643e d145 53be 0c03 c43e c2b5 1ebe
000000d0: a69e 87bc a5ae 56ba 9c8d 2c3e f9b5 173e
000000e0: 7eac adbe 1ed0 19be 8b66 5bbd 76b1 90be
000000f0: 13d7 873e fc21 e6be b09d 5ebb ab88 093e
0.20186068 -0.22692162 -0.12125459 0.071020894 -0.32453823 -0.39305767 -0.2194936 -0.024478083
0.046418883 0.18049794 0.30882925 -0.38128087 -0.0004368096 -0.48054272 0.11054473 0.07079271
0.2497298 -0.38460308 0.08679216 -0.17619708 -0.03441049 0.14421956 0.1551698 0.3544571
0.18523967 -0.24981889 -0.025847938 -0.25488734 -0.16997473 0.11163382 -0.06355155 0.12848163
0.27830896 0.25364134 -0.30416915 0.08544686 -0.07894788 0.18610306 0.021361893 -0.15755294
0.006590888 -0.18892606 -0.14533605 0.17007162 -0.13759112 0.18527481 0.21661434 -0.25421497
0.22350249 -0.20632102 0.38283575 -0.15499023 -0.016555142 -0.0008189476 0.16850895 0.14815511
-0.33920664 -0.15020797 -0.05356459 -0.28260392 0.26531276 -0.44947803 -0.00339685 0.13431041

layers.1.0.weight f4 [128, 64]
00000000: b939 59bd 0b73 18be d688 26be 5b51 8cbd
00000010: fac6 2ebd ec7e afbd ad67 bdbe 2663 a7bd
00000020: 3d69 e93d 96e5 0abc c90e 2cbe 8de7 043e
00000030: bf54 a739 b80e bfbc e979 1bbd 6ef2 153e
00000040: d0f6 77bd 048f 80bc 4c14 edbc 125c 7c3d
00000050: c97e 81bd 4f67 b93e 08fd fabd 7451 5ebe
00000060: acb7 d6bd a059 a8bd 6956 03be 21dc 92bd
00000070: 5a96 bebe 157d 873e 4684 193e 95f5 773e
00000080: 3f83 de3e 536d f43d 0e33 153f c1d7 35be
00000090: 5055 7f3d 3f67 f63d 9211 b93c 318f 2d3e
000000a0: e4e7 dc3d fb8d 363e d0e3 41bd 85da 203e
000000b0: 4c05 493d c914 963d eb05 413e eef8 8d3e
000000c0: 6773 fc3d e619 59bc a858 293e 3757 883c
000000d0: b51a 81be 20a5 e7bc 9991 e9bd a83c 483c
000000e0: c1e0 58bd 1a69 ba3d 255f 74bd 5836 b33d
000000f0: 1197 9fbd 45f4 4f3e f58b bcbe 992f 8d3e
00000100: 858d d53d 6f0c 69bd 968e 6ebd 52e5 a43d
00000110: b361 1e3e 915d 6cbe d7e2 983b 66d3 143e
00000120: 3e52 6f3d 6d94 cabd 68d4 37bb 58b6 b13c
00000130: 39b8 383c 349e c33d 348c c5bc 1526 f83d
00000140: d3fc 213e 0b80 0dbe 100e f13c 1bc7 de3d
00000150: e6fe 01be d507 82bc 8e73 43be a7fa 9bbd
00000160: 022c 22be 3829 813c 767e 273e 68b3 8dbe
00000170: b006 03be 896f 363e fc64 043e bcf4 af3d
00000180: 5b70 733d 77e3 373e 426d cb3d 728b 4c3e
00000190: b07f 52bd abe7 d73c 0d4f 7c3e b16d a7be
000001a0: 2fb1 c93d 20d5 e73c ae7c 993c 1494 52bd
000001b0: bb65 6d3d d1c5 8bbe ed4f fb3b a34b 1ebe
000001c0: d317 903e 77e4 83be 23fe a6bd 865b 89bd
000001d0: 9360 cebd c727 11be 0a9d 46bd b5b8 23be
000001e0: d3a1 3dbe dee3 07be 3f96 0dbe 5c71 663d
000001f0: 3248 613d f0d0 c939 6669 5e3d aacd 0ebe
00000200: 319c 14bd 3309 6cbd 3be2 8a3d eda1 67bd
00000210: 5aaa 1cbe 53c1 913e e9c2 353e c975 113e
00000220: ac46 003e 2394 18be c97d ab3d a91c f83e
00000230: cbb2 debd 7c15 843d a389 463e 37df 123e
00000240: 0e32 4dbd 8ff4 b5bd f8f5 e3bd 3b34 28be
00000250: 8c7b 393d dd36 dbbd 16d5 f43d cadf 173d
00000260: 6a30 663e 4093 9cbc 3464 843d ea59 73bd
00000270: 0360 aebd 2493 e23d b654 3abe 750e 80bd
00000280: 97a0 fabb 2470 6dbe 7500 b4be 37ea a0bd
00000290: fb3d c83d 28b4 c4bd 3d38 2b3d c5f5 cbbd
000002a0: fc4f 3abe 6c62 db3d 12a0 f43d 61e3 9e3c
000002b0: fabd 0e3e c52b 86bd 5aef 9fbd a0c7 76bb
000002c0: 6bca 5c3e f492 21bd 1b40 d1bc d984 d13d
000002d0: 4be1 c33d c933 e53c 297e a6bd aaaf a73d
000002e0: b478 a0bd 3241 5bbd 033e 7cbe 3ce8 4a3d
000002f0: a166 093e 5265 763d ad4f a63c 7617 50be
00000300: dd2e 1f3e edcc 563d 01fb 4f3c 8806 453e
00000310: 1b1c a33d 6e09 293e d982 1b3e 39a5 783d
00000320: 30d7 023e c241 85bd 9eb3 95be aeb3 0a3e
00000330: a331 20bd 0433 d4bd b6e8 96be 160c 92bd
00000340: 4aae 97bd 76fa 3cbd 3b25 963c 27c3 983d
00000350: 1c7a 7a3c 481e c23d 23d9 c8bd f51f ae3d
00000360: e376 1bbd 3a2a 9e3d b389 803e db76 843e
00000370: aa6a 50be 86b8 043e 7e5d 9abd d15f 67be
00000380: aa6c 223e da70 51bd 62e2 a6be 40b5 f7bd
00000390: aefc cfbd 2ca6 1bbd 21df fabc 80ab d8bc
000003a0: 517f ec3d d52d 44bd 683a 973d 3d73 f9bd
000003b0: a6fb 77be 4d7c 783d 1b68 683e 015e aebd
000003c0: 73ac 123d 28be 19be 3986 e03d 5a5f 9a3d
000003d0: 6cb8 29bd 9925 bebd 0756 4dbe e352 2a3e
000003e0: f8cc e83d 568f c2bd 268b 903d e07b 96bd
000003f0: 385b 58be 9e54 8fbe 324f 4c3d 99b2 1ebe
-0.053033564 -0.14887635 -0.16263136 -0.06851455 -0.042670228 -0.0856913 -0.3699316 -0.08173208
0.11397026 -0.008477589 -0.16802515 0.12978955 0.00031915863 -0.023322448 -0.03795806 0.14643261
-0.060538113 -0.015693195 -0.028940342 0.061611243 -0.063230105 0.3621163 -0.12255293 -0.2171076
-0.104842514 -0.082202196 -0.12825932 -0.071708925 -0.37224084 0.26462618 0.14991865 0.24214776
0.43459508 0.119349144 0.5828103 -0.17758085 0.06233722 0.120314114 0.022591386 0.16949154
0.10786417 0.17827599 -0.0473364 0.15708359 0.049077317 0.07328183 0.18849914 0.2772898
0.12326699 -0.013250804 0.16537726 0.01664315 -0.25215688 -0.02827698 -0.11404724 0.012221493
-0.052948717 0.09102078 -0.05966105 0.087505996 -0.077924855 0.20308025 -0.3682553 0.27575377
0.10427383 -0.056896623 -0.05824145 0.08051552 0.15466957 -0.23082568 0.0046657133 0.14533767
0.05842804 -0.09891591 -0.0028050188 0.021693394 0.011274391 0.09551659 -0.024114706 0.121166386
0.15819101 -0.13818376 0.02942565 0.1087782 -0.12694892 -0.015872875 -0.1908705 -0.076161675
-0.158371 0.015766725 0.16356835 -0.2767594 -0.1279552 0.17815985 0.12929147 0.08591601
0.059433322 0.17957865 0.09932949 0.19975069 -0.051391304 0.026355585 0.2463953 -0.32700875
0.09848248 0.028299868 0.01873621 -0.05141075 0.057958346 -0.2729936 0.00766944 -0.1545854
0.28143176 -0.25760242 -0.081539415 -0.0670691 -0.10077014 -0.1417533 -0.048489608 -0.15988429
-0.18518762 -0.13270518 -0.13826846 0.05626045 0.05500049 0.00038493378 0.054299735 -0.13945642
-0.03628177 -0.05762596 0.06781431 -0.05655091 -0.15299359 0.28467807 0.17750134 0.14205088
0.12526959 -0.1490026 0.08373601 0.48459366 -0.10873946 0.0644941 0.19388442 0.14342962
-0.050096564 -0.088845365 -0.11130899 -0.16426174 0.04528384 -0.10703824 0.119547054 0.037078656
0.22479406 -0.019113183 0.06464425 -0.05941192 -0.085144065 0.11063221 -0.18196377 -0.062527575
-0.0076485383 -0.2318731 -0.351566 -0.07857173 0.09777447 -0.096046746 0.04180168 -0.09958986
-0.18194574 0.10712132 0.119445935 0.019395532 0.13939658 -0.06551317 -0.078093246 -0.0037655607
0.21561591 -0.039446786 -0.025543263 0.10230417 0.095644556 0.027978795 -0.08129532 0.08187802
-0.07835522 -0.053528972 -0.2463303 0.049537882 0.13418056 0.06015522 0.020301664 -0.2032145
0.1554522 0.052441526 0.012694121 0.19240773 0.07964345 0.16507503 0.15186633 0.060704444
0.127774 -0.06506683 -0.292386 0.13545105 -0.039109837 -0.10361293 -0.2947442 -0.071312115
-0.0740629 -0.046137296 0.0183283 0.07459097 0.015287902 0.09478432 -0.098070405 0.08502189
-0.037955176 0.07722898 0.25105056 0.2587193 -0.20353189 0.12961015 -0.075373635 -0.22595145
0.15861765 -0.051133014 -0.3259459 -0.120951176 -0.10155617 -0.03800027 -0.030623974 -0.026448965
0.11547721 -0.04789527 0.07384187 -0.12180183 -0.2421709 0.060665417 0.22695963 -0.085140236
0.03580899 -0.15013945 0.10963101 0.07537718 -0.041435644 -0.09284515 -0.20052348 0.16633181
0.1136722 -0.094999954 0.070577905 -0.07347846 -0.21128547 -0.27994245 0.049880214 -0.15497817

layers.1.0.bias f4 [128]
00000000: d9e9 34bd 5176 1a3e 3eeb 5a3d 315e 033e
00000010: 678b aa3d 8d2b 843b 8dd7 dfbd 6097 973d
00000020: 3bbb 0dbe 318b 853b ede5 07bd 79da 9f3d
00000030: ccd0 efbc 6692 babd 248b dabc d592 113e
00000040: 7cf5 dbbd 6607 a03d d6e6 413d c4d2 de3d
00000050: 58c8 bebc 8e2d 29be 6cc9 ed3d f6f4 843c
00000060: 450d 093e 5e75 bebd a952 9ebd 4bfb ca3d
00000070: 2c28 cf3c 8fd1 9c3d 5fcb 1abd 1862 07be
00000080: 8e8f 8abd f74f 54ba e62b f83d 4475 23bd
00000090: 316e 9e3d daa2 15be b805 063d 648e 12bd
000000a0: 348d b43d 03ff 29bd 420a a2be 5d59 e93d
000000b0: 219e a03d 348d 1e3e 9bb9 4bbe bb0f aabd
000000c0: c529 833c 9edd b0bd 02ff 7abd 945c c1bd
000000d0: 7a71 e5bd 5922 0cbd b2cb e03d f2c9 84bd
000000e0: 8527 b23d 54f5 3fbe 0975 b73d c8e4 83be
000000f0: 2094 ef3d 489c 20bd fe99 2e3d c604 263e
00000100: de5e ae3d 96ad 61bd 2b89 c2bd aa79 a6bb
00000110: 6bd6 0b3e a034 c7bd 1c3f d43c 1094 e33d
00000120: 58fa b63c cbda 013e 587c 81bd 8edd 3c3d
00000130: 6306 2cbe 9652 f63d 355b 5d3e 8b18 1e3e
00000140: d329 503e 0a89 fb3c 7c16 263e fabe 50bd
00000150: 75e5 1b3e 43f7 8f3c 67dc f53d da3b cf3d
00000160: 2446 153e 0f62 38bc 78d2 94bd 3830 393d
00000170: 08bd 14bc 7ee0 97bd 0646 af3d 540e 83be
00000180: ae7f 9d37 3420 0ebe 107e 073e 8e3b c3bd
00000190: 2d3f efbd db60 fdbd ddae babc 9200 3dbc
000001a0: edda 21bd 3221 5abd 21f9 bf3c 4ac4 91bd
000001b0: e137 a9bc f2c7 803d eaa4 fd3d aeb5 123e
000001c0: 64be 5f3c 39a0 5a3d 8698 8a3e 17be 253e
000001d0: ba9b 0e3d 6c30 043e 3b98 193d 0b31 a53d
000001e0: 2f49 a139 09e8 7bbc 50b0 35bc 9947 243e
000001f0: e2d1 d13c 5dfd f4bd 4947 4c3d 0e53 dc3d
-0.044168327 0.15084197 0.053447 0.128289 0.0832737 0.004033512 -0.10929785 0.07401919
-0.13840954 0.004075431 -0.03317826 0.07805342 -0.029274367 -0.091099545 -0.026677676 0.14216168
-0.10740182 0.07813911 0.047339283 0.10880044 -0.02328889 -0.16521284 0.11610684 0.016230088
0.13383968 -0.0929973 -0.0773061 0.099112116 0.02528771 0.07657158 -0.037791606 -0.13221014
-0.06765662 -0.0008099074 0.12117748 -0.039906755 0.07735861 -0.14612904 0.032720298 -0.035780326
0.08815995 -0.041502964 -0.3164845 0.11393998 0.07842661 0.15483552 -0.19895022 -0.083037816
0.016011128 -0.0863602 -0.06127835 -0.09441486 -0.112032846 -0.034212444 0.10976352 -0.064838305
0.08698944 -0.18745929 0.089578696 -0.25760484 0.116981745 -0.03921154 0.042627327 0.16212758
0.08514188 -0.055097185 -0.09498819 -0.0050804215 0.13656013 -0.09726834 0.025909 0.11112225
0.02233617 0.12681119 -0.06322545 0.04610973 -0.16799311 0.12027471 0.21616824 0.1543905
0.20328455 0.030704994 0.16219515 -0.05096338 0.1522425 0.017573958 0.12004929 0.10118838
0.14577538 -0.011253848 -0.07266706 0.045212 -0.009078272 -0.07415865 0.08558278 -0.2559687
1.8775314e-05 -0.13879472 0.13231683 -0.095328435 -0.11681972 -0.12371989 -0.02278846 -0.0115357805
-0.039515425 -0.053254314 0.023434224 -0.07117517 -0.020656528 0.062881365 0.123849705 0.14327118
0.0136562325 0.053375456 0.2706949 0.16185795 0.03481648 0.12909096 0.037498694 0.08065995
0.0003076284 -0.015375146 -0.011089399 0.16042937 0.025612775 -0.11962388 0.04987267 0.10758029

layers.2.0.weight f4 [256, 128]
00000000: c6fb 523e 7970 733d 8843 343d b669 fe3d
00000010: 5431 c63d df6c 823f db4b a0be 5046 523d
00000020: ceb5 153b 22c7 f13c 2628 843d 7bc0 c2be
00000030: c5d5 39bd 5cfd b63e b27b 4ebd fc34 7dbc
00000040: eb51 bc3c 0c7b 4abd 84f6 e0bd e757 dcbd
00000050: 9dee 883e 819c 06bd d9f1 53bd 7961 3bbe
00000060: 5938 24be 51db 313e 239a 02be 5b9d 123e
00000070: bc7d d23c b939 083d 22ad 9f3d 36d0 86be
00000080: 7c0e c33b cae5 53be 61d7 193d c324 c9be
00000090: 0da8 13bc 6b69 7d3d 1737 05be 073a 95be
000000a0: 939d c83d 86ff 943e db02 17bf 0fc4 733c
000000b0: 07da 97bb 67a3 f8bc 1caf 5d3e 144e e83c
000000c0: 6e95 a8bd 9591 ef3d 487b a73d 6cf8 cfbe
000000d0: c3b0 0abd 953b 673d 8603 29bd 582f 0d3d
000000e0: 02d8 f83d 1af3 1d3e ac36 7d3e e7e8 e8be
000000f0: 0133 773e 942d 88be 1d37 37bc 28df f53d
00000100: 2905 4f3d 7473 61be d854 763d 6064 f13d
00000110: 740e d3bd e587 103d 1bf3 f5bd 7834 e0b8
00000120: 9b5d 593e 942e 9a3d 64ae 3dbe d235 213e
00000130: 913d 5dbe e808 04be e0cb bb3d 81c4 503e
00000140: 3aea 73bd 5f3b c73d db0d da3c d1e1 533c
00000150: aad5 62bb 5d8d 713d 58d5 abbd 8a04 0c3c
00000160: 765c 443e 4f6e b3bb 2ecc 823d 448d 123e
00000170: d217 823d 484b 27bd 5f39 013e 3e5b 133e
00000180: 4f4d f13b 4ed0 1bbe 877a 05be 1150 c43c
00000190: 2a3a aebd 4495 fbbd 28df 8b3e 98c4 2b3e
000001a0: 3d52 09bf d683 703e eee0 9bbe 0707 35bd
000001b0: acd3 86be 3167 8d3d 1a6f 43bd 0f3c eb3d
000001c0: 2a58 ba3d e950 46bd 1594 87bd c193 72bd
000001d0: 2db6 e63e eeaf 94bd c140 94be 32fe 6a3d
000001e0: f935 a23c d3f9 f93d 3926 963e d638 5d3e
000001f0: 3f78 133e dba9 d53d 35d9 69be 340c 1fbe
00000200: ac62 fd3d 7767 283d 6767 16bb 55f9 aa3d
00000210: 3a3a 18bd 349d 3e3f 6ebb afbc 5f51 7cbd
00000220: 8357 dc3d 2e72 22bd 99ce 5b3e 155c 573d
00000230: 860f 953d 2a0a 223e 9a39 99bd ce9f 093e
00000240: 7acc 88bd 967f 713d 374e 6dbd 206f d03d
00000250: f6ec 4ebe 4bdb f3bd 5cf8 c53d b200 843e
00000260: 72b3 8b3c 24d3 27bd ccbb 173e a880 28be
00000270: 979c cf3d 6620 d93c 11d5 85be 8662 a33e
00000280: 6b67 8cbd 3caf 8c3e c17d 3d3e 1465 2bbd
00000290: 5157 dfbd 9fc5 0abd aacc 0c3d f6da 703e
000002a0: ecd5 ec3d a5a8 df3d 0629 8e3f 76ed 533e
000002b0: b9bb 5c3b 5256 b73d 5781 863e a2db 3ebe
000002c0: 9b9d 89bd 457c fbbc c27b 2f3b d5e2 c8be
000002d0: 42c3 b1bd 2862 99bb 8cd4 f0bc e5ba 78be
000002e0: 1466 233e 6810 e83e b4eb 12be 3dc2 943d
000002f0: 5f7a edbd 250f 36bc 1155 e5bc c265 f3bc
00000300: 2278 67be a43a 943e 0139 a13c 706f f33d
00000310: 654a 3cbd f5eb 05be cbc4 053e 3b2d 2d3c
00000320: 1cd4 41be b26d cf3d 02ad edbd af52 f23d
00000330: 913e efbe 1ac3 89bd cabe a4be 53a8 753c
00000340: 1df9 57be ccbd 18bd 3119 913b ed14 07bd
00000350: 13bd a2bc fdca e1bc b115 60bd 1732 09bd
00000360: b2ff 02bd 5414 1d3e 7b1f 3ebd fb29 dcbd
00000370: 9748 8a3e 8074 73ba 4c6d 0cbd 6d45 37bc
00000380: 4b17 b73e 5017 643e 982e b93d 1cb0 b93c
00000390: 2100 9f3d c882 143e a3bd eebd 5c4d ecbd
000003a0: eb8c dc3e 2704 1b3e fedb 773d b81c 243d
000003b0: df93 01bc ca86 2dbd 1373 28bd e090 8cbe
000003c0: 750d 65be 59f6 4c3e 5339 33be 0380 ed3d
000003d0: 2e2b dc3d 4283 ba3d ac8b 22be e86a 0a3e
000003e0: 9ae0 803d d630 6a3d a4e3 103d 2019 213e
000003f0: 82a0 e1bd b920 973d d085 85bd f1dd f3bd
0.20603856 0.059433434 0.044009715 0.124225065 0.09677377 1.0189475 -0.31307873 0.051336586
0.002284396 0.0295139 0.0645297 -0.38037476 -0.045369882 0.35740173 -0.050410934 -0.015454527
0.02298828 -0.049433753 -0.10984519 -0.107589535 0.26744547 -0.032864098 -0.051744316 -0.18298902
-0.1603712 0.17368819 -0.12754111 0.14317839 0.02569472 0.033258174 0.07796694 -0.26330727
0.0059526544 -0.20693126 0.037558917 -0.3928586 -0.009012234 0.061868113 -0.13009296 -0.29145834
0.0979568 0.291012 -0.5898873 0.014878287 -0.004634145 -0.030351354 0.2164883 0.028357543
-0.082316265 0.116976894 0.08177811 -0.40619218 -0.03385998 0.056453306 -0.041263126 0.03446898
0.12150575 0.15424767 0.24727887 -0.4549019 0.2414055 -0.26597273 -0.011182574 0.12005454
0.05054203 -0.22016698 0.060139507 0.11786723 -0.10305491 0.03528585 -0.12009259 -0.000106909254
0.21227114 0.07528415 -0.18523556 0.15743187 -0.21605517 -0.12894022 0.091697454 0.2038746
-0.059549548 0.09728121 0.026617935 0.012932257 -0.0034612217 0.058972705 -0.083903015 0.008546004
0.19175896 -0.0054757963 0.063866004 0.14311701 0.063521996 -0.04084328 0.12619542 0.14390275
0.007363952 -0.1521618 -0.13035022 0.02396396 -0.08507188 -0.122843295 0.27318692 0.16774213
-0.5364111 0.23487791 -0.30445045 -0.044196155 -0.26333368 0.06904448 -0.047713377 0.11486065
0.09098847 -0.048417006 -0.06620041 -0.05922294 0.45060864 -0.072601184 -0.28955653 0.057371326
0.019801127 0.12205853 0.29326037 0.21603712 0.14401339 0.10432788 -0.22836764 -0.15531999
0.12372336 0.041114297 -0.0022949816 0.083483376 -0.037164904 0.7445862 -0.021451678 -0.06160104
0.10758879 -0.03965967 0.2146553 0.05257805 0.072783515 0.1582419 -0.0748169 0.13439867
-0.06679626 0.058959566 -0.05793592 0.101774454 -0.20207581 -0.11907061 0.096665114 0.2578178
0.01705334 -0.040972844 0.14817733 -0.16455328 0.10137289 0.026504707 -0.2613912 0.31911105
-0.06855663 0.27477443 0.18505003 -0.041844442 -0.10905326 -0.033879872 0.03437487 0.23521027
0.1156424 0.10920838 1.1106269 0.20696053 0.0033681227 0.08952011 0.26270553 -0.18638471
-0.06719514 -0.030698905 0.0026776646 -0.3923556 -0.086798206 -0.0046808906 -0.029398225 -0.24290045
0.15956908 0.45325017 -0.14347726 0.072636105 -0.11595606 -0.011112009 -0.027994664 -0.029711608
-0.22604421 0.2895099 0.019680502 0.118864894 -0.045969386 -0.13078292 0.13063352 0.010569866
-0.1892857 0.101283446 -0.11605264 0.11832177 -0.46727422 -0.06726666 -0.3217681 0.014993745
-0.21091123 -0.03729038 0.004428052 -0.03297894 -0.019865548 -0.027562613 -0.054708187 -0.033495035
-0.03198213 0.15339786 -0.04641674 -0.10750195 0.27008507 -0.0009287074 -0.03428392 -0.011185986
0.3575996 0.22274518 0.0904209 0.022666983 0.077636965 0.14503014 -0.11657264 -0.11538193
0.43076262 0.15138303 0.060512535 0.04006645 -0.00790879 -0.042364873 -0.04112537 -0.2745428
-0.22368415 0.20015849 -0.17502336 0.11596682 0.10750423 0.09107067 -0.15873593 0.13517344
0.06292839 0.05717548 0.035373345 0.1573224 -0.110169426 0.07379288 -0.06519663 -0.11907566

layers.2.0.bias f4 [256]
00000000: c984 62bd fd94 babc 9b9f e93c 4b98 153d
00000010: a2f3 adbd c2a2 343e 3c39 1e3d 1815 553d
00000020: 5664 59bc 678e b8bd 0660 2f3d 791a 8d3b
00000030: 1afa d7bd df63 80be 0bf6 8bbc 5d06 22be
00000040: 4e95 953d 9f09 983d ad98 cb3d be33 c5bd
00000050: 6a33 423d 908e 1fbd 35fa b03d 4818 223d
00000060: 9e55 ccbc f6ad 1a3d c96a 6f3d 8ca6 933d
00000070: 44f1 a2b9 7d33 9cbc c602 b1bd 13b9 f7bb
00000080: 2ece 33be 82f3 883d 9357 6fbc c778 e5bc
00000090: 9379 c23c 0efd e63d f8d8 813d 2b7d 92bd
000000a0: e956 fa3c c9c5 4fbd ada4 94bd 6bee b13d
000000b0: 92a3 fe3c f4bd 2e3d 7374 d8bb 7306 693d
000000c0: 9b39 5e3e ac7b 093e b99c f53c 15fb 5fbd
000000d0: c598 f33d 2bb6 3abe 532e 5fbc 85ea 323e
000000e0: 2c11 7d3d 1aca 1f3d ce46 493e d077 cabc
000000f0: 34e0 55be 47f6 c03d c6d8 8b3d b408 883c
00000100: 6232 403d f2d3 20be 0a7a debd aa3a 783d
00000110: f5fc 98bc f92d fbbd 191c 433d 4579 61bd
00000120: 5674 aebd 90bc 9a3d 8891 97bd 4183 573d
00000130: 6235 c5bd 2f75 c13b 0c72 a83c e915 62bc
00000140: 38aa ddbc 9e14 3b3b df03 863c f923 10bd
00000150: 1683 03be ba9e 06bd b7da aa3d 437c 4fbc
00000160: 39a8 ea3b bf6f a1bb 999b 1ebe 1efc 853c
00000170: f3d8 50bc 14b2 f4bd 8425 033c 4809 783d
00000180: cd2c 8abd 0a06 3fbe 1605 e73d 760b 703d
00000190: 090d 9dbd 50e0 673d 2516 7a3d 19ca b23d
000001a0: 9b77 0abe 9ea6 67bd 8605 3ebd 1414 90bd
000001b0: bd1a 0e3e 15f9 acbd fc5b 0e3e 31ac 813c
000001c0: b5ba c63d f74d c93b a6a5 01be 32e1 b8bd
000001d0: 2386 83bd 261e 07be ee72 b0bc 8606 5e3c
000001e0: 052c 1bbd 9072 f43d f44d e93b f809 e03c
000001f0: bb9b 9f3d 6efa 08be c219 583c 159a 213e
00000200: 8058 85bd 7784 9e3d 1e84 f63d 69b1 ae3d
00000210: 81c4 653d 005a 9d3d 0595 babd a68f 41bd
00000220: 772a e73d 0581 9dbd 956c 09be 12b7 303d
00000230: 61e2 f4bb 9674 193d 3797 25be 945e 673d
00000240: 1f1d d83d f695 c03d 769a 023e 2721 523d
00000250: 8827 943d cd99 3a3b 1e40 8ebb 0c8a fe3c
00000260: 2956 3b3d 6cae 2d3e 79b2 9b3d b49b bb3b
00000270: f99f 37bd 1145 adbb d311 973d ed84 fdbc
00000280: c581 893d cbee a7bd 0ffd bcbc 3af6 1ebd
00000290: d5fc 8a3d bf02 d2bd bac4 cd3d 1f2c 7cbe
000002a0: 3726 133e 95b8 ea3d 5bcd 89bc 7f73 5fbe
000002b0: 8d15 9cbd e0f3 e13d 6aaa 3d3e ed16 5d3d
000002c0: f251 3a3d 5ad3 033e 63e5 e33c 5978 043e
000002d0: f9be e63c 6f66 37bd 8f36 1f3c fe95 b7bd
000002e0: fcfd 2c3e e905 ae3d 0af1 acbd 7168 523c
000002f0: 4714 383e d6da f93c 5c55 cabd 68b9 13be
00000300: bd3c 9ebd 5e88 47bd 61bd f93c 2f0b 10be
00000310: 75ba a2bd c030 013e 4abc 573d a244 123d
00000320: 2775 9f3c 8fe8 22bd 6e95 f7bc 8ff4 82be
00000330: e00c 263e 4359 083e aa92 a4bd c09c 8bbc
00000340: 1516 89bd 263b 8839 9660 d5bc 5ca3 f33d
00000350: f669 8dbb af34 47bd 0134 3d3e cb4e 603d
00000360: e780 1ebd 69e8 843b 1d0c cb3d 7f4c b43d
00000370: f556 e63d cff2 3b3c 1430 023d f01b 6b3c
00000380: 5691 323d 2c0b a1bd 9100 eabd b254 f33d
00000390: a2b7 40bd 3882 52be e0c2 eb3c fa4c d9bc
000003a0: 80dc 5c3d 8356 87bd efdb 8cbd 728e 81bd
000003b0: 1c82 e73d c407 a03d 1a1b a3bd 29e5 04be
000003c0: 8809 49be cbff 48bc 8751 eabc 8219 e4bd
000003d0: 1fed 933c 14ad 40bd 1c01 043e a2a2 403d
000003e0: 009a d3bc 95c2 213e 9bf5 b2bc 5e78 e23d
000003f0: 3ddc d4ba 521b 013e 430e e73d aa8e 113e
-0.055302415 -0.022776121 0.028518489 0.03652219 -0.08493735 0.17640212 0.0386288 0.05202207
-0.013268551 -0.09011536 0.042816184 0.0043061343 -0.1054575 -0.25076196 -0.017085096 -0.1582274
0.07303868 0.0742371 0.0994123 -0.0962901 0.047412314 -0.038954318 0.08641473 0.039573938
-0.02494317 0.03776356 0.058451448 0.07209501 -0.00031078805 -0.01906752 -0.08643107 -0.0075599044
-0.1755912 0.066870704 -0.014608282 -0.028011693 0.023739612 0.11278735 0.06340212 -0.0715278
0.03055902 -0.050725732 -0.07257972 0.08688053 0.031083856 0.042661622 -0.0066056787 0.056890916
0.21701662 0.13426083 0.029981958 -0.05468281 0.11894373 -0.18233554 -0.013621884 0.17472275
0.061783955 0.0390111 0.19655916 -0.024715334 -0.20886308 0.09421974 0.068284556 0.016605712
0.04692305 -0.1570585 -0.10863121 0.06060282 -0.018675307 -0.12264628 0.047634218 -0.055047292
-0.08518283 0.07555497 -0.07400805 0.052615408 -0.096293226 0.005903862 0.020562194 -0.013799169
-0.027058706 0.0028546224 0.016359268 -0.035190556 -0.12842974 -0.032866217 0.08342498 -0.012663904
0.007161167 -0.0049266513 -0.15489043 0.01635557 -0.012747037 -0.11948028 0.00800455 0.060555726
-0.06746826 -0.18654647 0.11280267 0.05860468 -0.07668502 0.056610405 0.061056275 0.08729953
-0.13522188 -0.056555383 -0.046391986 -0.070350796 0.13877387 -0.08445946 0.13902277 0.015829178
0.0970358 0.0061433273 -0.12660846 -0.090273276 -0.06422069 -0.13195094 -0.021539178 0.01355136
-0.037883777 0.119359136 0.0071198884 0.027348503 0.07793375 -0.13376781 0.013189735 0.15781434
-0.06511021 0.077401094 0.12036918 0.08529932 0.056095604 0.07683182 -0.091104545 -0.047256134
0.112873964 -0.07690624 -0.13420327 0.04314334 -0.0074732755 0.0374647 -0.16170965 0.05648668
0.105524294 0.09403603 0.12754235 0.051301148 0.072341025 0.002847302 -0.0043411395 0.031071685
0.045736466 0.16961068 0.076024 0.0057253484 -0.044830296 -0.0052877744 0.073764466 -0.030947173
0.06714205 -0.08199843 -0.023069886 -0.03880904 0.06786505 -0.1025443 0.10047288 -0.24626206
0.14370047 0.114609875 -0.016821554 -0.21821402 -0.07621298 0.110328436 0.18522039 0.05397694
0.045488305 0.12873593 0.027819341 0.12936534 0.028167235 -0.044775423 0.009717598 -0.089641556
0.16893762 0.08497221 -0.08444412 0.012842284 0.17976485 0.030499857 -0.09879562 -0.14426196
-0.07726429 -0.048714034 0.03048581 -0.14066766 -0.0794572 0.12616253 0.0526698 0.035709985
0.019465042 -0.039772566 -0.03022262 -0.25577208 0.16215849 0.133153 -0.080357864 -0.017042518
-0.06693665 0.0002598401 -0.026047032 0.11896393 -0.00431561 -0.048634227 0.18476869 0.054762643
-0.03869715 0.0040560258 0.0991442 0.08803653 0.112470545 0.011471464 0.031784132 0.014349923
0.043595634 -0.07863459 -0.11425889 0.11881389 -0.047050126 -0.20557487 0.028779447 -0.026525963
0.053921223 -0.06608298 -0.068778865 -0.063259974 0.11304113 0.07813981 -0.079641536 -0.12978043
-0.19632542 -0.012268017 -0.028603328 -0.11137678 0.018057404 -0.04704006 0.12891048 0.0470301
-0.025830269 0.15796883 -0.02184563 0.110581145 -0.0016239953 0.12608078 0.11282017 0.14214578

layers.3.0.weight f4 [128, 256]
00000000: 2c99 c4bc fe71 b7bc 5a7a f63b 0f02 89bd
00000010: fa12 6b3c 9a83 90bd d9a6 77bd af2c 093d
00000020: c9cd 1f3d be64 2fbd 8060 293d 918c 54bc
00000030: a329 493d fe8f 25bd 56e9 56bd 749b cdbc
00000040: 64cc 95bc 977a 943c f940 32bd 5035 553c
00000050: 043c 883c 6ce7 84bd 006a 0ebc 5f0f 29bd
00000060: 8f12 3ebd 1f51 88bd a2b6 ef3b e482 b13c
00000070: c7de 9e3c 8a7e 18bd 8136 0b3d 4c2c 9dbd
00000080: d03b 113d 1176 143d 68d7 983a 57f7 de3c
00000090: b3a9 0abd 4d39 b7bb 0184 1f3d 84cb 7bbd
000000a0: 48a5 78bd 9b22 1abd 789b d3bc 848a e2bb
000000b0: fdcc 8abd de42 5a3d b52a f63c 4173 91bc
000000c0: 69f7 383d 8c1a 803c 001d f93c 59c1 d3bc
000000d0: 7145 b53c 9a6c 63bd e1bc 77bd f5e7 9fbc
000000e0: d81f e0bc cd45 273d 1587 69bd 988c b9bb
000000f0: a575 f5bc 85ec 93bd 6833 973c fdae 2dbc
00000100: 5a72 b83c 4c16 8ebd 14fb 71bd 8ed6 35bd
00000110: 902e a73c bbd8 8dbb 22a1 00bd 9cef 203d
00000120: a126 0fbc bd08 e63c d460 f23a 59c7 a4bc
00000130: dec2 c73c a597 53bd 944d 61bd 1de7 5cbd
00000140: d1aa 5dbb cc48 edbc ead6 4cbd ffdb 6b3c
00000150: 2403 6dbd 8c4b 3e3d 713c 1f3d 4c44 063d
00000160: 2742 043d da41 72bd 627b 483d bd3a 73bc
00000170: f6a2 6a3d 8147 e6bc 46f9 26bc cd9a 85bc
00000180: ec0b eebc c36e 4bbd 0ec2 323d 7567 36bd
00000190: 02c1 043d 0e21 65bd da39 c3bc 5894 32bd
000001a0: 616d 0cbc 9847 3a3d e633 72bd 36ca 393d
000001b0: b63f f4bb f9dc a63c 4fe2 f7bc 1ec8 6abd
000001c0: 03a2 e9bc 6f5c 7bbd 66b4 ea3c d6af 86bc
000001d0: c8d1 11bd 939a e7ba c199 11bc a2cd 45bc
000001e0: b30a bdbc 336e 013d dd50 3ebd 21a7 85bd
000001f0: 4906 3d3d 97a6 853c 020b d2bc 6cdb e93c
00000200: 694a 213d c759 42bc 8f5d 90bd 6b6c 07bd
00000210: e4bb 033d 8fcb f63c 53fd 12bd 2615 93bd
00000220: de00 f03c 6bfa 343d c1c1 e23c db2f dc3b
00000230: 4a80 00bd dd30 0a3d 267e 78bd 5b95 58bd
00000240: 2a27 223d 2024 14bd 6092 633c 778c 92bd
00000250: 19d9 313d 9755 373d ac88 e23c 4217 ca3b
00000260: 9689 5ebd 38f2 8ebd 9d77 cf3c 420c 8ebc
00000270: 4719 393d 1afe ee3c d6d1 4dbd 4443 02bc
00000280: 82f7 893c 0a50 253d 4064 5c3c 459f 183d
00000290: b642 f83c 6d09 a6bc 5c07 333d caac 57bd
000002a0: 3f7b 8bbd dab2 d9bc 7894 bfbc 8492 243c
000002b0: ed02 0fbd 1c80 83bd c57c 333d 3b9f 213d
000002c0: b913 8abd c0c6 d43c 816f 0d3b 8bfb 1c3c
000002d0: f6a9 a8bb 87d1 283d 7a83 b6bb 3173 42bc
000002e0: 0337 2fbd e256 b1bc 3a09 b93c f122 90bd
000002f0: 1bd4 92bd d929 08bb 880b 9e3c 80aa ddbc
00000300: 6446 3f3d 2682 7b3c 55e5 063c f8f1 45bd
00000310: 36d0 173d f6ed 7bbd 3210 ce3b dd03 0e3d
00000320: d24d c5bc a3f2 c2bc fb42 c13c 57cf 403c
00000330: 616d 303d 2411 8ebd 7fa1 27bc 960d 703d
00000340: b214 f53b 592c 92bd c989 88bd aa1b 90bc
00000350: 4c1f 87bd 2bea 9cbd 762e dbbc 6a8a a33b
00000360: fde7 bdba 13f2 4c3d f074 c3bb c658 64bd
00000370: 74ad 273d bca3 7cbd 194d d4bc 6aad b5bc
00000380: 9924 273c fc1b 8cbd ce4b 003b a4d5 2b3d
00000390: 53f4 b6bb 9e43 4ebd 914a 5a3b 60e0 33bb
000003a0: eb7d e4ba 9135 04bc 44f5 d6bc 5e56 7abd
000003b0: 0ba7 5fbc 6044 113c 667e c53b 505b 93bc
000003c0: 7560 48bc 4596 6ebc e49f fb3b 8a59 b93c
000003d0: 9e4c f63a 8678 3dbd 508f a73c 12cc 95bd
000003e0: f4d8 123d 9638 3c3d 96cd c03c 0eed 8fbc
000003f0: c360 133c 57ea 0ebd eccf ab3b bf17 8cbb
-0.02399882 -0.022393223 0.0075219097 -0.06689846 0.014347786 -0.07056351 -0.060461853 0.03348988
0.03901461 -0.042820685 0.041351795 -0.012972967 0.049111973 -0.040420525 -0.05246862 -0.02509854
-0.018285938 0.018124862 -0.043518994 0.013013199 0.01663018 -0.06489453 -0.008692265 -0.041274425
-0.046404418 -0.066560976 0.0073154727 0.021668859 0.019393338 -0.037230052 0.033987526 -0.076744646
0.035457432 0.03624541 0.0011660876 0.02721755 -0.033853244 -0.0055915476 0.038944248 -0.061473384
-0.0607045 -0.03763066 -0.02583097 -0.006913485 -0.0677738 0.053286426 0.030049661 -0.017755153
0.045157824 0.015637659 0.030409336 -0.025849031 0.022127839 -0.055523492 -0.060482863 -0.019519785
-0.027358934 0.04083805 -0.05701359 -0.005662512 -0.029963324 -0.07222847 0.01845713 -0.0106008025
0.022515465 -0.069378465 -0.059077337 -0.04439407 0.020407945 -0.004328815 -0.03140367 0.03929101
-0.008737237 0.028080339 0.0018491992 -0.020114588 0.024384912 -0.05165829 -0.055005625 -0.053931344
-0.0033823738 -0.028965376 -0.050009646 0.014395713 -0.057864323 0.046458766 0.038876 0.032779977
0.03228965 -0.059144832 0.048945792 -0.014845547 0.057284318 -0.028110268 -0.010191267 -0.016309166
-0.02905842 -0.049666177 0.043642096 -0.044532258 0.03241063 -0.055939727 -0.023831297 -0.043598503
-0.008571 0.045478433 -0.059131525 0.04535886 -0.007453884 0.02036904 -0.03025928 -0.057319753
-0.028519636 -0.06136745 0.028650474 -0.016441267 -0.035600454 -0.0017669968 -0.008886755 -0.012072952
-0.02307639 0.031599235 -0.046463836 -0.06526018 0.046148572 0.016314788 -0.025640015 0.028547011
0.039377604 -0.011862225 -0.07049095 -0.03306238 0.03216161 0.030126361 -0.03588612 -0.07181768
0.029297289 0.04418413 0.02768028 0.006719572 -0.031372346 0.033738006 -0.06066718 -0.05287681
0.03958813 -0.036167264 0.013889879 -0.07155698 0.04341993 0.04475936 0.02765306 0.0061673233
-0.05433043 -0.06979793 0.02532559 -0.01733983 0.045190122 0.0291739 -0.050248943 -0.007950608
0.016841654 0.040359534 0.013451636 0.037261266 0.030305248 -0.020268166 0.04370819 -0.05265502
-0.06810617 -0.02657454 -0.023386225 0.010044698 -0.0349149 -0.06420919 0.04382016 0.039458495
-0.06742043 0.025973678 0.0021581354 0.009581457 -0.005147214 0.041215446 -0.0055698724 -0.011868284
-0.042777073 -0.021647874 0.022587407 -0.070379145 -0.07169362 -0.0020776896 0.019292608 -0.02705884
0.04669799 0.015350854 0.008233388 -0.048326463 0.0370638 -0.061506234 0.0062885517 0.034671653
-0.02408496 -0.023797339 0.02359151 0.011768184 0.04307306 -0.06936863 -0.010231375 0.058606707
0.0074792737 -0.07137365 -0.066669054 -0.017591316 -0.06597766 -0.076618515 -0.026755553 0.0049908655
-0.0014488694 0.050035547 -0.005964868 -0.055748723 0.040936902 -0.061679587 -0.02591567 -0.022177417
0.010201597 -0.06841275 0.0019576433 0.04195179 -0.005583325 -0.050357454 0.0033308605 -0.002744697
-0.0017432546 -0.008069412 -0.026239999 -0.061117522 -0.013650666 0.0088663995 0.0060270308 -0.017987877
-0.012230028 -0.014562194 0.0076789726 0.022625703 0.0018791144 -0.04625752 0.020454079 -0.07314314
0.035851434 0.045952402 0.023535531 -0.017569091 0.008995238 -0.034891453 0.005243292 -0.0042752917

layers.3.0.bias f4 [128]
00000000: eb2b 61bb 0776 7fbd fb01 7c3c 4204 653c
00000010: 7019 743c b9ce e2bd b0f6 cfbc 9c0b 3cb8
00000020: 7521 82b9 c254 ccbd 2245 c83b 9a86 bdbc
00000030: a6fa 803d 7f4d 0f3d 09c6 49bd 69ee 89bd
00000040: 64c5 ae3d f928 34bd 89d2 493d 7dd0 42bd
00000050: 4d53 003e eed1 7f3c 1329 54bd 2df2 e2bc
00000060: 1ff2 8d3c 559d 3dbc bfff 42bc 340c e9ba
00000070: 9b9d 4e3c df5b 363d a924 95bc ee01 05bc
00000080: 2ece 683d a26c 973d 98f2 023e 5d78 333e
00000090: 6261 563b 3a43 26bd 9753 1c3d 6101 5a3d
000000a0: 3888 a63d 166c a9bc bd4c 213d 8077 343d
000000b0: 712b b33d 15c2 2e3d 8594 5b3d 11f8 aa3b
000000c0: d4d1 9d3d 2e9a d83b 4acb 8e3d 4b61 60bd
000000d0: cad8 8b3d cb3a e83c 6162 3dbd 3682 a83c
000000e0: 75bf c4bc 5804 df3d b643 953d 33ea 3bbd
000000f0: 199f a73b 5d74 99bd e35b 97bd 7591 bdbc
00000100: e006 413d 13ba aebd a9c0 17be f135 73bc
00000110: a2f1 a2bd 6156 793d 2a44 1bbd 804c 48bb
00000120: cbe8 1fbd a486 1e3d 18b6 743c 5382 b93c
00000130: b563 f73d aad4 6d3c 9c81 373e f241 ad3d
00000140: d396 cdbd 1638 f33b 6a57 e4bd 44db f8bb
00000150: 9443 4d3c d183 0bbc 0b73 a43d 1b10 92bd
00000160: 6799 42bd 42e3 00bd e518 68bd 71cc 5c3e
00000170: aad6 ec3c 4cf5 31bc c98a 31bc a0f1 abbd
00000180: ce2f 923d 6aa6 843d 4836 0f3c 5ad4 9cbd
00000190: 164f d2bb c34d 23bd 18bb 07bd 747c 1a3d
000001a0: cd95 863d 8127 18bd bbf7 d63c 9982 46bd
000001b0: bc23 f9bd 9b2d 483e d2b4 a8bd fd25 c03c
000001c0: 6554 84bc 1c5a 30bd 5c0f c23d 14b2 30bc
000001d0: 7e77 d6bc 83e4 85bd 39fe 063d 94b9 65bd
000001e0: 738b 76bd 801d b73d 17f8 91bd 48a0 d43c
000001f0: e6f4 cb3c c312 49bc 7838 50bd 9c22 36bc
-0.0034358453 -0.06236842 0.015381332 0.013978066 0.014898643 -0.110745855 -0.025386184 -4.4833505e-05
-0.0002482046 -0.09977104 0.006111757 -0.023135472 0.062978074 0.034986015 -0.049261127 -0.06734926
0.08533743 -0.043984387 0.049273048 -0.04756211 0.12531777 0.015614016 -0.051796984 -0.027703369
0.017327366 -0.011573155 -0.011901795 -0.0017780126 0.012610818 0.04452121 -0.018205957 -0.008118136
0.056837253 0.07393767 0.12787855 0.17526384 0.0032711853 -0.040591456 0.038165655 0.05322397
0.081314504 -0.020681422 0.039379824 0.044059277 0.0874852 0.04266556 0.053608436 0.00521756
0.07706037 0.0066101765 0.06972368 -0.054780286 0.068284586 0.028348347 -0.0462364 0.020569902
-0.024017075 0.108895004 0.072883055 -0.045877647 0.0051154015 -0.07492898 -0.07390573 -0.023140648
0.047125697 -0.085315846 -0.14819588 -0.014844404 -0.07956244 0.060873393 -0.037906803 -0.0030563176
-0.039040368 0.038702622 0.014935993 0.022645151 0.120795645 0.014516035 0.17920536 0.08459844
-0.10038533 0.0074224574 -0.111494854 -0.007594498 0.012528319 -0.008515314 0.08029755 -0.07131978
-0.047509577 -0.03146673 -0.056664366 0.21562363 0.028910954 -0.010861706 -0.010836312 -0.08395696
0.07138024 0.064770535 0.008740969 -0.0765769 -0.006418119 -0.03986908 -0.03313741 0.037716344
0.06571541 -0.03714705 0.026241174 -0.04846439 -0.12165019 0.19548647 -0.08237614 0.023455614
-0.016153524 -0.043054685 0.09475586 -0.010784645 -0.026180025 -0.06537726 0.03295729 -0.056085184
-0.060191583 0.089411736 -0.071273975 0.025955334 0.02489705 -0.01227254 -0.050835103 -0.01111665

layers.4.0.weight f4 [64, 128]
00000000: b683 603d 4561 a5bd a64c babe eca6 083e
00000010: 61a5 db3d bbac 08bd 7bf2 25be 6ecb ffbd
00000020: 50c7 543c 62f0 a93d a732 093d 9dca 49bd
00000030: 68ae 073d 828a efbd f1b3 c8bc 19c7 37bf
00000040: 2e76 eb3d cff3 823d ac53 4a3d 62a0 fa3d
00000050: 8b43 8b3d 5dd2 343e 6b71 fabd 361f 50be
00000060: c02c 87be a9ca 2bbd a8be 6dbc f2d3 2cbf
00000070: a09c f33c 7df4 d6b9 2ca3 f7bc d9ae 8abc
00000080: b86a c8bd e428 853d 2064 33be 0494 d6bd
00000090: 80ec 29bb b116 87be 09ee a6bd dd91 f9bc
000000a0: 3e17 ad3c 6f20 b8bb e589 58be d06c 343e
000000b0: 6788 f83d 828f d23c f492 2abc a6f6 d0bd
000000c0: 37e0 d33c 2408 30be db13 da3d 60be 153b
000000d0: 2aa1 b13d 3c6f a93c bcee c2bc be22 083e
000000e0: ea4d fe3c 2b89 aa3c 90ab da3d 4686 f33d
000000f0: 2fe0 af3e 68e5 983c 5675 423d 58d4 8f3e
00000100: 578c 46be 6fa9 0c3f 13dc e9bd a3b0 30bd
00000110: aa15 67bc bc87 1dbe f97e 12be 77ce 9b3d
00000120: afb8 44bc 1a23 19be a495 76bd aeca 59bd
00000130: 082a e63d a026 ebbc 4287 ad3b 1fe8 403e
00000140: ee2d f13d fcc4 113d 48f0 533d a004 29bd
00000150: a6ee a13b 737e c03d cbf5 c63d 796a 1e3e
00000160: c876 033e ed8e 953d 8a9c 42be 3f49 5ebd
00000170: 7dfd b0be f16d eebd 1fd2 46bd 0a23 89bd
00000180: 9340 80be f071 eb3c 5a4e bbbc 8005 463b
00000190: 892c 8bbd e418 86bc cdd4 eebc c6af 323e
000001a0: 61d9 023e 2957 1ebc 4047 95bd 2921 ad3d
000001b0: 21c8 dbbc 0492 e43d 8a1d 56bd 4203 f9bd
000001c0: 51a0 f6bd 438e d03e 3bf1 8c3d bc65 24bb
000001d0: e9b8 87bd 1874 883e 7544 413d 88f9 80bc
000001e0: 8efe 603d 3b06 4abe 21a0 b0bd 2446 99bd
000001f0: 95df 02be 038d 983d 6c6f 7dbd 93d3 0d3e
00000200: 72af 81bd c2e3 28bd 421b 18bd 631e 5cbd
00000210: 6b07 8fbd 88d5 22bd 596c 4fbd 3283 43bc
00000220: bbc4 0ebd 4467 673d 4261 8cbd f8aa 19bd
00000230: a5ab c7bd bbba 863d 2608 983d 302e 8fbd
00000240: 23bf 08bd 45a5 963d b762 663d 1ce0 e7bc
00000250: cc74 5ebd 7988 513d 405c 593d f625 7d3d
00000260: 945e 00bd 874b 8e3d b26d 77bc b1c7 2bbd
00000270: 3ceb 3ebd 5e00 b4bd c084 48bb bb39 ac3d
00000280: 7cbb b0bb 11e9 d9bd 13dd fbbb 7482 2e3d
00000290: 7d6e dfbc 40c0 b5bd 4193 e43c 2c71 373d
000002a0: 666c 61bb 6481 4ebd c727 20bd 00f3 07bd
000002b0: 7541 b8bd 4cbd 713d dec3 2cbd 9f76 e33c
000002c0: 231b 9c3c 0f57 ed3c 3726 8bbd f808 2b3c
000002d0: d681 e43b df06 f23c 9efe 633d 0def b2bd
000002e0: b3ac 13bd 5f06 f1bc f4f5 163d 1d54 19bb
000002f0: f994 38bd 2876 4b3c 939b dd3a c63a 263d
00000300: a49c 92bb a558 833d 271b ab3d 24f2 a139
00000310: 1156 d2bd dee2 263d 013e 90bd ab9e 88bd
00000320: 96dc 8cbc 3d8e 8abd 521f 5ebd 49f2 b6bd
00000330: 8ec3 763d edeb 0bbd cc7b 2dbd 9412 94bd
00000340: dd63 a13d 290f 7e3d 5b6e 4a3d f4f7 083d
00000350: 15b0 4bbd a969 c93c 666f e03c e056 62bd
00000360: f056 d0bc 0fa1 64bc 5a37 8b3d ade5 153d
00000370: 9401 0f3d 5cbe a0bd cee8 133d 7af6 84bd
00000380: f408 3abc 67fd d5bd 3faf 90bd 83e7 aa3d
00000390: 5738 fc3c b9d3 833d 0d5c 85bd 2f9f 31bd
000003a0: 4d47 c8bd 52c5 6b3d 97b8 8a3d c2b9 63bd
000003b0: 0ef1 5a3d 050a b1bd 6c38 b6bc 21d1 b73c
000003c0: a3de babc 5524 183d 836f c0bd 3011 603c
000003d0: cf51 fe3c d83e 2c3d 9b3e edbc e72a 98bb
000003e0: 8cce a1bd 73fc b9bd a3d9 8b3d d7e9 6f3d
000003f0: 0a8e d4bd dd7c 97bb aebb 093d d75b ec3c
0.05481311 -0.08075193 -0.36386603 0.13344926 0.10724903 -0.033367854 -0.1620578 -0.12489973
0.012986973 0.082978025 0.03349557 -0.049265493 0.03312531 -0.1169634 -0.024499865 -0.71788174
0.1149715 0.06394159 0.049396202 0.12237622 0.06799992 0.17658372 -0.12228664 -0.20324406
-0.2640133 -0.04194132 -0.014510788 -0.675109 0.02973777 -0.0004099942 -0.030229174 -0.016929077
-0.0978598 0.0650194 -0.17518663 -0.104774505 -0.0025928319 -0.263845 -0.0815087 -0.03046506
0.021129247 -0.0056191008 -0.21146353 0.17619634 0.12135392 0.025703195 -0.010411013 -0.102032945
0.02586375 -0.17190605 0.106483184 0.0022849068 0.08673318 0.020682923 -0.023795478 0.13294503
0.031043012 0.02081736 0.10677254 0.11890845 0.34350726 0.018664077 0.04747518 0.28091693
-0.19389473 0.54946035 -0.11418929 -0.043137204 -0.014104286 -0.1538381 -0.14306249 0.076077394
-0.012006923 -0.14954796 -0.060201302 -0.053171806 0.112384856 -0.028704941 0.005295665 0.18838547
0.117763385 0.03558825 0.051742822 -0.041264176 0.004941779 0.09399118 0.0971485 0.15470304
0.1283828 0.073026516 -0.19005027 -0.05426907 -0.34568396 -0.116420634 -0.04854023 -0.06696136
-0.25049266 0.028740853 -0.02286451 0.003021568 -0.06795604 -0.01636929 -0.029154206 0.17449865
0.12778236 -0.009664335 -0.072889805 0.084535904 -0.026828827 0.11160663 -0.052274264 -0.121588245
-0.12042297 0.40733537 0.068819486 -0.0025085052 -0.06627066 0.26651073 0.047184426 -0.015743986
0.054930262 -0.19728939 -0.08624292 -0.074840814 -0.12780602 0.07448771 -0.06187384 0.1385024
-0.06332292 -0.04123283 -0.03713537 -0.053739917 -0.06983837 -0.03975442 -0.050640438 -0.011933135
-0.034855586 0.056494966 -0.06854488 -0.037516564 -0.097495355 0.06578585 0.07423429 -0.069912314
-0.033385407 0.073557414 0.056246486 -0.028305106 -0.054310605 0.05115554 0.053066492 0.06180378
-0.031340197 0.069479994 -0.015101837 -0.041938487 -0.046611056 -0.087891325 -0.0030596703 0.08409449
-0.0053934436 -0.10640157 -0.007686266 0.04260488 -0.027274365 -0.088745594 0.027902247 0.044785663
-0.0034396886 -0.050416365 -0.039100435 -0.033190727 -0.0899686 0.05901842 -0.04217898 0.027766524
0.019055909 0.028972177 -0.06794398 0.01043915 0.0069734855 0.029544292 0.055662744 -0.087370016
-0.03605337 -0.029421983 0.036855653 -0.0023396083 -0.045063946 0.012418307 0.0016907327 0.040583394
-0.0044742394 0.06413392 0.08354788 0.00030888722 -0.10270322 0.0407437 -0.07043076 -0.066708885
-0.017195027 -0.06765411 -0.054229088 -0.08932931 0.06024509 -0.034160543 -0.04235439 -0.07230106
0.078803755 0.062026177 0.04942165 0.03343959 -0.04972847 0.024586516 0.027396869 -0.05525863
-0.02543208 -0.013954415 0.06797667 0.03659599 0.034913614 -0.07848808 0.03611069 -0.06492324
-0.011354674 -0.10448723 -0.070646755 0.083449386 0.030788584 0.06436867 -0.06511698 -0.0433647
-0.097792245 0.057561226 0.06773489 -0.055597074 0.053452544 -0.08644489 -0.0222437 0.022438588
-0.02281124 0.037144024 -0.09396269 0.013675973 0.031044869 0.04205212 -0.028960517 -0.0046437862
-0.07900724 -0.09081354 0.0682862 0.058572616 -0.10378654 -0.004623039 0.03362625 0.028852386

layers.4.0.bias f4 [64]
00000000: 8126 58bd 56a8 7a3d d631 033e 3130 cebc
00000010: 2eb8 b2bc 1ee8 963d 80f7 03be e2d7 2f3e
00000020: e9fd 4ebd 2f20 19bd 3b30 8b3c 908e aebd
00000030: 50cd f23c 508b a53d fb89 ad3d 433c 63bd
00000040: cc13 573d 78bb adbc 50cb 1d3e cf9c a53d
00000050: a57b ea3d 0820 99bd 17e6 f73d ada8 f43c
00000060: 39d7 c33d 3c7c b6bd 3495 16bd 8b02 0ebc
00000070: da7b 07be b2b1 fa3c 580d db3d 8a32 b9bd
00000080: b13f 123e 18f3 b6bd 53e9 d4bc 3f95 99bd
00000090: 2ba9 4a3d 6024 403e adbd 37be 94a4 a93c
000000a0: ea04 2f3d ee23 a73d 8f30 2f3e eb56 c13c
000000b0: 602e 38bd edb3 1f3c 0f15 d43d 64a3 78bd
000000c0: 1125 1fbe 32e7 c0bd 3ea3 273d 7b73 1fbd
000000d0: ab91 473d 25f3 a43c f158 d33c 9d54 6fbd
000000e0: 0ba3 a73d 4230 b13c 2c90 01ba c11a a23d
000000f0: 0701 7b3d 50a5 ba3c 6ca5 ca3c 07cc d53d
-0.052771095 0.061195694 0.1281198 -0.025169464 -0.02181634 0.073684916 -0.12887383 0.17172197
-0.050535116 -0.03738421 0.016990772 -0.085232854 0.029638916 0.080832124 0.08473583 -0.055477392
0.052509114 -0.021207556 0.15409589 0.080865495 0.114493646 -0.074768126 0.12104433 0.029865587
0.09562535 -0.089104146 -0.036763385 -0.0086675985 -0.1323084 0.03060231 0.106959045 -0.09042843
0.14282109 -0.08933085 -0.025990164 -0.074991696 0.049477737 0.18763876 -0.1794345 0.02070836
0.042729296 0.0816115 0.17108367 0.023601016 -0.0449661 0.0097474875 0.10355579 -0.060702696
-0.15541483 -0.09419097 0.040927164 -0.03892849 0.048722904 0.020135472 0.025799247 -0.058430303
0.08185395 0.021629456 -0.0004942443 0.07915259 0.061280277 0.022783905 0.024737082 0.10439306

ik_task.weight f4 [1, 64]
00000000: 3a5f 84bf 09a1 8c3d d498 e8be c1d7 383e
00000010: 44c8 f2bd b6fe 083f 9291 90be 08fa 53be
00000020: 6739 91bd bdbf 22be f6e9 5a3e f2f8 0f3b
00000030: b793 2c3f ebca 49be e251 8b3e 6078 a03d
00000040: d4d9 b83e 3c54 c03f e583 08be 9736 59bf
00000050: 91f6 fe3e 3a03 b73d ca16 1dbe 30b7 9abe
00000060: fe90 223f 878a b53d 001f 983e e8e9 96be
00000070: e70a fa3e 10d9 a1be 9f74 f43d 08fa 2fbf
00000080: 4442 8ebe 9b70 a23d d871 97bd 458a 06be
00000090: 5cb5 a63e 32d7 493e 2fd1 77be ac38 353e
000000a0: 4abb 5c3d 624f 183e 57e3 923e b923 a5bd
000000b0: f262 01bf 6c50 063e 6d0e 71bf c2be 84be
000000c0: 5b49 24bf 6c71 973d 451e a5be 82e7 1bbe
000000d0: c3e6 333f 7b45 ce3e c828 d03e 467b 77bd
000000e0: 2884 4cbe 6339 513e 4d66 063f e888 a7bd
000000f0: 9995 d23e 1029 cd3e 4012 ca3d 5585 473e
-1.0341561 0.068666525 -0.454291 0.18051054 -0.11854604 0.5351366 -0.2823606 -0.20700848
-0.07091027 -0.15893455 0.21378312 0.0021968451 0.67412895 -0.19706313 0.2721091 0.0783546
0.3610369 1.5025706 -0.13331564 -0.8484892 0.4979749 0.08936162 -0.15340725 -0.30217886
0.6350249 0.088643126 0.2971115 -0.2947533 0.48836443 -0.31610918 0.11936306 -0.6874089
-0.27784932 0.07931634 -0.07394761 -0.13138683 0.3256024 0.19710997 -0.24200891 0.176974
0.05388955 0.14874032 0.28689072 -0.08063454 -0.50541604 0.13116616 -0.94162637 -0.25926787
-0.6417443 0.073946804 -0.32249656 -0.15225032 0.7027399 0.40287384 0.40656114 -0.060420297
-0.19972289 0.20432048 0.5249985 -0.0818041 0.4112976 0.4007039 0.09866762 0.19484456
