scripts/learning/models/[64,128,256,128,64]_best-triple_task.pth (torch_old, 356622 bytes, 20 tensors)

layers.0.0.weight f4 [64, 12]
0	0x3db250ac	0.08706793
1	0xbd2f4686	-0.042791866
2	0x3d208cda	0.039196827
3	0xbeaf2ac7	-0.34212324
4	0xbebe4530	-0.3716216
5	0xbf971901	-1.1804506
6	0xbf09bb01	-0.5380097
7	0xbe3ecc58	-0.18632638
8	0xbcac7404	-0.021051414
9	0xbeaab5d1	-0.3334184
10	0xbd2f09f9	-0.04273412
11	0xbeac8c66	-0.33700866
12	0x3f83bd89	1.0292217
13	0x3e7399ce	0.2378914
14	0x3d97bf11	0.0740949
15	0xbdf083ff	-0.11743926
16	0x3e3bfe90	0.18358827
17	0x3eb78f1e	0.35851377
18	0x3dce01ed	0.10058961
19	0x3ea1a64c	0.31572187
20	0x3e767be9	0.24070705
21	0xbdd93bdb	-0.1060712
22	0xbdcff821	-0.10154749
23	0x3ec1c8f2	0.37848622
24	0xbef03c9e	-0.46921247
25	0xbe02cf74	-0.1277445
26	0xbca0864b	-0.019595286
27	0xbe5be876	-0.21475396
28	0x3ea238e4	0.3168403
29	0xbf7aadab	-0.97921246
30	0x3f19732e	0.59941375
31	0xbd1bd8f9	-0.038048718
32	0x3c0b279c	0.00849333
33	0xbe823e06	-0.25437945
34	0xbe3e2bb8	-0.18571365
35	0x3f333607	0.70004314
36	0xbe7e0f4d	-0.24810524
37	0x3f10fc38	0.56634855
38	0xbec13147	-0.37732908
39	0x3c9b19ef	0.018933265
40	0xbca100a3	-0.019653624
41	0xbe7c26d8	-0.24624193
42	0x3f032ff3	0.5124504
43	0x3cab7ae1	0.020932617
44	0x3d5571f3	0.052110624
45	0xbeaf891f	-0.34284303
46	0x3cb955a4	0.022623844
47	0xbe1b8587	-0.15187655
48	0x3f0d13b9	0.5510822
49	0x3d7e8b2b	0.06214444
50	0xbe02a994	-0.12760001
51	0xbe2e8d7d	-0.17046161
52	0x3d3b358a	0.045705356
53	0xbff8ca1d	-1.943668
54	0x3fb0b00a	1.3803723
55	0x3e86d05a	0.26330835
56	0x3c9b3aba	0.018948901
57	0x3d60a06d	0.054840494
58	0xbe5af489	-0.21382345
59	0x3e603948	0.21896851
60	0xbe8bdffc	-0.27319324
61	0x3c707eee	0.0146787
62	0x3ce46598	0.027880475
63	0xba27f5be	-0.0006407163
64	0x3cbea54c	0.023272179
65	0xbebb22aa	-0.36549884
66	0xbe3ced11	-0.18449809
67	0xbdd856ea	-0.105634525
68	0xba7a53c7	-0.0009549227
69	0x3cd7aee7	0.026328517
70	0x3fa3afc0	1.278801
71	0xbecea077	-0.403568
72	0xbe9a8a1f	-0.30183503
73	0xbf3f1192	-0.74636185
74	0x3e0e4f6a	0.13897482
75	0x3bb24700	0.0054405928
76	0xbc8f7c33	-0.017515277
77	0xbf3b1b8b	-0.730889
78	0xbf81412f	-1.0098017
79	0xbe033386	-0.12812623
80	0x3e103b9d	0.1408524
81	0x3e33ccf5	0.17558654
82	0xbc714b08	-0.0147273615
83	0x3e3e17c6	0.18563756
84	0x3cf0ac82	0.029379133
85	0xbf47b423	-0.7800924
86	0xbd105ae9	-0.03524295
87	0x3d643c48	0.05572155
88	0x3eadad71	0.33921388
89	0x3eed0630	0.46293783
90	0x3f2578ed	0.64637643
91	0xbebe6574	-0.37186778
92	0xbe0b6a9e	-0.1361489
93	0x3e3c9743	0.18417077
94	0x3da35148	0.079744875
95	0xbed4b6f7	-0.4154584
96	0x3e7e459d	0.24831243
97	0xbe82620d	-0.25465432
98	0xbdd988a7	-0.106217675
99	0xbe63e37d	-0.22254749
100	0xbe600bb3	-0.21879463
101	0x3fd3c628	1.6544847
102	0xbf323611	-0.6961375
103	0x3dcc9059	0.0998847
104	0xbd9b4819	-0.07582111
105	0xbe083113	-0.1329997
106	0xbe8c91de	-0.27455038
107	0x3eb42e6c	0.35191667
108	0x3e711c95	0.2354606
109	0x3dcd6615	0.10029236
110	0xbf13f7cf	-0.578
111	0xbda79bc6	-0.08184008
112	0x3e685bf3	0.22691326
113	0x3f4fafc6	0.81127584
114	0xbf67fdc5	-0.90621597
115	0xbf0651b9	-0.5246845
116	0x3db91d01	0.09038735
117	0x3e83251e	0.25614256
118	0x3eb29640	0.34880257
119	0x3e20e60c	0.15712756
120	0xbbb210cd	-0.0054341317
121	0x3e625879	0.22104062
122	0xbd168a1d	-0.03675281
123	0x3e30f0a8	0.17279303
124	0xbd602b11	-0.05472857
125	0xc0266fdc	-2.6005774
126	0x3fae0416	1.3594997
127	0x3d132b9b	0.035930257
128	0xbdcdbc40	-0.100456715
129	0xbdfd1560	-0.123575926
130	0x3e018fe0	0.1265254
131	0xbefb070f	-0.49028823
132	0xbe8649c9	-0.2622817
133	0x3eedb999	0.46430662
134	0xbe873e5b	-0.2641476
135	0xbb87c91f	-0.0041438485
136	0xbc69688c	-0.014246117
137	0xbe4d1058	-0.20025766
138	0xbeaf6997	-0.34260246
139	0xbda88f2b	-0.08230432
140	0x3d3315ae	0.043721847
141	0xbdb878c7	-0.090074115
142	0x3ef44342	0.47707564
143	0x3f2d4ad9	0.67692333
144	0xbec380d1	-0.38184217
145	0xbda26510	-0.079294324
146	0x3efb517d	0.49085608
147	0x3e1b0b3d	0.15141006
148	0xbee6c805	-0.45074478
149	0xbfc93187	-1.571824
150	0x3f871ed5	1.0556284
151	0x3eb74f7f	0.35802838
152	0xbe27d25a	-0.16388837
153	0x3dbf8ddd	0.0935323
154	0xbd090aaa	-0.033457436
155	0xbe0db16a	-0.1383721
156	0x3f1ebbb6	0.62005174
157	0xbef79bb6	-0.48360986
158	0x3db12400	0.086494446
159	0xbaba5d4b	-0.0014218477
160	0x3d67ef5f	0.056624766
161	0xbec5000c	-0.38476598
162	0xbf1eb2e1	-0.619917
163	0x3e42e5e9	0.19033016
164	0x3d000b23	0.03126062
165	0x3da2306e	0.079193935
166	0xbf079ba9	-0.52971894
167	0x3d458309	0.048220668
168	0x3de083a3	0.10962608
169	0xbf04e7ad	-0.5191601
170	0x3e1007c3	0.14065461
171	0x3c34cb86	0.011034852
172	0x3db600ee	0.08886896
173	0x3eca1dd7	0.3947589
174	0x3f10381d	0.5633562
175	0x3e766aa2	0.24064115
176	0xbd0c548d	-0.03426032
177	0x3e38f2c0	0.18061352
178	0xbec29c07	-0.38009664
179	0x3f21dd6e	0.632285
180	0x3f0a1138	0.53932524
181	0xbf2fe1a5	-0.6870368
182	0x3e2571cc	0.16156691
183	0x3bd71a54	0.006564418
184	0xbdda0126	-0.1064475
185	0x3ef1fc39	0.47262743
186	0x3f71a708	0.94395494
187	0x3e1ec730	0.15505672
188	0x3dc9a6b1	0.09846247
189	0xb88e7566	-6.792955e-05
190	0x3cb51508	0.022104755
191	0xbe2d1702	-0.16903308
192	0xbf46b429	-0.7761865
193	0xbd08bb98	-0.03338203
194	0xbd2f6732	-0.042823024
195	0x3bd87d73	0.0066067516
196	0x3c2a846c	0.010407548
197	0xbe6bc579	-0.23024549
198	0x3e0614d6	0.13093886
199	0xbb0f289d	-0.0021844276
200	0xb9b4b34c	-0.00034465862
201	0xbca5f583	-0.02025867
202	0x3fa0228e	1.2510545
203	0xbf0c8e0d	-0.5490425
204	0x3f6055fd	0.8763121
205	0xbe84fc61	-0.259738
206	0xbddd0357	-0.10791653
207	0xbd2fa8c6	-0.042885564
208	0x3e27cb10	0.16386056
209	0x3e8d1d6b	0.27561507
210	0x3f808a34	1.0042176
211	0x3d1ffc67	0.03905907
212	0xbe2de830	-0.16983104
213	0x3dcb0bd8	0.099143684
214	0xbd855a3c	-0.065113515
215	0x3e92da46	0.28682154
216	0xbed0cec6	-0.40782756
217	0xbd267910	-0.040642798
218	0xbf14c31a	-0.581102
219	0x3dcc7091	0.09982408
220	0xbdea3302	-0.1143551
221	0x3f275b3e	0.653736
222	0xbf0493f0	-0.51788235
223	0xbe550ce1	-0.20805694
224	0x3d7becd2	0.061505146
225	0x3db44d6f	0.08803832
226	0x3e70e8ef	0.23526357
227	0x3e3ce6b4	0.18447381
228	0x3f639cb6	0.88910997
229	0xbe83c82a	-0.2573865
230	0x3ca39617	0.01996903
231	0x3d019db7	0.03164455
232	0xbe3970c1	-0.18109418
233	0x3ee45447	0.4459555
234	0x3e5ab2f0	0.21357322
235	0x3e5d606d	0.21618815
236	0xbdd3fdd0	-0.10351145
237	0x3e2d4150	0.16919446
238	0x3e997676	0.2997319
239	0xbd7df76c	-0.062003538
240	0xbef61f23	-0.4807063
241	0x3ef8e3d5	0.48611322
242	0xbe79243a	-0.24330226
243	0xbdb82165	-0.089907445
244	0xbcd7bdfe	-0.026335713
245	0x3faa19d5	1.3289133
246	0x3e9fd4cd	0.31217042
247	0x3e53e5b3	0.20693092
248	0xbc4e2c5f	-0.012583821
249	0x3e278911	0.1636088
250	0x3ef58baf	0.47958133
251	0xbe8dab14	-0.27669585
252	0xbf089fe6	-0.53368986
253	0x3d1c075f	0.038092967
254	0xbec9ccaf	-0.39413974
255	0x3d2e33f3	0.04253001

layers.0.0.bias f4 [64]
0	0x3cec2685	0.028826961
1	0x3d6e7448	0.058216363
2	0xbe5828e2	-0.21109346
3	0x3ea555b2	0.32291943
4	0xbe01f78d	-0.1269209
5	0xbd9c45ac	-0.07630476
6	0x3e0e0d2d	0.13872214
7	0xbe650237	-0.22364126
8	0x3cbf0062	0.023315612
9	0xbe20601b	-0.15661661
10	0x3df2e7ac	0.11860594
11	0xbdae3ba1	-0.08507467
12	0xbc2a1b74	-0.010382522
13	0x3df9e30a	0.122015074
14	0xbce33de8	-0.02773948
15	0x3e360b5b	0.1777777
16	0x3d47c283	0.048769485
17	0x3db84846	0.0899816
18	0x3de7d228	0.11319381
19	0x3e60ec71	0.21965195
20	0xbe7be91d	-0.24600644
21	0x3e97488f	0.29547545
22	0xbd141b3f	-0.036158796
23	0x3e57d1c7	0.21076117
24	0xbc206f20	-0.009792119
25	0x3d99a23c	0.07501647
26	0xbc9d2717	-0.019183679
27	0xbd255b9e	-0.040370576
28	0xbdff0963	-0.12452962
29	0xbe28f8e5	-0.16501196
30	0xbe385fda	-0.18005314
31	0xbcfdbee3	-0.030974811
32	0x3eace5da	0.33769113
33	0x3e7d31dc	0.24726051
34	0xbdd0fddf	-0.10204672
35	0x3ea01700	0.31267548
36	0xbd72a7e1	-0.059242133
37	0x3e86f071	0.26355317
38	0xbd76344f	-0.06010848
39	0xbe91241e	-0.28347868
40	0xbe4ace50	-0.19805264
41	0x3e5cc0d1	0.21557929
42	0xbeb1cca3	-0.34726438
43	0x3d3b6473	0.045750093
44	0xbc88b1bc	-0.016686313
45	0xbdd9d9d3	-0.1063725
46	0x3e939085	0.28821197
47	0xbed3f5cd	-0.4139847
48	0x3d88749b	0.06662866
49	0x3d249254	0.040178612
50	0xbe8055cf	-0.25065467
51	0x3e80d25b	0.25160488
52	0x3d67013e	0.05639767
53	0x3df6a48c	0.120431036
54	0x3e8b3712	0.27190453
55	0xbe773260	-0.2414031
56	0xbd88c6c0	-0.066785336
57	0xbe88380f	-0.2660527
58	0x3eb52179	0.353771
59	0xbe9c9b46	-0.30587214
60	0xbe55e45d	-0.20887895
61	0xbe770c79	-0.24125852
62	0x3d3c0ed4	0.04591258
63	0xbc3b8598	-0.011445425

layers.1.0.weight f4 [128, 64]
0	0xbea47250	-0.32118464
1	0xbc0338cc	-0.008009147
2	0x3e2ecf80	0.17071342
3	0x3e892f1f	0.26793763
4	0xbe0d8e4a	-0.1382381
5	0xbec6f735	-0.3886048
6	0x3e62559d	0.22102971
7	0xbe756f61	-0.23968269
8	0x3cc92b99	0.024556922
9	0xbdd2d8d8	-0.10295266
10	0xbe4ba783	-0.1988812
11	0xbd1111a2	-0.035417207
12	0x3daefb51	0.085440286
13	0xbdc86603	-0.09785082
14	0xbdd78f1e	-0.10525344
15	0xbd19f4c6	-0.03758695
16	0x3de7978a	0.11308201
17	0xbe6962a2	-0.22791532
18	0x3e42b2fb	0.19013588
19	0x3d365cce	0.0445221
20	0x3dddf54f	0.108378045
21	0xbe0bbe46	-0.13646802
22	0xbe35d0a4	-0.17755371
23	0x3e204940	0.15652943
24	0x3c69c78b	0.014268766
25	0xbe4be408	-0.19911206
26	0x3d4af8d5	0.04955371
27	0x3d9bcfa8	0.07607967
28	0xbdd02048	-0.10162407
29	0x3a412270	0.00073674973
30	0x3e4bcac7	0.19901572
31	0x3dd2e66a	0.10297854
32	0xbda26595	-0.079295315
33	0x3d5d94f3	0.054097127
34	0x3e3e0941	0.18558218
35	0x3dddcd07	0.108301215
36	0xbd96c335	-0.073614515
37	0xbd15a052	-0.036529846
38	0x3dfac8ae	0.12245308
39	0xbd61af64	-0.055098906
40	0xbcbb8310	-0.022889644
41	0xbd5cf57b	-0.053945046
42	0xbe8c4d3d	-0.27402678
43	0xbe5443e8	-0.20729029
44	0xbd91b32e	-0.07114254
45	0x3e453b1d	0.19260831
46	0xbc6f045e	-0.014588444
47	0xbea0a259	-0.3137386
48	0xbab73e77	-0.0013980408
49	0xbeab8440	-0.33499336
50	0x3e5635b1	0.20918919
51	0xbdcbdc41	-0.099541195
52	0xbdc93ee5	-0.09826449
53	0x3e5a2840	0.21304417
54	0x3c9defc6	0.019279372
55	0x3d0d2596	0.034459673
56	0x3e1acff6	0.15118393
57	0x3cbdb23e	0.023156282
58	0x3e19fe7e	0.15038487
59	0xbdd1b2b3	-0.10239162
60	0x3c14c6d2	0.009080606
61	0x3ec201a2	0.3789187
62	0x3e1cf1e9	0.15326656
63	0x3e8230bc	0.25427806
64	0xbd66b191	-0.056321684
65	0x3e4f23da	0.2022852
66	0x3df472c7	0.119359545
67	0xbe43183c	-0.19052213
68	0x3da76fcd	0.08175621
69	0x3e2a4c9d	0.16630788
70	0xbe7adcb9	-0.24498262
71	0x3e05fcde	0.13084742
72	0xbe9f1433	-0.31070098
73	0x3cb9f026	0.02269752
74	0x3ea4951a	0.32145005
75	0x3d5436a6	0.05180993
76	0xbb15523d	-0.0022784614
77	0xbdb553c8	-0.08853871
78	0x3e21db3c	0.15806288
79	0x3da6f116	0.08151452
80	0x3e5af089	0.2138082
81	0x3e3bea98	0.18351209
82	0x3c29a04f	0.010353162
83	0x3e006be3	0.12541156
84	0xbd23e7d8	-0.040016025
85	0x3e3255ea	0.17415586
86	0x3e42ebc9	0.19035257
87	0xbc431759	-0.011907422
88	0x3c0d6bb2	0.008631634
89	0x3e8921c0	0.26783562
90	0x3d838375	0.06421558
91	0xbcded53f	-0.027201293
92	0x3e240f02	0.1602135
93	0x3e179598	0.14803159
94	0xbc4a0aaf	-0.012331649
95	0x3df1ad15	0.11800591
96	0xbe4c249d	-0.19935842
97	0xbdf17de9	-0.117915936
98	0xbde77ac7	-0.11302715
99	0x3d6c5c17	0.05770501
100	0x3e6b503b	0.22979824
101	0xbed6f4f0	-0.41983747
102	0xbea75b24	-0.32686722
103	0xbd879fd0	-0.06622279
104	0xbd4c5284	-0.04988338
105	0x3c3943f1	0.011307702
106	0x3dce19e8	0.10063535
107	0xbc492bf0	-0.012278542
108	0xbdfce823	-0.12348964
109	0xbe19dd68	-0.15025866
110	0xbd978709	-0.07398803
111	0x3d319fc7	0.043365266
112	0x3e2f5d8f	0.17125534
113	0x3e4e5498	0.20149457
114	0x3dc04c42	0.09389545
115	0x3dd29b27	0.10283499
116	0x3c03490d	0.008013022
117	0xbd2c651b	-0.04208861
118	0x3d9b59e3	0.07585504
119	0x3d537569	0.051625643
120	0x3cddb0c3	0.027061826
121	0xbe3ff69b	-0.18746416
122	0xbdb786bc	-0.089612454
123	0x3d2703aa	0.04077498
124	0xbc112380	-0.0088585615
125	0xbe61f89d	-0.22067495
126	0xbde1a98a	-0.11018665
127	0x3d459677	0.048239198
128	0x3d331dd3	0.043729614
129	0x3dd14ac7	0.10219341
130	0x3ceebedb	0.029143741
131	0x3db50578	0.08838934
132	0xbe70159f	-0.23445748
133	0x3e5f2797	0.21792446
134	0xbd94efcc	-0.072723
135	0x3da3ce99	0.0799839
136	0x3e2d8720	0.16946077
137	0x3d4f4501	0.050602917
138	0xbf1cf674	-0.6131356
139	0xbd59f7ff	-0.053215023
140	0x3e0f63e3	0.14002948
141	0xbe14cd35	-0.14531405
142	0xbd84518f	-0.064608686
143	0xbe0b1286	-0.13581285
144	0x3e51c051	0.20483519
145	0x3d8c0489	0.068368025
146	0x3ded816a	0.115969494
147	0xbd20d384	-0.039264217
148	0xbe6a1be0	-0.22862196
149	0xbe2328ad	-0.15933485
150	0xbd2a090b	-0.04151253
151	0x3d2153a6	0.039386414
152	0x3e4fdcd9	0.2029909
153	0xbde6a99b	-0.112628184
154	0xbd8b405d	-0.06799386
155	0xbe189505	-0.14900596
156	0x3ef6c033	0.4819351
157	0xbddf64fe	-0.109079346
158	0xbe06c746	-0.13161954
159	0xbe5f6538	-0.21815956
160	0x3d507dde	0.050901286
161	0x3d57c755	0.052680332
162	0xbbca765a	-0.0061786594
163	0x3c8d368b	0.017237922
164	0xbcdc9db7	-0.026930673
165	0xbd1d1f55	-0.03835996
166	0xbea9917a	-0.33118802
167	0x3c101fd0	0.008796647
168	0xbd57b224	-0.052660123
169	0x3d8c4542	0.068491474
170	0xbe490a43	-0.19632821
171	0x3c0abd0e	0.008467926
172	0xbda3a9b7	-0.07991355
173	0xbdebb46b	-0.11509021
174	0xbe47437e	-0.1945934
175	0xbf4551d6	-0.77077997
176	0x3dd8a35b	0.105780326
177	0x3f60506e	0.87622726
178	0x3e04746a	0.12935033
179	0x3d7ea6a2	0.062170632
180	0x3d8aaecd	0.06771622
181	0x3d7c8b41	0.06165624
182	0xbdfb7c84	-0.12279609
183	0xbc69bfcd	-0.01426692
184	0x3d5b4d6a	0.053540625
185	0x3dba7e04	0.09106067
186	0x3e73901a	0.23785439
187	0xbd2a47d1	-0.041572396
188	0x3ce0689c	0.027393632
189	0xbee96302	-0.4558335
190	0xbcc5cfff	-0.024147032
191	0x3d4f571d	0.050620187
192	0x3da4329b	0.08017465
193	0xbd9e6c05	-0.07735447
194	0x3c7191cd	0.014744234
195	0x3e613dac	0.21996182
196	0xbe8c9877	-0.2746007
197	0xbdb4b8c7	-0.08824306
198	0xbe1a1005	-0.15045173
199	0x3e16501b	0.14678995
200	0x3e631998	0.22177732
201	0x3e253285	0.16132553
202	0x3bfdba02	0.007743121
203	0xbe9bbd08	-0.30417657
204	0xbd805c3a	-0.06267591
205	0xbdc2c1ec	-0.09509644
206	0xbe46b971	-0.19406678
207	0xbd94d325	-0.07266835
208	0xbc81b22f	-0.015832035
209	0x3d11b40d	0.0355721
210	0x3e14e97c	0.14542192
211	0xbc1270e4	-0.008938048
212	0x3cf7c28a	0.03024413
213	0x3e16baa9	0.14719643
214	0xbe41b260	-0.18915701
215	0x3da8e6f4	0.08247176
216	0x3d97962e	0.074016914
217	0xbe03137c	-0.12800401
218	0x3b9795af	0.004625998
219	0xbd5c05f5	-0.05371662
220	0xbdc115da	-0.09427996
221	0xbcf9a92a	-0.030476172
222	0xbd628a81	-0.05530787
223	0xbd508626	-0.050909184
224	0x3e6a6842	0.22891334
225	0xbc1ac0e6	-0.009445405
226	0x3e28d4fc	0.16487497
227	0x3d6837e7	0.056693938
228	0x3dd529c5	0.104083575
229	0xbdfd008a	-0.123536184
230	0x3ded66ce	0.11591874
231	0x3dd36df6	0.10323708
232	0xbce64288	-0.028107896
233	0x3dbec0eb	0.0931414
234	0x3c169487	0.009190685
235	0x3d72cae8	0.059275538
236	0x3e79c893	0.24392919
237	0x3e832e68	0.25621343
238	0x3dcb5de3	0.09930017
239	0x3e091deb	0.13390319
240	0x3a71e4e3	0.0009227527
241	0x3e45e981	0.19327356
242	0xbe16e1f8	-0.14734638
243	0xbdcb2eda	-0.099210456
244	0x3e1923cc	0.14955062
245	0xbe03643a	-0.12831202
246	0x3daf82e6	0.08569889
247	0xbe383fe9	-0.1799313
248	0x3ebfd7c1	0.37469295
249	0x3d5fd5c4	0.054647222
250	0xbe359978	-0.17734325
251	0x3e135d92	0.14391163
252	0xbc65dcb4	-0.0140296705
253	0xbdb932e7	-0.09042912
254	0x3db826cf	0.08991777
255	0xbdd1806b	-0.10229572

layers.1.0.bias f4 [128]
0	0xbca2982e	-0.019847956
1	0x3d31e8f9	0.04343507
2	0x3e74a71f	0.23891877
3	0x3d0e9226	0.034807347
4	0x3c6a6b21	0.014307768
5	0xbd98dfc6	-0.074645564
6	0xbd0537cb	-0.03252391
7	0x3d613296	0.054979883
8	0x3c81c4e7	0.01584096
9	0x3e2e1baf	0.17002748
10	0x3e0d5da4	0.13805252
11	0x3c9f327e	0.019433256
12	0xbd587508	-0.052845985
13	0x3d53a717	0.05167302
14	0x3d5ca755	0.053870518
15	0xbd7066a7	-0.058691647
16	0x3e1ee2a8	0.1551615
17	0x3c8ae079	0.01695274
18	0xbcdae934	-0.026722528
19	0x3dc77244	0.09738591
20	0xbde351cc	-0.11099586
21	0xbdc6539e	-0.096839175
22	0xbc20c73c	-0.009813126
23	0xbdb72b91	-0.089438565
24	0x3e0cdbaa	0.1375567
25	0xbe05d8fa	-0.13071051
26	0x3c1d43d4	0.009598691
27	0xbd020370	-0.03174156
28	0x3e12e14b	0.14343755
29	0x3d849d75	0.06475345
30	0x3e3c027a	0.1836032
31	0x3e3ee89a	0.18643418
32	0xbd6a45e2	-0.05719555
33	0xbdecfe5b	-0.11571952
34	0xbb954f0d	-0.0045565427
35	0xbd4e810c	-0.050416037
36	0x3e3e0c20	0.18559313
37	0xbd9f0c98	-0.07766074
38	0x3c94655a	0.018114734
39	0xbd4d22a9	-0.050081883
40	0xbdf2e7b5	-0.11860601
41	0xbda032ce	-0.0782219
42	0x3dab209e	0.083558306
43	0x3e0909c6	0.13382635
44	0xbda6a5c8	-0.08137089
45	0x3d020815	0.03174599
46	0x3dc27e52	0.0949675
47	0xbde703d6	-0.112800285
48	0xbcf23ef6	-0.029571038
49	0xbdb57484	-0.08860114
50	0x3c54a42c	0.012978595
51	0xbd6dfd2e	-0.05810278
52	0xbe172aad	-0.14762373
53	0xbde870f4	-0.11349669
54	0x3dfc638b	0.12323674
55	0xbc9657c0	-0.01835239
56	0xbd46111e	-0.048356168
57	0xbd2227ac	-0.039588615
58	0xbde2c49d	-0.11072657
59	0xbcd3844b	-0.025819918
60	0x3e5856f9	0.21126927
61	0xbb7beb9f	-0.0038440002
62	0x3d599919	0.05312452
63	0x3d210782	0.0393138
64	0xbda7c163	-0.081911825
65	0xbc7d3fde	-0.015457122
66	0xbe2414b2	-0.1602352
67	0x3b19b191	0.0023451785
68	0xbdd70650	-0.10499251
69	0xbe345aae	-0.17612717
70	0x3e24c308	0.16090024
71	0x3da32b75	0.07967273
72	0x3d968722	0.07349993
73	0x3e1a0dea	0.1504437
74	0xba544043	-0.0008096734
75	0xbd4574c8	-0.048207074
76	0xbca30e16	-0.019904178
77	0x3c07ca8c	0.008288037
78	0xbdd5b79a	-0.1043541
79	0xbd570255	-0.05249246
80	0x3c30221a	0.010750318
81	0x3d98a968	0.07454187
82	0x3d9baa2a	0.076008156
83	0xbcf0378f	-0.029323367
84	0xbe173c48	-0.14769089
85	0xbd85280d	-0.0650178
86	0xbd99a578	-0.07502264
87	0x3e254d73	0.16142826
88	0xbd582584	-0.052770153
89	0x3d2a1ab4	0.041529372
90	0x3dd04194	0.10168758
91	0xbd62c8e9	-0.055367384
92	0xbd9dd753	-0.077070855
93	0xbd2ecee9	-0.042677794
94	0xbdf34516	-0.118784115
95	0x3e2f157a	0.17098036
96	0xbdaa5948	-0.0831781
97	0x3d81fe66	0.06347351
98	0xbdd4983c	-0.10380599
99	0x3e070251	0.13184477
100	0xbde31118	-0.11087245
101	0xbe8564c4	-0.2605344
102	0xbe3a6369	-0.18201984
103	0x3d2fb3d2	0.0428961
104	0xbe25b950	-0.16183972
105	0xbdac5170	-0.084139705
106	0x3e145a0d	0.14487477
107	0xbc39d259	-0.011341655
108	0x3df010b6	0.11721937
109	0x3e3dc07f	0.18530463
110	0xbe3271d6	-0.17426237
111	0x3d08d9c2	0.033410795
112	0x3db1400d	0.08654795
113	0xbe30bc4d	-0.17259331
114	0x3cd1f070	0.025627345
115	0x3d5d4016	0.054016195
116	0xbe0455e4	-0.1292339
117	0xbc438600	-0.011933804
118	0x3e0e2c68	0.13884127
119	0x3e09f1a1	0.1347108
120	0x3e7a395c	0.24435943
121	0xbdd5b905	-0.1043568
122	0x3cecbe62	0.028899375
123	0xbe598dcd	-0.21245499
124	0xbdc3360a	-0.095317915
125	0xbdca57ce	-0.09880029
126	0xbd8a12a6	-0.06741838
127	0x3cc61640	0.024180532

layers.2.0.weight f4 [256, 128]
0	0x3da7d54c	0.0819498
1	0x3d2983ce	0.041385464
2	0x3e3af695	0.18258126
3	0x3d7e5bb4	0.062099174
4	0xbd566837	-0.05234548
5	0x3e858175	0.2607533
6	0xbe83ae24	-0.25718796
7	0x3e89912c	0.2686857
8	0x3c07a597	0.008279226
9	0x3e79b598	0.24385679
10	0xbe4f161d	-0.2022328
11	0xba2f4ffd	-0.00066876394
12	0x3e4f4e06	0.20244607
13	0x3d63171b	0.055441957
14	0x3df19062	0.11795117
15	0x3ddd954c	0.10819492
16	0xbdac99da	-0.08427782
17	0xbeffc56b	-0.49955305
18	0xbeeac666	-0.4585449
19	0x3d34f56a	0.044179358
20	0x3b4b4a39	0.0031019582
21	0x3c328eba	0.0108982865
22	0xbe6786e8	-0.22610056
23	0x3de53e69	0.111935444
24	0xbe027ca2	-0.12742856
25	0x3e35e673	0.1776369
26	0x3e3279a1	0.1742921
27	0x3d6e039b	0.058108907
28	0xbe49f90d	-0.19723912
29	0xbe244181	-0.16040613
30	0xbe3ef091	-0.18646456
31	0x3dc9e340	0.098577976
32	0xbd660d4a	-0.056165017
33	0xbe2e89e8	-0.17044795
34	0x3b715dc5	0.0036829573
35	0xbcbc2204	-0.022965439
36	0x3e807180	0.25086594
37	0x3e01caf0	0.12675071
38	0x3e5a6982	0.2132931
39	0xbe101a2f	-0.14072488
40	0x3ddba5c8	0.1072498
41	0xbe00e8a9	-0.12588753
42	0x3eb44480	0.3520851
43	0xbcdd0a3b	-0.026982417
44	0x3cabbd7c	0.020964377
45	0x3d1cb1cb	0.038255494
46	0x3e39768d	0.1811163
47	0x3d04a242	0.032381304
48	0x3daf5b84	0.08562377
49	0x3fd793da	1.6841996
50	0x3da66300	0.081243515
51	0xbd078ae9	-0.03309146
52	0x3e5e4393	0.21705465
53	0xbee0970c	-0.4386524
54	0x3e338de0	0.1753459
55	0xbd9fe6ef	-0.07807719
56	0xbc444220	-0.011978656
57	0x3e3aca26	0.18241176
58	0xbae32fad	-0.0017332934
59	0x3dde2906	0.10847668
60	0x3e9553ea	0.29165584
61	0x3e64a00f	0.22326683
62	0x3c50dbf9	0.012747758
63	0x3e4a2846	0.19741926
64	0x3bbb00b4	0.005706871
65	0x3e03ea04	0.12882239
66	0xbe7c1fea	-0.24621549
67	0x3e56da12	0.20981625
68	0xbe170c2d	-0.14750738
69	0xbef40d51	-0.4766641
70	0x3cd075fa	0.02544688
71	0x3eca9dab	0.39573416
72	0x3e84a22c	0.25904977
73	0x3d9fe3cf	0.07807123
74	0x3c1f0d3e	0.009707747
75	0xbd1976e7	-0.03746691
76	0x3d95209c	0.0728161
77	0x3e7bbd7c	0.24584001
78	0xbc6575a8	-0.014005102
79	0x3dbfdc7b	0.09368225
80	0x3e2fedde	0.17180583
81	0xbea72bd7	-0.32650635
82	0xbd9cd86b	-0.07658466
83	0xbe9f6825	-0.31134143
84	0xbe1ff40f	-0.15620445
85	0xbb817ffe	-0.0039520254
86	0xbd291b5b	-0.041285854
87	0xbe88550a	-0.2662738
88	0x3df71692	0.12064852
89	0x3e0b3aa8	0.13596594
90	0xbe04d209	-0.12970747
91	0x3dc8e159	0.09808607
92	0xbd8cd0cf	-0.068757646
93	0x3da15157	0.078768425
94	0xbb3518ad	-0.0027633116
95	0xbe21afb3	-0.1578968
96	0x3d1ec07e	0.038757794
97	0x3e2e8f21	0.17046787
98	0xbc959943	-0.018261557
99	0x3d51f316	0.051257215
100	0xbdeb641d	-0.114937045
101	0xbf31599f	-0.69277376
102	0xbe392c38	-0.18083274
103	0x3e8b4ac4	0.2720548
104	0x3f3755b9	0.7161518
105	0x3ed4b431	0.41543725
106	0xbea22d13	-0.31675014
107	0xbdd0f3b5	-0.102027334
108	0x3dfca050	0.12335265
109	0x3e570f7c	0.21002
110	0x3c2218db	0.009893621
111	0x3e27e4aa	0.16395822
112	0x3cf0bb9b	0.029386332
113	0xbd5bee37	-0.053693976
114	0x3c79880e	0.015230192
115	0x3d636106	0.05551245
116	0xbe1a42e0	-0.15064573
117	0x3e4c18cc	0.19931334
118	0xbd73e2ca	-0.059542455
119	0xbdaed712	-0.08537115
120	0x3dff0078	0.12451261
121	0xbafee5b6	-0.0019447121
122	0xbd2ab2f5	-0.041674573
123	0xbe56b716	-0.20968279
124	0x3d9c9d99	0.07647247
125	0x3cce6229	0.02519329
126	0x3d25e05f	0.04049718
127	0x3cdd3e09	0.02700712
128	0x3e0c6b49	0.13712801
129	0x3d03a256	0.032137237
130	0xbc91304d	-0.017723227
131	0xbd34d82c	-0.04415147
132	0x3da1d5af	0.07902085
133	0xbd961714	-0.073286206
134	0x3e91a899	0.28448942
135	0xbeb2acfa	-0.34897596
136	0xbe05b9da	-0.13059178
137	0xbe2ed848	-0.17074692
138	0x3ccefdde	0.025267538
139	0xbe6b98db	-0.23007528
140	0x3d04933f	0.032366987
141	0xbe1f57ed	-0.15560885
142	0xbcde5b45	-0.02714313
143	0x3c48726b	0.012234311
144	0x3cdd0817	0.026981397
145	0xbe03ccb9	-0.12871064
146	0xbe0c48f7	-0.13699709
147	0x3db55d04	0.08855632
148	0x3cfcada8	0.030844525
149	0xbe2c9af1	-0.1685598
150	0x3d6837f8	0.056694
151	0x3d83ec2e	0.06441532
152	0x3d1c7273	0.038195085
153	0xbdf14058	-0.11779851
154	0xbe514e79	-0.20440091
155	0x3c274c62	0.010211082
156	0x3d4ee3b2	0.050510116
157	0xbd8a4d8c	-0.06753072
158	0xbe120b39	-0.14262094
159	0xbda7216d	-0.08160672
160	0xbc8b63fb	-0.017015448
161	0xbdcd31ce	-0.10019265
162	0xbdd5f111	-0.104463704
163	0xbd23141a	-0.039814092
164	0xbe2fc1d9	-0.17163791
165	0x3e2b736c	0.16743249
166	0xbd28a978	-0.041177243
167	0x37689544	1.3863031e-05
168	0x3d4c40ec	0.0498666
169	0x3daac73c	0.08338782
170	0xbe28006c	-0.16406411
171	0x3e07c865	0.13260038
172	0x3a007da3	0.0004901534
173	0xbda915da	-0.08256121
174	0xbc944ca4	-0.018102951
175	0x3c0686c0	0.008210838
176	0x3da8e624	0.08247021
177	0x3bd173c0	0.0063919723
178	0xbc98d239	-0.01865493
179	0x3dfd5b35	0.12370912
180	0x3d85079c	0.06495592
181	0xbd90c6ee	-0.07069193
182	0x3dab9d54	0.08379617
183	0x3e755afe	0.23960492
184	0x3ce83dc6	0.028349768
185	0x3d8b5d32	0.06804885
186	0xbd692c10	-0.056926787
187	0x3d130e8b	0.03590254
188	0xbe079a3b	-0.13242428
189	0x3d684b6a	0.056712545
190	0x3d5355a4	0.051595345
191	0xbdb51bc1	-0.08843184
192	0x3c9b1cc7	0.01893462
193	0x3ced220a	0.028946895
194	0xbdf3b8ff	-0.119005196
195	0xbdf323a0	-0.11872029
196	0x3d1be214	0.0380574
197	0xbe24aeab	-0.16082256
198	0x3e21ee75	0.1581362
199	0x3d555b8e	0.052089266
200	0x3dada856	0.08479373
201	0x3dcdffb2	0.10058536
202	0x3e93b52e	0.28849167
203	0xbdd98924	-0.106218606
204	0x3da51135	0.080599226
205	0x3dca0283	0.0986376
206	0xbcdcbfc0	-0.026946902
207	0xbd5602cb	-0.052248757
208	0x3e449018	0.19195592
209	0xbd564613	-0.05231292
210	0x3d946daf	0.07247483
211	0x3cf8767f	0.03032994
212	0x3e161cfe	0.14659497
213	0x3c70ee89	0.014705309
214	0x3d36beae	0.04461544
215	0x3d981515	0.07425896
216	0xbc8cd2a7	-0.01719029
217	0xbda1939d	-0.07889483
218	0x3da85db8	0.082210004
219	0x3b302fc1	0.0026883932
220	0xbe832801	-0.25616458
221	0xbe25d8d5	-0.16195996
222	0x3e925b06	0.2858507
223	0x3d824635	0.06361047
224	0x3ddbacff	0.10726356
225	0xbd3358d8	-0.0437859
226	0xbc7b1c3c	-0.015326556
227	0xbdec2862	-0.1153114
228	0xbf0de2b0	-0.5542402
229	0x3de2b4ce	0.11069642
230	0xbda4a095	-0.08038441
231	0x3e1bdee2	0.15221742
232	0x3dad9620	0.084759
233	0xbd83a936	-0.06428759
234	0xbd1e559a	-0.038655855
235	0x3ea448fb	0.3208693
236	0x3e445c99	0.19175948
237	0x3dcdf076	0.1005563
238	0xbf04f98e	-0.5194329
239	0x3c4cabeb	0.01249216
240	0xbdbf6d31	-0.093469985
241	0x3cebe82a	0.028797228
242	0xbe4fb4be	-0.20283791
243	0x3d23415c	0.039857253
244	0xbe4283f0	-0.18995643
245	0xbd3514d9	-0.044209335
246	0x3dfdebbb	0.12398478
247	0x3dde8a6d	0.10866246
248	0x3cd1d641	0.02561486
249	0x3dfc78c6	0.12327723
250	0x3dfc60cf	0.12323152
251	0xbc8834e4	-0.016626783
252	0xbd3edf90	-0.046599925
253	0x3d00e7fb	0.031471234
254	0x3e4a426d	0.19751902
255	0x3dae7d33	0.085199736

layers.2.0.bias f4 [256]
0	0xbba8345b	-0.0051331944
1	0x3d8ad4de	0.067788824
2	0x3dbd9c70	0.09258354
3	0xbd9d1324	-0.076696664
4	0xbe2ca10a	-0.16858307
5	0xbe00459c	-0.12526554
6	0xbd5d4746	-0.05402305
7	0x3da2a899	0.07942314
8	0x3c755f56	0.014976343
9	0xbdddc2d7	-0.108281784
10	0x3e2964de	0.16542384
11	0x3e11e1d2	0.142463
12	0xbd24e27f	-0.040255066
13	0xbd23fea2	-0.04003776
14	0xbd634959	-0.05548987
15	0x3d2216f9	0.03957269
16	0xbdd2567f	-0.10270404
17	0x3d4d267f	0.05008554
18	0xbd09a058	-0.03360018
19	0x3d7958af	0.06087559
20	0x3dc9a99d	0.09846804
21	0x3de7f869	0.11326677
22	0xba524780	-0.00080215186
23	0x3e050bb3	0.12992744
24	0x3d1a1ac0	0.037623167
25	0xbc0f2b5a	-0.008738363
26	0xbde27470	-0.11057365
27	0xbc5fd350	-0.013661221
28	0x3d7e365a	0.062063552
29	0xbcf3a19e	-0.029740151
30	0xbe0d2c0f	-0.13786338
31	0x3d579d0d	0.05264001
32	0x3d848337	0.0647034
33	0x3deb2ed3	0.114835404
34	0x3e4ef058	0.20208871
35	0xbde0fbc6	-0.10985522
36	0xbe0a0099	-0.1347679
37	0x3dbd6984	0.09248641
38	0x3d9f804b	0.07788142
39	0x3e2accae	0.16679642
40	0xbc964fcd	-0.018348599
41	0x3e0b6cc2	0.13615707
42	0x3e9062a5	0.2820026
43	0x3dadd716	0.0848829
44	0xbddbdd1b	-0.10735532
45	0x3dc0ce3a	0.094143346
46	0x3cd76b06	0.02629615
47	0x3e4f1374	0.20222265
48	0x3de900e5	0.11377124
49	0x3ba41a65	0.0050080293
50	0xbda9f667	-0.08298951
51	0x3cf2c835	0.029636482
52	0x3df0bdc4	0.11754945
53	0x3e6b807d	0.22998233
54	0xbdb37364	-0.087622434
55	0xbe0c0f23	-0.13677649
56	0xbcae2659	-0.02125852
57	0x3d9a96c2	0.07548286
58	0xbe048160	-0.12939978
59	0xbcaaec4d	-0.02086463
60	0x3b8a9aa7	0.004229862
61	0xbb03b4c2	-0.0020096754
62	0xbe0ea1fc	-0.1392898
63	0x3c4db4e9	0.012555339
64	0x3e064e42	0.1311579
65	0x3e1d8f01	0.15386583
66	0x3df55ad3	0.11980214
67	0xbbb20928	-0.0054332204
68	0x3e027e85	0.12743576
69	0xbcdc8106	-0.026916992
70	0xb9170d03	-0.0001440533
71	0xbe292a7f	-0.16520117
72	0x3db7f772	0.08982743
73	0xbc9793b7	-0.018503053
74	0x3b259247	0.002526419
75	0x3a8d57b2	0.0010783582
76	0xbe0a212c	-0.13489217
77	0x3ca6fbc4	0.020383723
78	0x3e3ba666	0.18325195
79	0x3b8a2218	0.00421549
80	0xbc2e8528	-0.010651864
81	0xbdc2c257	-0.09509724
82	0xbc554d05	-0.013018851
83	0x3d395d57	0.04525503
84	0x3e0e6b3c	0.13908094
85	0x3cc2c3c7	0.023774995
86	0x3deea176	0.1165189
87	0xbda88dd2	-0.08230175
88	0xbe71b0ab	-0.2360255
89	0x3c5ed2c0	0.013600051
90	0xbd8ac6c1	-0.067761905
91	0xbdae1d35	-0.085016645
92	0x3d75d585	0.06001808
93	0x3e1a6648	0.1507808
94	0x3e0bd568	0.13655627
95	0xbd135e8b	-0.035978835
96	0xbd4d79db	-0.05016504
97	0xbb96dcd1	-0.00460396
98	0xbe5d0afe	-0.21586224
99	0x3bdd2e27	0.0067498866
100	0x3e00e78b	0.12588327
101	0x3d604892	0.05475671
102	0x3e1e2cd5	0.1544679
103	0xbc8cb3c1	-0.017175557
104	0xbe8bbacb	-0.2729095
105	0x3e192df3	0.14958934
106	0x3bb42b02	0.005498291
107	0xbd0833a1	-0.033252362
108	0x3d43d883	0.047813904
109	0x3c9af32b	0.01891478
110	0x3cc5ebd0	0.024160296
111	0x3e3fb763	0.187223
112	0x3e3bbc25	0.1833349
113	0x3de27c3e	0.110588536
114	0x3e16c7db	0.14724676
115	0x3d80ff83	0.06298735
116	0xbdaa7c63	-0.08324506
117	0xbd4570c0	-0.04820323
118	0xbd0cc7d8	-0.034370273
119	0xbd7f8a25	-0.062387604
120	0xbe0ffcd7	-0.14061294
121	0xbe0ac1d4	-0.13550502
122	0xba2f8591	-0.0006695623
123	0x3d966f66	0.07345466
124	0x3ce105ae	0.027468529
125	0x3d236940	0.039895296
126	0xbdff5f37	-0.12469333
127	0xbcf7a984	-0.030232199
128	0xbd39f5c1	-0.045400385
129	0xbc28a165	-0.010292386
130	0xbde3a93c	-0.11116263
131	0x3e2b10d9	0.16705646
132	0x3e453f17	0.19262348
133	0xbdf6a278	-0.12042707
134	0x3d97f9ea	0.07420714
135	0xbda95aeb	-0.08269294
136	0xbc3e3c7c	-0.0116111
137	0x3a36f971	0.00069799187
138	0x3cf2deb7	0.029647214
139	0x3acb59ee	0.0015514472
140	0x3bfc624e	0.0077021485
141	0xbded63f7	-0.115913324
142	0x3dcc1f8d	0.09966955
143	0xbd6c1df8	-0.057645768
144	0x3d450aa6	0.04810586
145	0xbd691be9	-0.056911383
146	0xbdd98dcf	-0.10622751
147	0xbd884726	-0.066541955
148	0x3d9e9907	0.077440314
149	0x3d14fe97	0.03637561
150	0x3da74976	0.081683084
151	0x3ddd3b20	0.10802293
152	0x3d7d367a	0.06181953
153	0xbe1382ab	-0.14405315
154	0x3dc4102b	0.09573396
155	0xbc494cee	-0.012286408
156	0x3c1d35b9	0.009595328
157	0xbd9f1e6e	-0.07769476
158	0x3c9a1524	0.018808909
159	0xbd230b21	-0.039805535
160	0x3d61e9fd	0.05515479
161	0x3d4214c8	0.0473831
162	0xbd2e87df	-0.042610046
163	0x3d245faf	0.040130313
164	0xbe03b097	-0.12860332
165	0x3c3d49e4	0.011553261
166	0xbc841eef	-0.016128032
167	0x3caa8c37	0.020818813
168	0xbd97764a	-0.07395609
169	0x3e45d156	0.19318137
170	0xbd13f85a	-0.03612552
171	0xbdd17151	-0.102266915
172	0x3da38253	0.07983842
173	0xbe5bc871	-0.21463181
174	0xbe2933d8	-0.16523683
175	0xbb077365	-0.0020668146
176	0x3dc5d7ae	0.09660278
177	0xbc53138d	-0.012883079
178	0x3d82b10e	0.06381427
179	0xbd728c43	-0.059215795
180	0xbd92c585	-0.0716658
181	0x3d9b59ba	0.07585473
182	0x3e249196	0.16071162
183	0xbd6af6ad	-0.057364155
184	0x3e25b5d3	0.16182642
185	0xbd8226cf	-0.063550584
186	0x3dcb01d5	0.09912459
187	0x3dd74534	0.10511246
188	0xbe5a97c3	-0.21346955
189	0x3b323ca6	0.0027196794
190	0xbd45a9c2	-0.048257597
191	0x3dd58959	0.104265876
192	0x3e12ec2a	0.14347902
193	0xbdf979ab	-0.121814094
194	0xbe0aaad7	-0.13541733
195	0x3e04e8e8	0.12979472
196	0x3d6c5fd4	0.057708576
197	0xbc3be36a	-0.011467794
198	0x3d5914ad	0.052998234
199	0x3e470829	0.19436707
200	0xbb2b6d0f	-0.0026157533
201	0xbe0a1281	-0.13483621
202	0xbc92f6a2	-0.01793987
203	0x3c2e886c	0.010652643
204	0xbddc0cbc	-0.107446164
205	0xbdd557f6	-0.10417168
206	0xbcc6b407	-0.024255766
207	0xbd8e2c94	-0.06942096
208	0xbddae8ac	-0.1068891
209	0x3d1b8fe2	0.037979014
210	0xbe18d21b	-0.14923899
211	0xbd93e88c	-0.07222089
212	0xbd125a00	-0.035730362
213	0x3e0c025c	0.13672775
214	0xbd4f687d	-0.050636757
215	0x3e09530f	0.1341059
216	0x3dbaf999	0.09129638
217	0xbd8c303e	-0.06845139
218	0x3e3e337c	0.18574327
219	0xbd4303cd	-0.047611047
220	0xbd242944	-0.040078416
221	0xbd824f9e	-0.06362842
222	0x3d9f411a	0.07776089
223	0xbd0c2b92	-0.03422124
224	0xbd81d2c7	-0.06339031
225	0x3df37cca	0.11889036
226	0xbda8598b	-0.08220204
227	0x3cd2b972	0.025723193
228	0x3e15edbd	0.14641471
229	0xbdb2ef39	-0.08737034
230	0xbda71809	-0.08158881
231	0x3d65b3d3	0.056079697
232	0x3c38b801	0.011274339
233	0x3c8c7186	0.017143976
234	0xbd93b263	-0.07211759
235	0xbdae3aa6	-0.0850728
236	0x3d9fdd64	0.07805899
237	0xbd3bc0de	-0.04583823
238	0xbba1a71f	-0.0049332525
239	0x3d731c7d	0.05935334
240	0xbde230ee	-0.11044489
241	0xbd5bedd1	-0.053693596
242	0x3dc66fcb	0.096892916
243	0xbdaabc53	-0.08336701
244	0xbdeb6b2d	-0.114950515
245	0x3e310d5c	0.17290252
246	0xbd8ea1f7	-0.06964486
247	0x3e592d6c	0.21208733
248	0x3e1c00eb	0.15234725
249	0x3ccce6be	0.02501237
250	0xbe8b268f	-0.27177855
251	0xbc4d644c	-0.01253612
252	0xbe6278f8	-0.22116458
253	0xbde80bf4	-0.11330405
254	0x3d0228ff	0.03177738
255	0x3ddc121e	0.10745643

layers.3.0.weight f4 [128, 256]
0	0x3d52b6ba	0.051443793
1	0xbc6cec90	-0.014460698
2	0xbd60b0f6	-0.054856263
3	0x3d3f4f04	0.046706215
4	0x3c1c1bc8	0.009528108
5	0x3ca01754	0.019542374
6	0xbd4e6674	-0.050390676
7	0xbc1c97e0	-0.009557694
8	0x3d7e0fba	0.062026717
9	0xbd3decd0	-0.04636842
10	0xbd5ceda8	-0.053937584
11	0x3d630f20	0.055434346
12	0xbd5810fc	-0.052750573
13	0x3c83150c	0.016001247
14	0xbd71296e	-0.0588774
15	0xbca70b60	-0.020391166
16	0x3c243558	0.010022484
17	0x3d109a78	0.035303563
18	0xbd6a547c	-0.057209477
19	0xbb3ddb60	-0.002896987
20	0x3c917d7c	0.01776003
21	0xbd2ce734	-0.04221268
22	0x3aa929c0	0.0012906119
23	0xbd1ba59e	-0.03799974
24	0xbccb33cc	-0.024804972
25	0xbbd5efb0	-0.006528817
26	0xbc6e7090	-0.014553204
27	0x3d616224	0.055025235
28	0x3ce05a00	0.027386665
29	0x3ca7cfe4	0.020484872
30	0xbb3ed5c0	-0.0029119104
31	0xbd0cb45e	-0.0343517
32	0xb9e78700	-0.00044160336
33	0xbc0798e8	-0.008276202
34	0xbd331996	-0.043725573
35	0x3d4f7022	0.050644048
36	0x3d14e0be	0.036347143
37	0xbd107a82	-0.035273083
38	0xbcb9bc5c	-0.022672825
39	0xbc016650	-0.007897928
40	0x3ce23a68	0.02761574
41	0xbd1e3ac8	-0.038630277
42	0x3d5db412	0.054126807
43	0x3b4f2c00	0.003161192
44	0x3d210966	0.039315604
45	0x3bdc4aa0	0.006722763
46	0x3d5889de	0.052865855
47	0xbd365aba	-0.044520117
48	0x3bdc58c0	0.006724447
49	0x3d22be5a	0.039732315
50	0xbd457548	-0.04820755
51	0xbcb524ec	-0.022112332
52	0xbbda46a0	-0.006661251
53	0xbd77a4ba	-0.06045983
54	0x3d748738	0.059699267
55	0xbba50d80	-0.0050370097
56	0x3d623986	0.05523064
57	0x3b6fef00	0.003661096
58	0x3c9b48d0	0.018955618
59	0x3d449bbc	0.048000082
60	0x3acf4900	0.0015814602
61	0xbd6595a0	-0.056050897
62	0x3ce4c248	0.027924672
63	0x3d3646b8	0.044501036
64	0x3cd2b540	0.025721192
65	0xbd42c32e	-0.04754942
66	0x3bb37a50	0.0054772273
67	0x3cd19724	0.025584765
68	0xbcdf3ce8	-0.027250722
69	0x3d19c9bc	0.037545905
70	0x3d0b69dc	0.034036502
71	0x3c35fce0	0.011107653
72	0x3a6b3980	0.0008973107
73	0x3d72d896	0.059288584
74	0x3c7a6d10	0.015284792
75	0xbd46bfea	-0.048522867
76	0xbd5c48f4	-0.05378051
77	0xbccd2bb4	-0.025045253
78	0x3d110710	0.035407126
79	0xbc946060	-0.018112361
80	0x3d6ace2c	0.057325527
81	0xbd3cbf9e	-0.046081178
82	0x3d7591e2	0.059953578
83	0x3d6ebd26	0.058285855
84	0xbd716f84	-0.05894424
85	0xbd6f4272	-0.058412977
86	0xbd737552	-0.059438057
87	0xbbfb74f0	-0.007673852
88	0x3d2c9f12	0.04214389
89	0xbb2920e0	-0.0025806949
90	0x3d4a2cf2	0.04935927
91	0x3c97b938	0.018520936
92	0xbd71dcac	-0.05904834
93	0x3cd6d410	0.026224166
94	0xbcc2ede8	-0.023795083
95	0x3a170580	0.00057610124
96	0xbd09a83a	-0.0336077
97	0xbd6082be	-0.054812185
98	0xbd07e510	-0.033177435
99	0xbccefce0	-0.025267065
100	0xbcd4f464	-0.02599544
101	0xbbdec4c0	-0.006798357
102	0xbc921480	-0.01783204
103	0x3a229e00	0.00062033534
104	0xbd69d632	-0.05708904
105	0x3d098ee4	0.033583537
106	0xbd05059a	-0.032476045
107	0x3bf1f2a0	0.0073836595
108	0x3d248c8c	0.0401731
109	0xbd17e382	-0.037082203
110	0xbce9cf84	-0.028541334
111	0xbd43f01e	-0.047836415
112	0x3c73d2d8	0.014881812
113	0xbd78e4f2	-0.060765214
114	0xbcfe76c4	-0.031062491
115	0x3d4be398	0.049777597
116	0xbd680f3a	-0.056655146
117	0x3d13044a	0.035892762
118	0xbc825e38	-0.015914068
119	0xbd402490	-0.04690987
120	0x3cd7a8c0	0.026325583
121	0xbd086846	-0.033302568
122	0x3cddf600	0.027094841
123	0xbc3c44f0	-0.011491045
124	0x3d68b38c	0.056811854
125	0xbd0a1efa	-0.033720948
126	0x3c8b40a4	0.016998596
127	0x3d2c6118	0.042084783
128	0x3ca81c18	0.020521209
129	0xbb9e2320	-0.0048259646
130	0x3d7694c4	0.060200468
131	0xbd369262	-0.044573195
132	0xbb6733a0	-0.0035278574
133	0xbcfee6f8	-0.031115994
134	0x3d453908	0.048150092
135	0xbd7e5d2c	-0.062100574
136	0xbd53e9f0	-0.051736772
137	0x3c186dc8	0.009303518
138	0x3ba0bd70	0.004905395
139	0xbcd6df3c	-0.026229493
140	0xbb9c0570	-0.0047613904
141	0x3c133d40	0.008986771
142	0xbce76af8	-0.028249249
143	0xbcc214d4	-0.023691572
144	0xbd6b3370	-0.0574221
145	0x3cb24f04	0.021766193
146	0x3cdcc924	0.02695138
147	0x3d5ac9cc	0.053415105
148	0xbbefcc90	-0.007318087
149	0xbc6abc40	-0.014327109
150	0x3d5f982a	0.054588474
151	0xbcb1167c	-0.021617167
152	0xbcd221b8	-0.025650844
153	0x3ccad964	0.024761863
154	0xbc9b13bc	-0.018930309
155	0xbd1adada	-0.03780637
156	0xbc301a60	-0.010748476
157	0xbd063cf8	-0.032772988
158	0xbc9921b4	-0.018692829
159	0x3cd3170c	0.025767826
160	0xbc484298	-0.012222908
161	0xbcd226bc	-0.025653236
162	0x3d09afca	0.03361491
163	0xbc6f4478	-0.014603727
164	0x3cf4884c	0.029850148
165	0x3d38d112	0.04512126
166	0xbc0e23f0	-0.00867556
167	0x3cfdd678	0.030986056
168	0xbcdd48bc	-0.027012222
169	0x3cb0b530	0.021570772
170	0xbbdb3bf0	-0.0066904947
171	0xbd726f06	-0.05918791
172	0xbd0eabce	-0.034831814
173	0xbc9db668	-0.019252017
174	0xbcc513fc	-0.02405738
175	0x3c6f0000	0.014587402
176	0xbcfc8c14	-0.030828513
177	0x3d028a22	0.031870015
178	0xbd0dcea0	-0.03462088
179	0xbd1149ca	-0.03547076
180	0x3d349b56	0.044093452
181	0xbad33a80	-0.0016115457
182	0xbd1fddb2	-0.039029785
183	0xbd5cc47a	-0.053898312
184	0xbd3e0596	-0.046392046
185	0x3c276040	0.010215819
186	0x3ce8d774	0.028423049
187	0x3c81744c	0.015802525
188	0xbc58dec0	-0.0132367015
189	0xbd31b7ba	-0.043388106
190	0xbc4ea058	-0.012611471
191	0xbccf313c	-0.025292031
192	0xbc4ce470	-0.012505636
193	0x3ccc6770	0.024951667
194	0xba210d00	-0.00061436
195	0x3d388d64	0.045056716
196	0x3d48da62	0.04903639
197	0x3d3cecae	0.046124153
198	0xbd4bfca0	-0.04980147
199	0x3c927448	0.017877713
200	0x3c12cc08	0.008959778
201	0xbd49290a	-0.049111404
202	0x3d4c4a58	0.049875587
203	0x3abf4300	0.0014592111
204	0xbbd211c0	-0.0064108074
205	0xbd303542	-0.04301954
206	0x3c1fe268	0.009758569
207	0x3d507138	0.050889224
208	0xbbb06ea0	-0.0053842813
209	0x3ca82854	0.020527042
210	0xbd5c879c	-0.053840265
211	0xbd66412e	-0.056214504
212	0xbd61d0a6	-0.055130623
213	0x3c89dc1c	0.01682859
214	0x3d556d2c	0.052106068
215	0xbd1aa9fa	-0.03775976
216	0xbce552fc	-0.027993672
217	0xbd6e4844	-0.058174387
218	0xbd7c0d26	-0.061535977
219	0x3bb98760	0.00566189
220	0x3cd85e5c	0.026412182
221	0x3b02d700	0.0019964576
222	0x3d362268	0.044466406
223	0xbc448d00	-0.011996508
224	0xbd1e2e46	-0.03861835
225	0x3be5e070	0.0070152804
226	0x3d3f2676	0.04666754
227	0xbaceda00	-0.0015781522
228	0xbd048724	-0.032355443
229	0x3c742ac0	0.0149027705
230	0x3d3d284c	0.04618101
231	0x3d7a49d4	0.061105564
232	0x3b21e580	0.0024703443
233	0x3d40c362	0.04706133
234	0x3cd44cc4	0.025915511
235	0x3be810a0	0.00708206
236	0x3d408a9e	0.047007196
237	0x3d334c98	0.043774217
238	0x3d10b572	0.03532929
239	0xbd129752	-0.03578884
240	0xbd035a5e	-0.032068603
241	0xbcba01f0	-0.022706002
242	0xbd5633e0	-0.052295566
243	0xbd01c698	-0.031683534
244	0xbcc3333c	-0.023828141
245	0xbc831ce4	-0.016004987
246	0x3cfd6618	0.030932471
247	0x3d29ebcc	0.04148464
248	0xbc5eafa0	-0.013591677
249	0xbcf361b8	-0.029709682
250	0xbd0bea70	-0.034159124
251	0x3cacc85c	0.021091633
252	0x3d26e65a	0.040747024
253	0xbd4b4e22	-0.04963506
254	0xbc8d7f90	-0.01727274
255	0x3d66d106	0.056351684

layers.3.0.bias f4 [128]
0	0xbd184796	-0.037177645
1	0xbd89d100	-0.06729317
2	0xbd8055a4	-0.06266335
3	0x3d64f3ee	0.055896692
4	0xbdb63fd4	-0.08898893
5	0xbd2c22a0	-0.04202521
6	0x3d6fc351	0.058535878
7	0xbd3acf00	-0.045607567
8	0xbdb59ccf	-0.088677995
9	0x3a853cbd	0.0010165196
10	0xbdadd4ef	-0.084878795
11	0x3927fa0b	0.0001601951
12	0xbcef21a4	-0.029190846
13	0x3ba94945	0.005166205
14	0xbd2610b0	-0.04054326
15	0xbd694db9	-0.056958888
16	0xbd36c7b3	-0.04462404
17	0x3e0e4bd9	0.13896121
18	0x3be74965	0.00705831
19	0xbcc96c9c	-0.024587922
20	0xbd7af1d5	-0.061265785
21	0xbc0ed592	-0.008717911
22	0x3c073b4b	0.008253883
23	0x3d229c0b	0.039699595
24	0xbea4cc6b	-0.3218721
25	0xbcd9f857	-0.026607675
26	0xbe0dd660	-0.13851309
27	0x3d195043	0.03743006
28	0x3e544cb4	0.20732385
29	0xbd197b78	-0.037471265
30	0x3cc751a0	0.024330914
31	0x3cdf7193	0.027275836
32	0x3d852ff8	0.0650329
33	0xbd3229df	-0.043496963
34	0x3d924b34	0.0714325
35	0x3d38c733	0.045111846
36	0xbd4732e9	-0.048632536
37	0x3bb8db03	0.0056413426
38	0xbcc4787f	-0.023983238
39	0x3bd6cacf	0.0065549384
40	0xbd81c4a7	-0.063363366
41	0xbd0c20bc	-0.034210905
42	0x3d86ee5e	0.06588434
43	0xbde545b5	-0.11194936
44	0x3d462403	0.048374187
45	0x3e5fb70e	0.21847174
46	0x3df58318	0.11987895
47	0xbbfb06b2	-0.0076607103
48	0xbd2d4e21	-0.042310838
49	0xbc674fe3	-0.014118168
50	0x3adc5693	0.0016810469
51	0xbca396b3	-0.01996932
52	0x3d51f4d4	0.051258877
53	0x3d9134a7	0.07090121
54	0xbc3732e6	-0.011181569
55	0xbd2410f9	-0.04005525
56	0x3ca48f0c	0.020087741
57	0xbd81582b	-0.06315645
58	0xb9e71007	-0.00044071695
59	0x3d1119dd	0.035425056
60	0x3e0efc9f	0.13963555
61	0x3d0fd970	0.035119474
62	0xbd9a95dd	-0.075481154
63	0x3e2d7ff0	0.16943336
64	0x3d54abca	0.051921643
65	0x3c706902	0.014673473
66	0x3df3a87a	0.11897369
67	0xbcf5b4cf	-0.029993443
68	0xbd8fe5a2	-0.07026221
69	0x3e27434e	0.16334268
70	0xbd958714	-0.07301155
71	0xbdba1251	-0.09085525
72	0x3d323c40	0.04351449
73	0xbd92c084	-0.07165626
74	0x3b86275a	0.0040940465
75	0xbc49d58f	-0.012318983
76	0xbd8fbe45	-0.07018713
77	0xbd12fbed	-0.035884786
78	0x3cc8ee9f	0.024527846
79	0xbcdb3a7c	-0.026761286
80	0xbda5a292	-0.080876485
81	0x3e0e5b28	0.13901961
82	0x3a535624	0.0008061847
83	0xbd17758f	-0.036977347
84	0xbc8463e5	-0.016160915
85	0x3d591d2c	0.053006336
86	0x3dad5efc	0.084653825
87	0x3d163aef	0.036677297
88	0xbd5fb8bc	-0.054619536
89	0x3d2e4c74	0.04255338
90	0x3deac17c	0.114626855
91	0xbd065df0	-0.03280443
92	0xbdbb955f	-0.0915935
93	0xbd9f961e	-0.077923045
94	0x3b06e27b	0.002058177
95	0xbdf2e35f	-0.11859774
96	0xbcb226fa	-0.021747101
97	0xbe7581bc	-0.23975271
98	0xbb06984d	-0.0020537556
99	0x3d6db646	0.058035158
100	0xbd32718c	-0.043565318
101	0x3c89c96b	0.016819676
102	0x3d039dbf	0.03213286
103	0xbd45025a	-0.048097946
104	0x38f4cec8	0.00011673343
105	0xbc976ade	-0.018483575
106	0xbc8e703b	-0.0173875
107	0x3e0f7ca2	0.14012387
108	0xbd04f0e7	-0.032456305
109	0xbdb371d5	-0.08761946
110	0xbd17a752	-0.037024803
111	0x3e12364a	0.14278522
112	0x3ce9f575	0.028559426
113	0x3d25914f	0.04042178
114	0x3e0578fe	0.13034436
115	0xbde1993e	-0.11015557
116	0xbd701220	-0.058611035
117	0x3b93ae66	0.004506874
118	0xbd4ee04d	-0.05050688
119	0xbd905f74	-0.07049456
120	0xbdfcfc26	-0.12352781
121	0x3c119aab	0.008886973
122	0x3dce6b40	0.1007905
123	0x3c0ca0ee	0.0085832905
124	0xbd436e49	-0.047712598
125	0x3cd6d966	0.02622671
126	0x3db1aadf	0.08675169
127	0xbc03a11d	-0.008034018

layers.4.0.weight f4 [64, 128]
0	0xba83d9c0	-0.0010059401
1	0x3cac2e80	0.021018267
2	0xbd61eac3	-0.055155527
3	0x3d4d1cdd	0.050076354
4	0xbdf4496f	-0.11928069
5	0xbe7e2be3	-0.24821429
6	0xbd944211	-0.07239164
7	0xbd268862	-0.04065741
8	0x3b8aff20	0.004241839
9	0xbeb951ee	-0.3619532
10	0xbef3b8f2	-0.4760204
11	0x3ca2f801	0.019893648
12	0x3d467c44	0.048458353
13	0x3cc13911	0.023586782
14	0xbcaaefba	-0.020866264
15	0x3d6130cf	0.054978188
16	0xbd6ea44a	-0.058262147
17	0x3da33ef4	0.07970992
18	0xbbd362a5	-0.0064509683
19	0x3e93b108	0.28846002
20	0x3d446732	0.047949977
21	0x3d706de2	0.058698542
22	0x3d47e08e	0.048798136
23	0x3d02d8d2	0.031945057
24	0x3ec33753	0.38128147
25	0x3d782f8f	0.06059223
26	0x3f4e0812	0.80481064
27	0x3e88a31e	0.2668695
28	0x3e9e837e	0.30959696
29	0xbb3e1071	-0.00290015
30	0x3d70afde	0.05876147
31	0x3d8fc660	0.07020259
32	0x3da564df	0.0807588
33	0x3f25b93d	0.64735776
34	0x3d36ebda	0.04465852
35	0x3d02532a	0.031817593
36	0xbdb3d440	-0.08780718
37	0x3c96a2c8	0.018388167
38	0x3d1795e4	0.03700818
39	0xbe79b114	-0.24383956
40	0xbd88dfe3	-0.06683328
41	0x3da03133	0.07821884
42	0x3c46320c	0.012096893
43	0x3f389f6f	0.72118276
44	0xbf6c5f7d	-0.92333204
45	0x3ce402c2	0.027833346
46	0x3dc95d36	0.09832232
47	0x3c30bee8	0.010787703
48	0xbd5f2b14	-0.054484442
49	0xbd9a8e17	-0.07546633
50	0x3d8d633e	0.069036946
51	0x3cbba691	0.022906573
52	0x3e5df4f5	0.21675475
53	0x3db3a47c	0.08771607
54	0xbe50fdb9	-0.20409288
55	0xbd1ab132	-0.037766643
56	0xbd6dfa7b	-0.058100205
57	0x3b935067	0.0044956687
58	0x3e9dedf5	0.3084561
59	0x3d89474c	0.06703052
60	0x3e0fd974	0.14047796
61	0xbcffcbc3	-0.03122509
62	0xbe0457ea	-0.12924162
63	0x3d8205f6	0.06348793
64	0x3d932436	0.07184641
65	0xbea4addc	-0.32163894
66	0xbda83b18	-0.08214396
67	0xbda96644	-0.08271459
68	0xbdabdbc6	-0.08391528
69	0xbb450b0f	-0.0030066406
70	0x3d9d2577	0.076731615
71	0x3dcea055	0.10089175
72	0xbe2f3cd4	-0.17113048
73	0xbf2c4c7c	-0.67304206
74	0x3c178cd0	0.009249881
75	0x3e0b1148	0.13580811
76	0xbc32723e	-0.010891495
77	0xbdacbb9e	-0.08434223
78	0x3eb58b66	0.35457915
79	0xbf076d4b	-0.5290114
80	0xbd057009	-0.03257755
81	0x3f0a2f1c	0.53978133
82	0xbf2f9507	-0.6858677
83	0x3baebd70	0.0053326413
84	0x3bcd831a	0.006271732
85	0xbc8a7f18	-0.016906306
86	0xbeb34f08	-0.35021234
87	0x3d842b25	0.06453542
88	0xbe6802e1	-0.22657348
89	0x3e841432	0.25796658
90	0x3deccd95	0.11562649
91	0x3e05c80f	0.13064598
92	0xbda37c53	-0.07982697
93	0xbe8e03dc	-0.2773732
94	0xbd8e4820	-0.069473505
95	0x3d7f3838	0.062309474
96	0x3d39408e	0.04522758
97	0x3e7059f6	0.23471817
98	0x3e2397d1	0.15975882
99	0xbc6ea206	-0.014564997
100	0xbdaaab03	-0.08333399
101	0xbf3e5c83	-0.7435991
102	0x3d643ab5	0.05572005
103	0xbd3a8ee9	-0.045546446
104	0xbd715ffc	-0.05892943
105	0xbe0d6597	-0.13808285
106	0xbbb8f5e2	-0.005644546
107	0xbc6c4b43	-0.014422241
108	0xbdb24556	-0.08704631
109	0xbbb3e7f0	-0.0054902956
110	0xbe258356	-0.16163382
111	0xbcfad229	-0.03061779
112	0xbf410fca	-0.7541472
113	0x3d22c859	0.039741848
114	0xbda64b15	-0.081197895
115	0x3cea97d8	0.028636858
116	0x3d9ceb2a	0.076620415
117	0x3f17db75	0.5931924
118	0x3f64b053	0.8933155
119	0x3cf16578	0.02946733
120	0xbe1723c8	-0.14759743
121	0xbe30655c	-0.17226166
122	0x3e500531	0.2031448
123	0x3d64c454	0.055851296
124	0xbcf42f24	-0.029807635
125	0x3da57830	0.080795646
126	0xbdc2afb7	-0.09506171
127	0xbd19f7e4	-0.037589923
128	0x3d81414b	0.06311282
129	0x3c474ffc	0.012165066
130	0xbcca5252	-0.024697457
131	0xbdac63a3	-0.08417442
132	0x3c2037ed	0.009778959
133	0xbeb29c07	-0.34884664
134	0x3bef77de	0.0073079905
135	0xbd8b2ff1	-0.067962535
136	0xbd646aa4	-0.055765763
137	0x3e1e42e4	0.15455204
138	0xbe0a40ca	-0.13501278
139	0xbe042426	-0.12904415
140	0xbe3f7936	-0.18698582
141	0x3eaa5a4e	0.33272022
142	0xbcb2156e	-0.021738734
143	0xbc5bba12	-0.013411062
144	0xbce4a2cc	-0.027909659
145	0x3da941d7	0.08264511
146	0xbd956d98	-0.07296294
147	0x3e98c177	0.29835102
148	0x3cd2129e	0.025643643
149	0xb9a6904a	-0.0003176949
150	0x3ec49f00	0.38402557
151	0xbd4b6a21	-0.04966176
152	0x3d38e1f2	0.045137353
153	0xbd451bcd	-0.048122216
154	0xbf354464	-0.7080748
155	0xbe976881	-0.29571918
156	0x3d5e91f3	0.054338407
157	0x3c9d8802	0.019229893
158	0x3d383a61	0.04497755
159	0xbcbaeca7	-0.022817923
160	0x3de9c5bc	0.11414668
161	0xbe79ebcb	-0.24406354
162	0x3df4a96d	0.11946378
163	0xbd6133bb	-0.054980975
164	0x3e94b9ce	0.29048008
165	0x3cffca46	0.031224381
166	0xbc7172d6	-0.014736852
167	0x3bb1323a	0.005407599
168	0xbd91609e	-0.070985064
169	0x3d9e6094	0.077332646
170	0x3e237ea2	0.15966275
171	0xbf993c8e	-1.1971605
172	0xbcd8582c	-0.026409231
173	0x3d206efc	0.039168343
174	0xbddd8fe0	-0.108184576
175	0xbd9fb060	-0.07797313
176	0x3bf9ebae	0.007626972
177	0xbe6332fe	-0.2218742
178	0x3e3ffe0f	0.1874926
179	0xbd5c4623	-0.053777825
180	0xbe40dc84	-0.1883412
181	0xbd3f54f9	-0.046711896
182	0x3cba7ec0	0.022765517
183	0xbda653fc	-0.081214875
184	0x3c24e62f	0.010064646
185	0x3e0f361d	0.13985486
186	0x3e891693	0.26775035
187	0xbd9d614f	-0.07684576
188	0x3b96a709	0.004597549
189	0xbb33fd67	-0.0027464272
190	0x3db2e501	0.08735085
191	0xbbc64267	-0.0060503962
192	0xbd3307ff	-0.043708798
193	0xbe560858	-0.2090162
194	0x3d988fe3	0.07449319
195	0xbcd41869	-0.025890546
196	0xbcddee87	-0.027091278
197	0xbd802bb5	-0.062583365
198	0x3d19d308	0.03755477
199	0x3c7cd3d8	0.015431367
200	0x3e18276f	0.14858793
201	0xbd5b1dfa	-0.053495385
202	0x3c988695	0.018618861
203	0xbe3da698	-0.18520582
204	0x3cc4bff5	0.024017313
205	0xbda31ebb	-0.07964846
206	0x3e0cd83a	0.13754359
207	0xbc617ecf	-0.013763144
208	0x3d16ed6b	0.036847513
209	0xbd01b08a	-0.0316625
210	0xbd3804bd	-0.044926394
211	0x3d1cff91	0.038329665
212	0xbbee47f9	-0.0072717634
213	0x3e1e3357	0.15449272
214	0x3eddb671	0.43303254
215	0xbd2fb698	-0.042898744
216	0x3e15932e	0.14606926
217	0x3e6b2c40	0.22966099
218	0x3e2bc3ab	0.1677386
219	0xbc717f73	-0.014739859
220	0x3c6169c2	0.013758125
221	0x3da67ff4	0.08129874
222	0xbcfe7557	-0.031061811
223	0xbe678e54	-0.22612888
224	0xbd344d4a	-0.04401902
225	0x3c80a701	0.015704634
226	0x3dda4432	0.106575385
227	0x3df14e9f	0.11782574
228	0xbd57e1fd	-0.052705754
229	0x3e01c20d	0.12671681
230	0x3d98b974	0.074572474
231	0xbe9b8a52	-0.30378968
232	0x3d49ab47	0.04923561
233	0xbce3dd32	-0.027815435
234	0x3d28993c	0.04116176
235	0xbcea8347	-0.028627051
236	0xbd8d08a2	-0.06886412
237	0xbd71e12c	-0.05905263
238	0x3d36c5f3	0.044622373
239	0x3da26067	0.079285435
240	0xbe20dd6c	-0.15709466
241	0x3e003ca4	0.12523133
242	0xbd834532	-0.06409682
243	0xbc83c10d	-0.016083265
244	0x3d1a4727	0.037665512
245	0xbfd29a0b	-1.645326
246	0xbe93bb56	-0.28853863
247	0x3c8ced6c	0.017203055
248	0xbda96232	-0.082706824
249	0xbf13c83b	-0.577274
250	0xbcb0a96f	-0.021565167
251	0x3d8307ce	0.06397973
252	0xbd33f171	-0.04393143
253	0xbcec524a	-0.028847832
254	0x3dba1357	0.0908572
255	0xbd60acad	-0.054852176
